// Contract manifest for `builtins`.
//
// Signature source (1:1 correspondence target):
//   https://github.com/python/typeshed/blob/main/stdlib/builtins.pyi
//
// Signatures follow typeshed 1:1 where the static surface supports them;
// classes are grouped as typeshed declares them. Runtime implementations are
// co-located below (modules/<name>.mlir = CPython Modules/: one file carries
// the module's contracts, lowering strategies, and native implementations).
//
// Conventions (shared by all contract manifests):
//   - `!py.contract<"builtins.int">` is a nominal manifest contract.
//   - `!py.contract<"$T">` names a generic parameter from `ly.typing.params`.
//   - Method contracts are Callable terms in `method_contracts`; hand-written
//     manifests may use the typeshed-shaped `!py.protocol<"Callable", ...>`
//     spelling with `!py.callable<...>` for nested/variadic terms.

module attributes {
  ly.typing.manifest,
  ly.runtime.contracts = ["types.NoneType", "builtins.object", "builtins.bool", "builtins.BaseException", "builtins.int", "builtins.str", "builtins.Exception", "builtins.RuntimeError", "builtins.TypeError", "builtins.ValueError", "builtins.ArithmeticError", "builtins.LookupError", "builtins.ZeroDivisionError", "builtins.KeyError", "builtins.IndexError", "builtins.AssertionError", "builtins.StopIteration", "builtins.StopAsyncIteration", "builtins.SystemExit", "builtins.GeneratorExit", "builtins.OSError", "builtins.FileNotFoundError", "asyncio.CancelledError", "builtins.float", "builtins.bytes", "builtins.list", "builtins.tuple", "builtins.dict", "builtins.set", "builtins.range", "builtins.range_iterator", "builtins.str_iterator", "builtins.KeyboardInterrupt", "builtins.BaseExceptionGroup", "builtins.ExceptionGroup", "builtins.FloatingPointError", "builtins.OverflowError", "builtins.BufferError", "builtins.EOFError", "builtins.ImportError", "builtins.ModuleNotFoundError", "builtins.MemoryError", "builtins.NameError", "builtins.UnboundLocalError", "builtins.AttributeError", "builtins.ReferenceError", "builtins.NotImplementedError", "builtins.RecursionError", "builtins.PythonFinalizationError", "builtins.SyntaxError", "builtins.IndentationError", "builtins.TabError", "builtins.SystemError", "builtins.UnicodeError", "builtins.UnicodeDecodeError", "builtins.UnicodeEncodeError", "builtins.UnicodeTranslateError", "builtins.Warning", "builtins.BytesWarning", "builtins.DeprecationWarning", "builtins.EncodingWarning", "builtins.FutureWarning", "builtins.ImportWarning", "builtins.PendingDeprecationWarning", "builtins.ResourceWarning", "builtins.RuntimeWarning", "builtins.SyntaxWarning", "builtins.UnicodeWarning", "builtins.UserWarning", "builtins.BlockingIOError", "builtins.ChildProcessError", "builtins.ConnectionError", "builtins.BrokenPipeError", "builtins.ConnectionAbortedError", "builtins.ConnectionRefusedError", "builtins.ConnectionResetError", "builtins.FileExistsError", "builtins.InterruptedError", "builtins.IsADirectoryError", "builtins.NotADirectoryError", "builtins.PermissionError", "builtins.ProcessLookupError", "builtins.TimeoutError"],
  // Manifest Callable contracts for builtin free functions. These are the
  // single trusted source for these signatures; the emitter's seedBuiltins
  // reads them here instead of constructing the contracts in C++.
  ly.typing.function_names = ["builtins.print", "builtins.len", "builtins.hash"],
  ly.typing.function_contracts = [
    !py.callable<[], vararg = !py.contract<"builtins.tuple", [!py.contract<"builtins.object">]>, returns = [!py.literal<None>]>,
    !py.callable<[!py.contract<"builtins.object">], returns = [!py.contract<"builtins.int">]>,
    !py.callable<[!py.contract<"builtins.object">], returns = [!py.contract<"builtins.int">]>
  ]
} {
  py.class @object attributes {
    ly.typing.abstract,
    method_names = ["__init__", "__new__", "__repr__", "__str__", "__bool__",
                    "__eq__", "__ne__", "__hash__", "__getattribute__",
                    "__setattr__", "__delattr__"],
    method_contracts = [
      !py.protocol<"Callable", [!py.contract<"builtins.object">] -> [!py.literal<None>]>,
      !py.protocol<"Callable", [!py.type<!py.contract<"builtins.object">>] -> [!py.self]>,
      !py.protocol<"Callable", [!py.contract<"builtins.object">] -> [!py.contract<"builtins.str">]>,
      !py.protocol<"Callable", [!py.contract<"builtins.object">] -> [!py.contract<"builtins.str">]>,
      !py.protocol<"Callable", [!py.contract<"builtins.object">] -> [!py.contract<"builtins.bool">]>,
      !py.protocol<"Callable", [!py.contract<"builtins.object">, !py.contract<"builtins.object">] -> [!py.contract<"builtins.bool">]>,
      !py.protocol<"Callable", [!py.contract<"builtins.object">, !py.contract<"builtins.object">] -> [!py.contract<"builtins.bool">]>,
      !py.protocol<"Callable", [!py.contract<"builtins.object">] -> [!py.contract<"builtins.int">]>,
      !py.protocol<"Callable", [!py.contract<"builtins.object">, !py.contract<"builtins.str">] -> [!py.contract<"typing.Any">]>,
      !py.protocol<"Callable", [!py.contract<"builtins.object">, !py.contract<"builtins.str">, !py.contract<"typing.Any">] -> [!py.literal<None>]>,
      !py.protocol<"Callable", [!py.contract<"builtins.object">, !py.contract<"builtins.str">] -> [!py.literal<None>]>
    ],
    method_kinds = ["instance", "classmethod", "instance", "instance",
                    "instance", "instance", "instance", "instance",
                    "instance", "instance", "instance"]
  } {}

  py.class @type attributes {
    base_names = ["object"], ly.typing.params = ["T", "P"],
    method_names = ["__call__", "__new__", "__or__", "__ror__"],
    method_contracts = [
      !py.protocol<"Callable", [!py.type<!py.contract<"$T">>, !py.paramspec<"P">] -> [!py.contract<"$T">]>,
      !py.protocol<"Callable", [!py.type<!py.contract<"builtins.type">>, !py.contract<"builtins.object">] -> [!py.type<!py.contract<"builtins.object">>]>,
      !py.protocol<"Callable", [!py.type<!py.contract<"builtins.object">>, !py.contract<"typing.Any">] -> [!py.contract<"types.UnionType">]>,
      !py.protocol<"Callable", [!py.type<!py.contract<"builtins.object">>, !py.contract<"typing.Any">] -> [!py.contract<"types.UnionType">]>
    ],
    method_kinds = ["instance", "classmethod", "instance", "instance"]
  } {}

  py.class @function attributes {
    base_names = ["object"], ly.typing.final,
    method_names = ["__call__", "__get__"],
    method_contracts = [
      !py.protocol<"Callable", [!py.contract<"builtins.function">, !py.paramspec<"P">] -> [!py.contract<"typing.Any">]>,
      !py.protocol<"Callable", [!py.contract<"builtins.function">, !py.contract<"builtins.object">, !py.union<!py.type<!py.contract<"builtins.object">>, !py.literal<None>>] -> [!py.contract<"typing.Any">]>
    ],
    method_kinds = ["instance", "instance"]
  } {}

  py.class @staticmethod attributes {
    base_names = ["object"], ly.typing.params = ["P", "R"],
    method_names = ["__call__", "__get__"],
    method_contracts = [
      !py.protocol<"Callable", [!py.contract<"builtins.staticmethod">, !py.paramspec<"P">] -> [!py.contract<"$R">]>,
      !py.protocol<"Callable", [!py.contract<"builtins.staticmethod">, !py.union<!py.contract<"builtins.object">, !py.literal<None>>, !py.type<!py.contract<"builtins.object">>] -> [!py.protocol<"Callable", [!py.paramspec<"P">] -> [!py.contract<"$R">]>]>
    ],
    method_kinds = ["instance", "instance"]
  } {}

  py.class @classmethod attributes {
    base_names = ["object"], ly.typing.params = ["T", "P", "R"],
    method_names = ["__get__"],
    method_contracts = [
      !py.protocol<"Callable", [!py.contract<"builtins.classmethod">, !py.union<!py.contract<"$T">, !py.literal<None>>, !py.type<!py.contract<"$T">>] -> [!py.protocol<"Callable", [!py.paramspec<"P">] -> [!py.contract<"$R">]>]>
    ],
    method_kinds = ["instance"]
  } {}

  py.class @int attributes {
    base_names = ["object"], ly.typing.final,
    method_names = ["__new__", "__add__", "__sub__", "__mul__", "__floordiv__",
                    "__truediv__", "__mod__", "__and__", "__or__", "__xor__",
                    "__lshift__", "__rshift__", "__neg__", "__pos__",
                    "__invert__", "__round__", "__int__", "__float__",
                    "__bool__", "__index__", "__hash__", "__lt__", "__le__",
                    "__gt__", "__ge__", "__repr__", "__str__", "__eq__", "__ne__",
                    "__pow__"],
    method_contracts = [
      !py.protocol<"Callable", [!py.type<!py.contract<"builtins.int">>, !py.union<!py.contract<"typing.SupportsInt">, !py.contract<"typing.SupportsIndex">, !py.contract<"builtins.str">, !py.contract<"builtins.bytes">, !py.contract<"builtins.bytearray">>] -> [!py.self]>,
      !py.protocol<"Callable", [!py.contract<"builtins.int">, !py.contract<"builtins.int">] -> [!py.contract<"builtins.int">]>,
      !py.protocol<"Callable", [!py.contract<"builtins.int">, !py.contract<"builtins.int">] -> [!py.contract<"builtins.int">]>,
      !py.protocol<"Callable", [!py.contract<"builtins.int">, !py.contract<"builtins.int">] -> [!py.contract<"builtins.int">]>,
      !py.protocol<"Callable", [!py.contract<"builtins.int">, !py.contract<"builtins.int">] -> [!py.contract<"builtins.int">]>,
      !py.protocol<"Callable", [!py.contract<"builtins.int">, !py.contract<"builtins.int">] -> [!py.contract<"builtins.float">]>,
      !py.protocol<"Callable", [!py.contract<"builtins.int">, !py.contract<"builtins.int">] -> [!py.contract<"builtins.int">]>,
      !py.protocol<"Callable", [!py.contract<"builtins.int">, !py.contract<"builtins.int">] -> [!py.contract<"builtins.int">]>,
      !py.protocol<"Callable", [!py.contract<"builtins.int">, !py.contract<"builtins.int">] -> [!py.contract<"builtins.int">]>,
      !py.protocol<"Callable", [!py.contract<"builtins.int">, !py.contract<"builtins.int">] -> [!py.contract<"builtins.int">]>,
      !py.protocol<"Callable", [!py.contract<"builtins.int">, !py.contract<"builtins.int">] -> [!py.contract<"builtins.int">]>,
      !py.protocol<"Callable", [!py.contract<"builtins.int">, !py.contract<"builtins.int">] -> [!py.contract<"builtins.int">]>,
      !py.protocol<"Callable", [!py.contract<"builtins.int">] -> [!py.contract<"builtins.int">]>,
      !py.protocol<"Callable", [!py.contract<"builtins.int">] -> [!py.contract<"builtins.int">]>,
      !py.protocol<"Callable", [!py.contract<"builtins.int">] -> [!py.contract<"builtins.int">]>,
      !py.protocol<"Callable", [!py.contract<"builtins.int">, !py.contract<"builtins.int">] -> [!py.contract<"builtins.int">]>,
      !py.protocol<"Callable", [!py.contract<"builtins.int">] -> [!py.contract<"builtins.int">]>,
      !py.protocol<"Callable", [!py.contract<"builtins.int">] -> [!py.contract<"builtins.float">]>,
      !py.protocol<"Callable", [!py.contract<"builtins.int">] -> [!py.contract<"builtins.bool">]>,
      !py.protocol<"Callable", [!py.contract<"builtins.int">] -> [!py.contract<"builtins.int">]>,
      !py.protocol<"Callable", [!py.contract<"builtins.int">] -> [!py.contract<"builtins.int">]>,
      !py.protocol<"Callable", [!py.contract<"builtins.int">, !py.contract<"builtins.int">] -> [!py.contract<"builtins.bool">]>,
      !py.protocol<"Callable", [!py.contract<"builtins.int">, !py.contract<"builtins.int">] -> [!py.contract<"builtins.bool">]>,
      !py.protocol<"Callable", [!py.contract<"builtins.int">, !py.contract<"builtins.int">] -> [!py.contract<"builtins.bool">]>,
      !py.protocol<"Callable", [!py.contract<"builtins.int">, !py.contract<"builtins.int">] -> [!py.contract<"builtins.bool">]>,
      !py.protocol<"Callable", [!py.contract<"builtins.int">] -> [!py.contract<"builtins.str">]>,
      !py.protocol<"Callable", [!py.contract<"builtins.int">] -> [!py.contract<"builtins.str">]>,
      !py.protocol<"Callable", [!py.contract<"builtins.int">, !py.contract<"builtins.object">] -> [!py.contract<"builtins.bool">]>,
      !py.protocol<"Callable", [!py.contract<"builtins.int">, !py.contract<"builtins.object">] -> [!py.contract<"builtins.bool">]>,
      !py.protocol<"Callable", [!py.contract<"builtins.int">, !py.contract<"builtins.int">] -> [!py.contract<"builtins.int">]>
    ],
    method_kinds = ["classmethod", "instance", "instance", "instance",
                    "instance", "instance", "instance", "instance",
                    "instance", "instance", "instance", "instance",
                    "instance", "instance", "instance", "instance",
                    "instance", "instance", "instance", "instance",
                    "instance", "instance", "instance", "instance",
                    "instance", "instance", "instance", "instance", "instance",
                    "instance"]
  } {}

  py.class @bool attributes {
    base_names = ["int"], ly.typing.final,
    method_names = ["__new__", "__repr__", "__str__", "__bool__", "__and__",
                    "__or__", "__xor__"],
    method_contracts = [
      !py.protocol<"Callable", [!py.type<!py.contract<"builtins.bool">>, !py.contract<"builtins.object">] -> [!py.self]>,
      !py.protocol<"Callable", [!py.contract<"builtins.bool">] -> [!py.contract<"builtins.str">]>,
      !py.protocol<"Callable", [!py.contract<"builtins.bool">] -> [!py.contract<"builtins.str">]>,
      !py.protocol<"Callable", [!py.contract<"builtins.bool">] -> [!py.contract<"builtins.bool">]>,
      !py.protocol<"Callable", [!py.contract<"builtins.bool">, !py.contract<"builtins.bool">] -> [!py.contract<"builtins.bool">]>,
      !py.protocol<"Callable", [!py.contract<"builtins.bool">, !py.contract<"builtins.bool">] -> [!py.contract<"builtins.bool">]>,
      !py.protocol<"Callable", [!py.contract<"builtins.bool">, !py.contract<"builtins.bool">] -> [!py.contract<"builtins.bool">]>
    ],
    method_kinds = ["classmethod", "instance", "instance", "instance",
                    "instance", "instance", "instance"]
  } {}

  py.class @float attributes {
    base_names = ["object"], ly.typing.final,
    method_names = ["__new__", "__repr__", "__add__", "__sub__", "__mul__",
                    "__truediv__", "__floordiv__", "__mod__", "__float__",
                    "__bool__", "__round__", "__lt__", "__le__", "__gt__",
                    "__ge__", "__str__", "__eq__", "__ne__", "__pow__"],
    method_contracts = [
      !py.protocol<"Callable", [!py.type<!py.contract<"builtins.float">>, !py.contract<"typing.SupportsFloat">] -> [!py.self]>,
      !py.protocol<"Callable", [!py.contract<"builtins.float">] -> [!py.contract<"builtins.str">]>,
      !py.protocol<"Callable", [!py.contract<"builtins.float">, !py.contract<"builtins.float">] -> [!py.contract<"builtins.float">]>,
      !py.protocol<"Callable", [!py.contract<"builtins.float">, !py.contract<"builtins.float">] -> [!py.contract<"builtins.float">]>,
      !py.protocol<"Callable", [!py.contract<"builtins.float">, !py.contract<"builtins.float">] -> [!py.contract<"builtins.float">]>,
      !py.protocol<"Callable", [!py.contract<"builtins.float">, !py.contract<"builtins.float">] -> [!py.contract<"builtins.float">]>,
      !py.protocol<"Callable", [!py.contract<"builtins.float">, !py.contract<"builtins.float">] -> [!py.contract<"builtins.float">]>,
      !py.protocol<"Callable", [!py.contract<"builtins.float">, !py.contract<"builtins.float">] -> [!py.contract<"builtins.float">]>,
      !py.protocol<"Callable", [!py.contract<"builtins.float">] -> [!py.contract<"builtins.float">]>,
      !py.protocol<"Callable", [!py.contract<"builtins.float">] -> [!py.contract<"builtins.bool">]>,
      !py.protocol<"Callable", [!py.contract<"builtins.float">, !py.union<!py.contract<"typing.SupportsIndex">, !py.literal<None>>] -> [!py.contract<"builtins.float">]>,
      !py.protocol<"Callable", [!py.contract<"builtins.float">, !py.contract<"builtins.float">] -> [!py.contract<"builtins.bool">]>,
      !py.protocol<"Callable", [!py.contract<"builtins.float">, !py.contract<"builtins.float">] -> [!py.contract<"builtins.bool">]>,
      !py.protocol<"Callable", [!py.contract<"builtins.float">, !py.contract<"builtins.float">] -> [!py.contract<"builtins.bool">]>,
      !py.protocol<"Callable", [!py.contract<"builtins.float">, !py.contract<"builtins.float">] -> [!py.contract<"builtins.bool">]>,
      !py.protocol<"Callable", [!py.contract<"builtins.float">] -> [!py.contract<"builtins.str">]>,
      !py.protocol<"Callable", [!py.contract<"builtins.float">, !py.contract<"builtins.object">] -> [!py.contract<"builtins.bool">]>,
      !py.protocol<"Callable", [!py.contract<"builtins.float">, !py.contract<"builtins.object">] -> [!py.contract<"builtins.bool">]>,
      !py.protocol<"Callable", [!py.contract<"builtins.float">, !py.contract<"builtins.float">] -> [!py.contract<"builtins.float">]>
    ],
    method_kinds = ["classmethod", "instance", "instance", "instance",
                    "instance", "instance", "instance", "instance",
                    "instance", "instance", "instance", "instance",
                    "instance", "instance", "instance", "instance", "instance", "instance",
                    "instance"]
  } {}

  py.class @complex attributes {base_names = ["object"], ly.typing.final} {}

  py.class @str attributes {
    base_names = ["Sequence", "Hashable"],
    ly.typing.base_args = [[!py.contract<"builtins.str">], []],
    method_names = ["__new__", "__len__", "__iter__", "__getitem__", "__add__",
                    "__contains__", "__eq__", "__lt__", "__le__", "__gt__",
                    "__ge__", "join", "startswith", "startswith", "startswith",
                    "endswith", "endswith", "endswith", "__repr__", "__str__",
                    "__ne__", "encode", "upper", "lower", "casefold", "title",
                    "capitalize", "swapcase", "isalpha", "isspace", "isdecimal",
                    "isdigit", "isnumeric", "isupper", "islower", "isprintable",
                    "istitle", "isalnum", "isidentifier", "isascii", "find",
                    "find", "find", "rfind", "rfind", "rfind", "index", "index",
                    "index", "rindex", "rindex", "rindex", "count", "count",
                    "count", "replace", "replace", "strip", "strip", "lstrip",
                    "lstrip", "rstrip", "rstrip", "removeprefix",
                    "removesuffix", "center", "center", "ljust", "ljust",
                    "rjust", "rjust", "zfill", "expandtabs", "expandtabs",
                    "__mul__", "split", "split", "split", "rsplit", "rsplit",
                    "rsplit", "splitlines", "splitlines", "partition",
                    "rpartition"],
    method_contracts = [
      !py.protocol<"Callable", [!py.type<!py.contract<"builtins.str">>, !py.contract<"builtins.object">] -> [!py.self]>,
      !py.protocol<"Callable", [!py.contract<"builtins.str">] -> [!py.contract<"builtins.int">]>,
      !py.protocol<"Callable", [!py.contract<"builtins.str">] -> [!py.contract<"builtins.str_iterator">]>,
      !py.protocol<"Callable", [!py.contract<"builtins.str">, !py.contract<"typing.SupportsIndex">] -> [!py.contract<"builtins.str">]>,
      !py.protocol<"Callable", [!py.contract<"builtins.str">, !py.contract<"builtins.str">] -> [!py.contract<"builtins.str">]>,
      !py.protocol<"Callable", [!py.contract<"builtins.str">, !py.contract<"builtins.object">] -> [!py.contract<"builtins.bool">]>,
      !py.protocol<"Callable", [!py.contract<"builtins.str">, !py.contract<"builtins.object">] -> [!py.contract<"builtins.bool">]>,
      !py.protocol<"Callable", [!py.contract<"builtins.str">, !py.contract<"builtins.str">] -> [!py.contract<"builtins.bool">]>,
      !py.protocol<"Callable", [!py.contract<"builtins.str">, !py.contract<"builtins.str">] -> [!py.contract<"builtins.bool">]>,
      !py.protocol<"Callable", [!py.contract<"builtins.str">, !py.contract<"builtins.str">] -> [!py.contract<"builtins.bool">]>,
      !py.protocol<"Callable", [!py.contract<"builtins.str">, !py.contract<"builtins.str">] -> [!py.contract<"builtins.bool">]>,
      !py.protocol<"Callable", [!py.contract<"builtins.str">, !py.protocol<"Iterable", [!py.contract<"builtins.str">]>] -> [!py.contract<"builtins.str">]>,
      !py.protocol<"Callable", [!py.contract<"builtins.str">, !py.contract<"builtins.str">] -> [!py.contract<"builtins.bool">]>,
      !py.protocol<"Callable", [!py.contract<"builtins.str">, !py.contract<"builtins.str">, !py.contract<"builtins.int">] -> [!py.contract<"builtins.bool">]>,
      !py.protocol<"Callable", [!py.contract<"builtins.str">, !py.contract<"builtins.str">, !py.contract<"builtins.int">, !py.contract<"builtins.int">] -> [!py.contract<"builtins.bool">]>,
      !py.protocol<"Callable", [!py.contract<"builtins.str">, !py.contract<"builtins.str">] -> [!py.contract<"builtins.bool">]>,
      !py.protocol<"Callable", [!py.contract<"builtins.str">, !py.contract<"builtins.str">, !py.contract<"builtins.int">] -> [!py.contract<"builtins.bool">]>,
      !py.protocol<"Callable", [!py.contract<"builtins.str">, !py.contract<"builtins.str">, !py.contract<"builtins.int">, !py.contract<"builtins.int">] -> [!py.contract<"builtins.bool">]>,
      !py.protocol<"Callable", [!py.contract<"builtins.str">] -> [!py.contract<"builtins.str">]>,
      !py.protocol<"Callable", [!py.contract<"builtins.str">] -> [!py.contract<"builtins.str">]>,
      !py.protocol<"Callable", [!py.contract<"builtins.str">, !py.contract<"builtins.object">] -> [!py.contract<"builtins.bool">]>,
      !py.protocol<"Callable", [!py.contract<"builtins.str">] -> [!py.contract<"builtins.bytes">]>,
      !py.protocol<"Callable", [!py.contract<"builtins.str">] -> [!py.contract<"builtins.str">]>,
      !py.protocol<"Callable", [!py.contract<"builtins.str">] -> [!py.contract<"builtins.str">]>,
      !py.protocol<"Callable", [!py.contract<"builtins.str">] -> [!py.contract<"builtins.str">]>,
      !py.protocol<"Callable", [!py.contract<"builtins.str">] -> [!py.contract<"builtins.str">]>,
      !py.protocol<"Callable", [!py.contract<"builtins.str">] -> [!py.contract<"builtins.str">]>,
      !py.protocol<"Callable", [!py.contract<"builtins.str">] -> [!py.contract<"builtins.str">]>,
      !py.protocol<"Callable", [!py.contract<"builtins.str">] -> [!py.contract<"builtins.bool">]>,
      !py.protocol<"Callable", [!py.contract<"builtins.str">] -> [!py.contract<"builtins.bool">]>,
      !py.protocol<"Callable", [!py.contract<"builtins.str">] -> [!py.contract<"builtins.bool">]>,
      !py.protocol<"Callable", [!py.contract<"builtins.str">] -> [!py.contract<"builtins.bool">]>,
      !py.protocol<"Callable", [!py.contract<"builtins.str">] -> [!py.contract<"builtins.bool">]>,
      !py.protocol<"Callable", [!py.contract<"builtins.str">] -> [!py.contract<"builtins.bool">]>,
      !py.protocol<"Callable", [!py.contract<"builtins.str">] -> [!py.contract<"builtins.bool">]>,
      !py.protocol<"Callable", [!py.contract<"builtins.str">] -> [!py.contract<"builtins.bool">]>,
      !py.protocol<"Callable", [!py.contract<"builtins.str">] -> [!py.contract<"builtins.bool">]>,
      !py.protocol<"Callable", [!py.contract<"builtins.str">] -> [!py.contract<"builtins.bool">]>,
      !py.protocol<"Callable", [!py.contract<"builtins.str">] -> [!py.contract<"builtins.bool">]>,
      !py.protocol<"Callable", [!py.contract<"builtins.str">] -> [!py.contract<"builtins.bool">]>,
      !py.protocol<"Callable", [!py.contract<"builtins.str">, !py.contract<"builtins.str">] -> [!py.contract<"builtins.int">]>,
      !py.protocol<"Callable", [!py.contract<"builtins.str">, !py.contract<"builtins.str">, !py.contract<"builtins.int">] -> [!py.contract<"builtins.int">]>,
      !py.protocol<"Callable", [!py.contract<"builtins.str">, !py.contract<"builtins.str">, !py.contract<"builtins.int">, !py.contract<"builtins.int">] -> [!py.contract<"builtins.int">]>,
      !py.protocol<"Callable", [!py.contract<"builtins.str">, !py.contract<"builtins.str">] -> [!py.contract<"builtins.int">]>,
      !py.protocol<"Callable", [!py.contract<"builtins.str">, !py.contract<"builtins.str">, !py.contract<"builtins.int">] -> [!py.contract<"builtins.int">]>,
      !py.protocol<"Callable", [!py.contract<"builtins.str">, !py.contract<"builtins.str">, !py.contract<"builtins.int">, !py.contract<"builtins.int">] -> [!py.contract<"builtins.int">]>,
      !py.protocol<"Callable", [!py.contract<"builtins.str">, !py.contract<"builtins.str">] -> [!py.contract<"builtins.int">]>,
      !py.protocol<"Callable", [!py.contract<"builtins.str">, !py.contract<"builtins.str">, !py.contract<"builtins.int">] -> [!py.contract<"builtins.int">]>,
      !py.protocol<"Callable", [!py.contract<"builtins.str">, !py.contract<"builtins.str">, !py.contract<"builtins.int">, !py.contract<"builtins.int">] -> [!py.contract<"builtins.int">]>,
      !py.protocol<"Callable", [!py.contract<"builtins.str">, !py.contract<"builtins.str">] -> [!py.contract<"builtins.int">]>,
      !py.protocol<"Callable", [!py.contract<"builtins.str">, !py.contract<"builtins.str">, !py.contract<"builtins.int">] -> [!py.contract<"builtins.int">]>,
      !py.protocol<"Callable", [!py.contract<"builtins.str">, !py.contract<"builtins.str">, !py.contract<"builtins.int">, !py.contract<"builtins.int">] -> [!py.contract<"builtins.int">]>,
      !py.protocol<"Callable", [!py.contract<"builtins.str">, !py.contract<"builtins.str">] -> [!py.contract<"builtins.int">]>,
      !py.protocol<"Callable", [!py.contract<"builtins.str">, !py.contract<"builtins.str">, !py.contract<"builtins.int">] -> [!py.contract<"builtins.int">]>,
      !py.protocol<"Callable", [!py.contract<"builtins.str">, !py.contract<"builtins.str">, !py.contract<"builtins.int">, !py.contract<"builtins.int">] -> [!py.contract<"builtins.int">]>,
      !py.protocol<"Callable", [!py.contract<"builtins.str">, !py.contract<"builtins.str">, !py.contract<"builtins.str">] -> [!py.contract<"builtins.str">]>,
      !py.protocol<"Callable", [!py.contract<"builtins.str">, !py.contract<"builtins.str">, !py.contract<"builtins.str">, !py.contract<"builtins.int">] -> [!py.contract<"builtins.str">]>,
      !py.protocol<"Callable", [!py.contract<"builtins.str">] -> [!py.contract<"builtins.str">]>,
      !py.protocol<"Callable", [!py.contract<"builtins.str">, !py.contract<"builtins.str">] -> [!py.contract<"builtins.str">]>,
      !py.protocol<"Callable", [!py.contract<"builtins.str">] -> [!py.contract<"builtins.str">]>,
      !py.protocol<"Callable", [!py.contract<"builtins.str">, !py.contract<"builtins.str">] -> [!py.contract<"builtins.str">]>,
      !py.protocol<"Callable", [!py.contract<"builtins.str">] -> [!py.contract<"builtins.str">]>,
      !py.protocol<"Callable", [!py.contract<"builtins.str">, !py.contract<"builtins.str">] -> [!py.contract<"builtins.str">]>,
      !py.protocol<"Callable", [!py.contract<"builtins.str">, !py.contract<"builtins.str">] -> [!py.contract<"builtins.str">]>,
      !py.protocol<"Callable", [!py.contract<"builtins.str">, !py.contract<"builtins.str">] -> [!py.contract<"builtins.str">]>,
      !py.protocol<"Callable", [!py.contract<"builtins.str">, !py.contract<"builtins.int">] -> [!py.contract<"builtins.str">]>,
      !py.protocol<"Callable", [!py.contract<"builtins.str">, !py.contract<"builtins.int">, !py.contract<"builtins.str">] -> [!py.contract<"builtins.str">]>,
      !py.protocol<"Callable", [!py.contract<"builtins.str">, !py.contract<"builtins.int">] -> [!py.contract<"builtins.str">]>,
      !py.protocol<"Callable", [!py.contract<"builtins.str">, !py.contract<"builtins.int">, !py.contract<"builtins.str">] -> [!py.contract<"builtins.str">]>,
      !py.protocol<"Callable", [!py.contract<"builtins.str">, !py.contract<"builtins.int">] -> [!py.contract<"builtins.str">]>,
      !py.protocol<"Callable", [!py.contract<"builtins.str">, !py.contract<"builtins.int">, !py.contract<"builtins.str">] -> [!py.contract<"builtins.str">]>,
      !py.protocol<"Callable", [!py.contract<"builtins.str">, !py.contract<"builtins.int">] -> [!py.contract<"builtins.str">]>,
      !py.protocol<"Callable", [!py.contract<"builtins.str">] -> [!py.contract<"builtins.str">]>,
      !py.protocol<"Callable", [!py.contract<"builtins.str">, !py.contract<"builtins.int">] -> [!py.contract<"builtins.str">]>,
      !py.protocol<"Callable", [!py.contract<"builtins.str">, !py.contract<"builtins.int">] -> [!py.contract<"builtins.str">]>,
      !py.protocol<"Callable", [!py.contract<"builtins.str">] -> [!py.contract<"builtins.list", [!py.contract<"builtins.str">]>]>,
      !py.protocol<"Callable", [!py.contract<"builtins.str">, !py.contract<"builtins.str">] -> [!py.contract<"builtins.list", [!py.contract<"builtins.str">]>]>,
      !py.protocol<"Callable", [!py.contract<"builtins.str">, !py.contract<"builtins.str">, !py.contract<"builtins.int">] -> [!py.contract<"builtins.list", [!py.contract<"builtins.str">]>]>,
      !py.protocol<"Callable", [!py.contract<"builtins.str">] -> [!py.contract<"builtins.list", [!py.contract<"builtins.str">]>]>,
      !py.protocol<"Callable", [!py.contract<"builtins.str">, !py.contract<"builtins.str">] -> [!py.contract<"builtins.list", [!py.contract<"builtins.str">]>]>,
      !py.protocol<"Callable", [!py.contract<"builtins.str">, !py.contract<"builtins.str">, !py.contract<"builtins.int">] -> [!py.contract<"builtins.list", [!py.contract<"builtins.str">]>]>,
      !py.protocol<"Callable", [!py.contract<"builtins.str">] -> [!py.contract<"builtins.list", [!py.contract<"builtins.str">]>]>,
      !py.protocol<"Callable", [!py.contract<"builtins.str">, !py.contract<"builtins.bool">] -> [!py.contract<"builtins.list", [!py.contract<"builtins.str">]>]>,
      !py.protocol<"Callable", [!py.contract<"builtins.str">, !py.contract<"builtins.str">] -> [!py.contract<"builtins.tuple", [!py.contract<"builtins.str">, !py.contract<"builtins.str">, !py.contract<"builtins.str">]>]>,
      !py.protocol<"Callable", [!py.contract<"builtins.str">, !py.contract<"builtins.str">] -> [!py.contract<"builtins.tuple", [!py.contract<"builtins.str">, !py.contract<"builtins.str">, !py.contract<"builtins.str">]>]>
    ],
    method_kinds = ["classmethod", "instance", "instance", "instance",
                    "instance", "instance", "instance", "instance", "instance",
                    "instance", "instance", "instance", "instance", "instance",
                    "instance", "instance", "instance", "instance", "instance",
                    "instance", "instance", "instance", "instance", "instance",
                    "instance", "instance", "instance", "instance", "instance",
                    "instance", "instance", "instance", "instance", "instance",
                    "instance", "instance", "instance", "instance", "instance",
                    "instance", "instance", "instance", "instance", "instance",
                    "instance", "instance", "instance", "instance", "instance",
                    "instance", "instance", "instance", "instance", "instance",
                    "instance", "instance", "instance", "instance", "instance",
                    "instance", "instance", "instance", "instance", "instance",
                    "instance", "instance", "instance", "instance", "instance",
                    "instance", "instance", "instance", "instance", "instance",
                    "instance", "instance", "instance", "instance", "instance",
                    "instance", "instance", "instance", "instance", "instance",
                    "instance"]
  } {}

  py.class @str_iterator attributes {
    base_names = ["Iterator"],
    ly.typing.base_args = [[!py.contract<"builtins.str">]],
    method_names = ["__iter__", "__next__"],
    method_contracts = [
      !py.protocol<"Callable", [!py.contract<"builtins.str_iterator">] -> [!py.self]>,
      !py.protocol<"Callable", [!py.contract<"builtins.str_iterator">] -> [!py.contract<"builtins.str">]>
    ],
    method_kinds = ["instance", "instance"]
  } {}

  py.class @bytes attributes {
    base_names = ["Sequence", "Hashable"],
    ly.typing.base_args = [[!py.contract<"builtins.int">], []],
    ly.typing.final,
    method_names = ["__len__", "__getitem__", "__add__", "__eq__", "__ne__",
                    "__bool__", "__repr__", "__str__", "decode", "decode",
                    "decode", "split", "split", "split", "find", "find", "find",
                    "count", "count", "count", "startswith", "startswith",
                    "startswith", "endswith", "endswith", "endswith", "strip",
                    "strip", "replace", "replace", "hex", "fromhex", "join",
                    "__mul__"],
    method_contracts = [
      !py.protocol<"Callable", [!py.contract<"builtins.bytes">] -> [!py.contract<"builtins.int">]>,
      !py.protocol<"Callable", [!py.contract<"builtins.bytes">, !py.contract<"typing.SupportsIndex">] -> [!py.contract<"builtins.int">]>,
      !py.protocol<"Callable", [!py.contract<"builtins.bytes">, !py.contract<"builtins.bytes">] -> [!py.contract<"builtins.bytes">]>,
      !py.protocol<"Callable", [!py.contract<"builtins.bytes">, !py.contract<"builtins.object">] -> [!py.contract<"builtins.bool">]>,
      !py.protocol<"Callable", [!py.contract<"builtins.bytes">, !py.contract<"builtins.object">] -> [!py.contract<"builtins.bool">]>,
      !py.protocol<"Callable", [!py.contract<"builtins.bytes">] -> [!py.contract<"builtins.bool">]>,
      !py.protocol<"Callable", [!py.contract<"builtins.bytes">] -> [!py.contract<"builtins.str">]>,
      !py.protocol<"Callable", [!py.contract<"builtins.bytes">] -> [!py.contract<"builtins.str">]>,
      !py.protocol<"Callable", [!py.contract<"builtins.bytes">] -> [!py.contract<"builtins.str">]>,
      !py.protocol<"Callable", [!py.contract<"builtins.bytes">, !py.contract<"builtins.str">] -> [!py.contract<"builtins.str">]>,
      !py.protocol<"Callable", [!py.contract<"builtins.bytes">, !py.contract<"builtins.str">, !py.contract<"builtins.str">] -> [!py.contract<"builtins.str">]>,
      !py.protocol<"Callable", [!py.contract<"builtins.bytes">] -> [!py.contract<"builtins.list", [!py.contract<"builtins.bytes">]>]>,
      !py.protocol<"Callable", [!py.contract<"builtins.bytes">, !py.contract<"builtins.bytes">] -> [!py.contract<"builtins.list", [!py.contract<"builtins.bytes">]>]>,
      !py.protocol<"Callable", [!py.contract<"builtins.bytes">, !py.contract<"builtins.bytes">, !py.contract<"builtins.int">] -> [!py.contract<"builtins.list", [!py.contract<"builtins.bytes">]>]>,
      !py.protocol<"Callable", [!py.contract<"builtins.bytes">, !py.contract<"builtins.bytes">] -> [!py.contract<"builtins.int">]>,
      !py.protocol<"Callable", [!py.contract<"builtins.bytes">, !py.contract<"builtins.bytes">, !py.contract<"builtins.int">] -> [!py.contract<"builtins.int">]>,
      !py.protocol<"Callable", [!py.contract<"builtins.bytes">, !py.contract<"builtins.bytes">, !py.contract<"builtins.int">, !py.contract<"builtins.int">] -> [!py.contract<"builtins.int">]>,
      !py.protocol<"Callable", [!py.contract<"builtins.bytes">, !py.contract<"builtins.bytes">] -> [!py.contract<"builtins.int">]>,
      !py.protocol<"Callable", [!py.contract<"builtins.bytes">, !py.contract<"builtins.bytes">, !py.contract<"builtins.int">] -> [!py.contract<"builtins.int">]>,
      !py.protocol<"Callable", [!py.contract<"builtins.bytes">, !py.contract<"builtins.bytes">, !py.contract<"builtins.int">, !py.contract<"builtins.int">] -> [!py.contract<"builtins.int">]>,
      !py.protocol<"Callable", [!py.contract<"builtins.bytes">, !py.contract<"builtins.bytes">] -> [!py.contract<"builtins.bool">]>,
      !py.protocol<"Callable", [!py.contract<"builtins.bytes">, !py.contract<"builtins.bytes">, !py.contract<"builtins.int">] -> [!py.contract<"builtins.bool">]>,
      !py.protocol<"Callable", [!py.contract<"builtins.bytes">, !py.contract<"builtins.bytes">, !py.contract<"builtins.int">, !py.contract<"builtins.int">] -> [!py.contract<"builtins.bool">]>,
      !py.protocol<"Callable", [!py.contract<"builtins.bytes">, !py.contract<"builtins.bytes">] -> [!py.contract<"builtins.bool">]>,
      !py.protocol<"Callable", [!py.contract<"builtins.bytes">, !py.contract<"builtins.bytes">, !py.contract<"builtins.int">] -> [!py.contract<"builtins.bool">]>,
      !py.protocol<"Callable", [!py.contract<"builtins.bytes">, !py.contract<"builtins.bytes">, !py.contract<"builtins.int">, !py.contract<"builtins.int">] -> [!py.contract<"builtins.bool">]>,
      !py.protocol<"Callable", [!py.contract<"builtins.bytes">] -> [!py.contract<"builtins.bytes">]>,
      !py.protocol<"Callable", [!py.contract<"builtins.bytes">, !py.contract<"builtins.bytes">] -> [!py.contract<"builtins.bytes">]>,
      !py.protocol<"Callable", [!py.contract<"builtins.bytes">, !py.contract<"builtins.bytes">, !py.contract<"builtins.bytes">] -> [!py.contract<"builtins.bytes">]>,
      !py.protocol<"Callable", [!py.contract<"builtins.bytes">, !py.contract<"builtins.bytes">, !py.contract<"builtins.bytes">, !py.contract<"builtins.int">] -> [!py.contract<"builtins.bytes">]>,
      !py.protocol<"Callable", [!py.contract<"builtins.bytes">] -> [!py.contract<"builtins.str">]>,
      !py.protocol<"Callable", [!py.type<!py.contract<"builtins.bytes">>, !py.contract<"builtins.str">] -> [!py.contract<"builtins.bytes">]>,
      !py.protocol<"Callable", [!py.contract<"builtins.bytes">, !py.protocol<"Iterable", [!py.contract<"builtins.bytes">]>] -> [!py.contract<"builtins.bytes">]>,
      !py.protocol<"Callable", [!py.contract<"builtins.bytes">, !py.contract<"builtins.int">] -> [!py.contract<"builtins.bytes">]>
    ],
    method_kinds = ["instance", "instance", "instance", "instance", "instance",
                    "instance", "instance", "instance", "instance", "instance",
                    "instance", "instance", "instance", "instance", "instance",
                    "instance", "instance", "instance", "instance", "instance",
                    "instance", "instance", "instance", "instance", "instance",
                    "instance", "instance", "instance", "instance", "instance",
                    "instance", "classmethod", "instance", "instance"]
  } {}
  py.class @bytearray attributes {base_names = ["MutableSequence"],
                                 ly.typing.base_args = [[!py.contract<"builtins.int">]],
                                 ly.typing.final} {}
  py.class @memoryview attributes {base_names = ["Sequence"],
                                  ly.typing.base_args = [[!py.contract<"builtins.int">]]} {}

  py.class @slice attributes {
    base_names = ["object"], ly.typing.final,
    ly.typing.params = ["StartT", "StopT", "StepT"],
    method_names = ["indices"],
    method_contracts = [
      !py.protocol<"Callable", [!py.contract<"builtins.slice">, !py.contract<"typing.SupportsIndex">] -> [!py.contract<"builtins.tuple">]>
    ],
    method_kinds = ["instance"]
  } {}

  py.class @tuple attributes {
    base_names = ["Sequence"], ly.typing.params = ["T"],
    ly.runtime.contract = "builtins.tuple", ly.runtime.required,
    ly.runtime.required_deallocator,
    ly.runtime.required_initializers = ["__new__"],
    ly.runtime.required_methods = ["__len__"],
    ly.typing.param_variance = ["covariant"],
    ly.typing.base_args = [[!py.contract<"$T">]],
    method_names = ["__len__", "__contains__", "__getitem__", "__iter__",
                    "__add__", "__mul__", "count", "index", "__repr__"],
    method_contracts = [
      !py.protocol<"Callable", [!py.contract<"builtins.tuple">] -> [!py.contract<"builtins.int">]>,
      !py.protocol<"Callable", [!py.contract<"builtins.tuple">, !py.contract<"builtins.object">] -> [!py.contract<"builtins.bool">]>,
      !py.protocol<"Callable", [!py.contract<"builtins.tuple">, !py.contract<"typing.SupportsIndex">] -> [!py.contract<"$T">]>,
      !py.protocol<"Callable", [!py.contract<"builtins.tuple">] -> [!py.protocol<"Iterator", [!py.contract<"$T">]>]>,
      !py.protocol<"Callable", [!py.contract<"builtins.tuple">, !py.contract<"builtins.tuple">] -> [!py.contract<"builtins.tuple">]>,
      !py.protocol<"Callable", [!py.contract<"builtins.tuple">, !py.contract<"typing.SupportsIndex">] -> [!py.contract<"builtins.tuple">]>,
      !py.protocol<"Callable", [!py.contract<"builtins.tuple">, !py.contract<"typing.Any">] -> [!py.contract<"builtins.int">]>,
      !py.protocol<"Callable", [!py.contract<"builtins.tuple">, !py.contract<"typing.Any">, !py.contract<"typing.SupportsIndex">, !py.contract<"typing.SupportsIndex">] -> [!py.contract<"builtins.int">]>,
      !py.protocol<"Callable", [!py.contract<"builtins.tuple">] -> [!py.contract<"builtins.str">]>
    ],
    method_kinds = ["instance", "instance", "instance", "instance",
                    "instance", "instance", "instance", "instance", "instance"]
  } {}

  py.class @list attributes {
    base_names = ["MutableSequence"], ly.typing.params = ["T"],
    ly.runtime.contract = "builtins.list", ly.runtime.required,
    ly.runtime.required_deallocator,
    ly.runtime.required_initializers = ["__new__"],
    ly.runtime.required_methods = ["__len__"],
    ly.runtime.required_primitives = ["ensure_capacity"],
    ly.typing.structural_mutators = ["append"],
    ly.typing.base_args = [[!py.contract<"$T">]],
    method_names = ["__init__", "__init__", "append", "extend", "pop",
                    "insert", "remove", "clear", "__len__", "__iter__",
                    "__getitem__", "__setitem__", "__delitem__",
                    "__contains__", "__repr__"],
    method_contracts = [
      !py.protocol<"Callable", [!py.contract<"builtins.list">] -> [!py.literal<None>]>,
      !py.protocol<"Callable", [!py.contract<"builtins.list">, !py.protocol<"Iterable", [!py.contract<"$T">]>] -> [!py.literal<None>]>,
      !py.protocol<"Callable", [!py.contract<"builtins.list">, !py.contract<"$T">] -> [!py.literal<None>]>,
      !py.protocol<"Callable", [!py.contract<"builtins.list">, !py.protocol<"Iterable", [!py.contract<"$T">]>] -> [!py.literal<None>]>,
      !py.protocol<"Callable", [!py.contract<"builtins.list">, !py.contract<"typing.SupportsIndex">] -> [!py.contract<"$T">]>,
      !py.protocol<"Callable", [!py.contract<"builtins.list">, !py.contract<"typing.SupportsIndex">, !py.contract<"$T">] -> [!py.literal<None>]>,
      !py.protocol<"Callable", [!py.contract<"builtins.list">, !py.contract<"$T">] -> [!py.literal<None>]>,
      !py.protocol<"Callable", [!py.contract<"builtins.list">] -> [!py.literal<None>]>,
      !py.protocol<"Callable", [!py.contract<"builtins.list">] -> [!py.contract<"builtins.int">]>,
      !py.protocol<"Callable", [!py.contract<"builtins.list">] -> [!py.protocol<"Iterator", [!py.contract<"$T">]>]>,
      !py.protocol<"Callable", [!py.contract<"builtins.list">, !py.contract<"typing.SupportsIndex">] -> [!py.contract<"$T">]>,
      !py.protocol<"Callable", [!py.contract<"builtins.list">, !py.contract<"typing.SupportsIndex">, !py.contract<"$T">] -> [!py.literal<None>]>,
      !py.protocol<"Callable", [!py.contract<"builtins.list">, !py.contract<"typing.SupportsIndex">] -> [!py.literal<None>]>,
      !py.protocol<"Callable", [!py.contract<"builtins.list">, !py.contract<"builtins.object">] -> [!py.contract<"builtins.bool">]>,
      !py.protocol<"Callable", [!py.contract<"builtins.list">] -> [!py.contract<"builtins.str">]>
    ],
    method_kinds = ["instance", "instance", "instance", "instance",
                    "instance", "instance", "instance", "instance",
                    "instance", "instance", "instance", "instance",
                    "instance", "instance", "instance"]
  } {}

  py.class @set attributes {
    base_names = ["MutableSet"], ly.typing.params = ["T"],
    ly.typing.base_args = [[!py.contract<"$T">]],
    ly.runtime.contract = "builtins.set", ly.runtime.required,
    ly.runtime.required_deallocator,
    ly.runtime.required_initializers = ["__new__"],
    ly.runtime.required_methods = ["__len__"],
    ly.typing.structural_mutators = ["add"],
    method_names = ["__init__", "add", "__len__", "__iter__",
                    "__contains__"],
    method_contracts = [
      !py.protocol<"Callable", [!py.contract<"builtins.set">] -> [!py.literal<None>]>,
      !py.protocol<"Callable", [!py.contract<"builtins.set">, !py.contract<"$T">] -> [!py.literal<None>]>,
      !py.protocol<"Callable", [!py.contract<"builtins.set">] -> [!py.contract<"builtins.int">]>,
      !py.protocol<"Callable", [!py.contract<"builtins.set">] -> [!py.protocol<"Iterator", [!py.contract<"$T">]>]>,
      !py.protocol<"Callable", [!py.contract<"builtins.set">, !py.contract<"builtins.object">] -> [!py.contract<"builtins.bool">]>
    ],
    method_kinds = ["instance", "instance", "instance", "instance",
                    "instance"]
  } {}

  py.class @dict attributes {
    base_names = ["MutableMapping"], ly.typing.params = ["K", "V"],
    ly.runtime.contract = "builtins.dict", ly.runtime.required,
    ly.runtime.required_deallocator,
    ly.runtime.required_initializers = ["__new__"],
    ly.runtime.required_methods = ["__len__"],
    ly.runtime.required_primitives = ["ensure_capacity"],
    ly.typing.structural_mutators = ["__setitem__"],
    ly.typing.base_args = [[!py.contract<"$K">, !py.contract<"$V">]],
    method_names = ["__init__", "__init__", "__len__", "__iter__",
                    "__getitem__", "get", "get", "get", "__setitem__",
                    "__delitem__", "__contains__", "keys", "values", "items",
                    "__repr__"],
    method_contracts = [
      !py.protocol<"Callable", [!py.contract<"builtins.dict">] -> [!py.literal<None>]>,
      !py.protocol<"Callable", [!py.contract<"builtins.dict">, !py.protocol<"Iterable", [!py.contract<"builtins.tuple", [!py.contract<"$K">, !py.contract<"$V">]>]>] -> [!py.literal<None>]>,
      !py.protocol<"Callable", [!py.contract<"builtins.dict">] -> [!py.contract<"builtins.int">]>,
      !py.protocol<"Callable", [!py.contract<"builtins.dict">] -> [!py.protocol<"Iterator", [!py.contract<"$K">]>]>,
      !py.protocol<"Callable", [!py.contract<"builtins.dict">, !py.contract<"$K">] -> [!py.contract<"$V">]>,
      !py.protocol<"Callable", [!py.contract<"builtins.dict">, !py.contract<"$K">] -> [!py.union<!py.contract<"$V">, !py.literal<None>>]>,
      !py.protocol<"Callable", [!py.contract<"builtins.dict">, !py.contract<"$K">, !py.contract<"$V">] -> [!py.contract<"$V">]>,
      !py.protocol<"Callable", [!py.contract<"builtins.dict">, !py.contract<"$K">, !py.typevar<"D">] -> [!py.union<!py.contract<"$V">, !py.typevar<"D">>]>,
      !py.protocol<"Callable", [!py.contract<"builtins.dict">, !py.contract<"$K">, !py.contract<"$V">] -> [!py.literal<None>]>,
      !py.protocol<"Callable", [!py.contract<"builtins.dict">, !py.contract<"$K">] -> [!py.literal<None>]>,
      !py.protocol<"Callable", [!py.contract<"builtins.dict">, !py.contract<"builtins.object">] -> [!py.contract<"builtins.bool">]>,
      !py.protocol<"Callable", [!py.contract<"builtins.dict">] -> [!py.contract<"builtins.dict_keys", [!py.contract<"$K">, !py.contract<"$V">]>]>,
      !py.protocol<"Callable", [!py.contract<"builtins.dict">] -> [!py.contract<"builtins.dict_values", [!py.contract<"$K">, !py.contract<"$V">]>]>,
      !py.protocol<"Callable", [!py.contract<"builtins.dict">] -> [!py.contract<"builtins.dict_items", [!py.contract<"$K">, !py.contract<"$V">]>]>,
      !py.protocol<"Callable", [!py.contract<"builtins.dict">] -> [!py.contract<"builtins.str">]>
    ],
    method_kinds = ["instance", "instance", "instance", "instance",
                    "instance", "instance", "instance", "instance",
                    "instance", "instance", "instance", "instance",
                    "instance", "instance", "instance"]
  } {}

  py.class @MappingView attributes {
    base_names = ["Sized"], ly.typing.abstract,
    method_names = ["__len__"],
    method_contracts = [
      !py.protocol<"Callable", [!py.contract<"typing.MappingView">] -> [!py.contract<"builtins.int">]>
    ],
    method_kinds = ["instance"]
  } {}
  py.class @KeysView attributes {
    base_names = ["MappingView", "AbstractSet"], ly.typing.params = ["K"],
    ly.typing.param_variance = ["covariant"],
    ly.typing.base_args = [[], [!py.contract<"$K">]],
    method_names = ["__contains__", "__iter__"],
    method_contracts = [
      !py.protocol<"Callable", [!py.contract<"typing.KeysView">, !py.contract<"builtins.object">] -> [!py.contract<"builtins.bool">]>,
      !py.protocol<"Callable", [!py.contract<"typing.KeysView">] -> [!py.protocol<"Iterator", [!py.contract<"$K">]>]>
    ],
    method_kinds = ["instance", "instance"]
  } {}
  py.class @ValuesView attributes {
    base_names = ["MappingView", "Collection"], ly.typing.params = ["V"],
    ly.typing.param_variance = ["covariant"],
    ly.typing.base_args = [[], [!py.contract<"$V">]],
    method_names = ["__contains__", "__iter__"],
    method_contracts = [
      !py.protocol<"Callable", [!py.contract<"typing.ValuesView">, !py.contract<"builtins.object">] -> [!py.contract<"builtins.bool">]>,
      !py.protocol<"Callable", [!py.contract<"typing.ValuesView">] -> [!py.protocol<"Iterator", [!py.contract<"$V">]>]>
    ],
    method_kinds = ["instance", "instance"]
  } {}
  py.class @ItemsView attributes {
    base_names = ["MappingView", "AbstractSet"], ly.typing.params = ["K", "V"],
    ly.typing.param_variance = ["covariant", "covariant"],
    ly.typing.base_args = [[], [!py.contract<"builtins.tuple">]],
    method_names = ["__contains__", "__iter__"],
    method_contracts = [
      !py.protocol<"Callable", [!py.contract<"typing.ItemsView">, !py.contract<"builtins.tuple">] -> [!py.contract<"builtins.bool">]>,
      !py.protocol<"Callable", [!py.contract<"typing.ItemsView">] -> [!py.protocol<"Iterator", [!py.contract<"builtins.tuple", [!py.contract<"$K">, !py.contract<"$V">]>]>]>
    ],
    method_kinds = ["instance", "instance"]
  } {}
  py.class @dict_keys attributes {
    base_names = ["KeysView"], ly.typing.final,
    ly.typing.params = ["K", "V"],
    ly.typing.param_variance = ["covariant", "covariant"],
    ly.typing.base_args = [[!py.contract<"$K">]],
    method_names = ["__reversed__"],
    method_contracts = [
      !py.protocol<"Callable", [!py.contract<"builtins.dict_keys", [!py.contract<"$K">, !py.contract<"$V">]>] -> [!py.protocol<"Iterator", [!py.contract<"$K">]>]>
    ],
    method_kinds = ["instance"]
  } {}
  py.class @dict_values attributes {
    base_names = ["ValuesView"], ly.typing.final,
    ly.typing.params = ["K", "V"],
    ly.typing.param_variance = ["covariant", "covariant"],
    ly.typing.base_args = [[!py.contract<"$V">]],
    method_names = ["__reversed__"],
    method_contracts = [
      !py.protocol<"Callable", [!py.contract<"builtins.dict_values", [!py.contract<"$K">, !py.contract<"$V">]>] -> [!py.protocol<"Iterator", [!py.contract<"$V">]>]>
    ],
    method_kinds = ["instance"]
  } {}
  py.class @dict_items attributes {
    base_names = ["ItemsView"], ly.typing.final,
    ly.typing.params = ["K", "V"],
    ly.typing.param_variance = ["covariant", "covariant"],
    ly.typing.base_args = [[!py.contract<"$K">, !py.contract<"$V">]],
    method_names = ["__reversed__"],
    method_contracts = [
      !py.protocol<"Callable", [!py.contract<"builtins.dict_items", [!py.contract<"$K">, !py.contract<"$V">]>] -> [!py.protocol<"Iterator", [!py.contract<"builtins.tuple", [!py.contract<"$K">, !py.contract<"$V">]>]>]>
    ],
    method_kinds = ["instance"]
  } {}

  py.class @frozenset attributes {base_names = ["AbstractSet", "Hashable"],
                                 ly.typing.params = ["T"],
                                 ly.typing.base_args = [[!py.contract<"$T">], []]} {}
  py.class @range attributes {base_names = ["Sequence", "Hashable"],
                             ly.typing.base_args = [[!py.contract<"builtins.int">], []],
                             ly.typing.final,
    method_names = ["__new__", "__new__", "__new__", "__init__", "__iter__"],
    method_contracts = [
      !py.protocol<"Callable", [!py.type<!py.contract<"builtins.range">>, !py.contract<"builtins.int">] -> [!py.self]>,
      !py.protocol<"Callable", [!py.type<!py.contract<"builtins.range">>, !py.contract<"builtins.int">, !py.contract<"builtins.int">] -> [!py.self]>,
      !py.protocol<"Callable", [!py.type<!py.contract<"builtins.range">>, !py.contract<"builtins.int">, !py.contract<"builtins.int">, !py.contract<"builtins.int">] -> [!py.self]>,
      !py.protocol<"Callable", [!py.contract<"builtins.range">, !py.paramspec<"P">] -> [!py.literal<None>]>,
      !py.protocol<"Callable", [!py.contract<"builtins.range">] -> [!py.contract<"builtins.range_iterator">]>
    ],
    method_kinds = ["classmethod", "classmethod", "classmethod", "instance",
                    "instance"]
  } {}

  py.class @range_iterator attributes {
    base_names = ["Iterator"],
    ly.typing.base_args = [[!py.contract<"builtins.int">]],
    method_names = ["__iter__", "__next__"],
    method_contracts = [
      !py.protocol<"Callable", [!py.contract<"builtins.range_iterator">] -> [!py.self]>,
      !py.protocol<"Callable", [!py.contract<"builtins.range_iterator">] -> [!py.contract<"builtins.int">]>
    ],
    method_kinds = ["instance", "instance"]
  } {}

  py.class @BaseException attributes {
    base_names = ["object"],
    field_names = ["args", "__cause__", "__context__", "__suppress_context__",
                   "__traceback__"],
    field_contract_types = [
      !py.contract<"builtins.tuple">,
      !py.union<!py.contract<"builtins.BaseException">, !py.literal<None>>,
      !py.union<!py.contract<"builtins.BaseException">, !py.literal<None>>,
      !py.contract<"builtins.bool">,
      !py.union<!py.contract<"types.TracebackType">, !py.literal<None>>
    ],
    method_names = ["__init__", "with_traceback", "__str__", "__repr__",
                    "add_note"],
    method_contracts = [
      !py.protocol<"Callable", [!py.contract<"builtins.BaseException">, !py.paramspec<"P">] -> [!py.literal<None>]>,
      !py.protocol<"Callable", [!py.contract<"builtins.BaseException">, !py.union<!py.contract<"types.TracebackType">, !py.literal<None>>] -> [!py.self]>,
      !py.protocol<"Callable", [!py.contract<"builtins.BaseException">] -> [!py.contract<"builtins.str">]>,
      !py.protocol<"Callable", [!py.contract<"builtins.BaseException">] -> [!py.contract<"builtins.str">]>,
      !py.protocol<"Callable", [!py.contract<"builtins.BaseException">, !py.contract<"builtins.str">] -> [!py.literal<None>]>
    ],
    method_kinds = ["instance", "instance", "instance", "instance",
                    "instance"]
  } {}
  py.class @Exception attributes {base_names = ["BaseException"]} {}
  py.class @RuntimeError attributes {base_names = ["Exception"]} {}
  py.class @TypeError attributes {base_names = ["Exception"]} {}
  py.class @ValueError attributes {base_names = ["Exception"]} {}
  py.class @ArithmeticError attributes {base_names = ["Exception"]} {}
  py.class @LookupError attributes {base_names = ["Exception"]} {}
  py.class @ZeroDivisionError attributes {base_names = ["ArithmeticError"]} {}
  py.class @KeyError attributes {base_names = ["LookupError"]} {}
  py.class @IndexError attributes {base_names = ["LookupError"]} {}
  py.class @AssertionError attributes {base_names = ["Exception"]} {}
  py.class @StopIteration attributes {
    base_names = ["Exception"],
    field_names = ["value"],
    field_contract_types = [!py.contract<"typing.Any">]
  } {}
  py.class @StopAsyncIteration attributes {base_names = ["Exception"]} {}
  // SystemExit derives from BaseException directly (never caught by
  // `except Exception`); the top-level runner converts it to the process
  // exit status instead of printing a traceback.
  py.class @SystemExit attributes {base_names = ["BaseException"]} {}
  // GeneratorExit derives from BaseException directly (never caught by
  // `except Exception`); generator.close() injects it at the suspension
  // point so the body's finally blocks run.
  py.class @GeneratorExit attributes {base_names = ["BaseException"]} {}
  py.class @OSError attributes {base_names = ["Exception"]} {}
  py.class @FileNotFoundError attributes {base_names = ["OSError"]} {}
  py.class @KeyboardInterrupt attributes {base_names = ["BaseException"]} {}
  py.class @BaseExceptionGroup attributes {base_names = ["BaseException"]} {}
  py.class @ExceptionGroup attributes {base_names = ["BaseExceptionGroup"]} {}
  py.class @FloatingPointError attributes {base_names = ["ArithmeticError"]} {}
  py.class @OverflowError attributes {base_names = ["ArithmeticError"]} {}
  py.class @BufferError attributes {base_names = ["Exception"]} {}
  py.class @EOFError attributes {base_names = ["Exception"]} {}
  py.class @ImportError attributes {base_names = ["Exception"]} {}
  py.class @ModuleNotFoundError attributes {base_names = ["ImportError"]} {}
  py.class @MemoryError attributes {base_names = ["Exception"]} {}
  py.class @NameError attributes {base_names = ["Exception"]} {}
  py.class @UnboundLocalError attributes {base_names = ["NameError"]} {}
  py.class @AttributeError attributes {base_names = ["Exception"]} {}
  py.class @ReferenceError attributes {base_names = ["Exception"]} {}
  py.class @NotImplementedError attributes {base_names = ["RuntimeError"]} {}
  py.class @RecursionError attributes {base_names = ["RuntimeError"]} {}
  py.class @PythonFinalizationError attributes {base_names = ["RuntimeError"]} {}
  py.class @SyntaxError attributes {base_names = ["Exception"]} {}
  py.class @IndentationError attributes {base_names = ["SyntaxError"]} {}
  py.class @TabError attributes {base_names = ["IndentationError"]} {}
  py.class @SystemError attributes {base_names = ["Exception"]} {}
  py.class @UnicodeError attributes {base_names = ["ValueError"]} {}
  py.class @UnicodeDecodeError attributes {base_names = ["UnicodeError"]} {}
  py.class @UnicodeEncodeError attributes {base_names = ["UnicodeError"]} {}
  py.class @UnicodeTranslateError attributes {base_names = ["UnicodeError"]} {}
  py.class @Warning attributes {base_names = ["Exception"]} {}
  py.class @BytesWarning attributes {base_names = ["Warning"]} {}
  py.class @DeprecationWarning attributes {base_names = ["Warning"]} {}
  py.class @EncodingWarning attributes {base_names = ["Warning"]} {}
  py.class @FutureWarning attributes {base_names = ["Warning"]} {}
  py.class @ImportWarning attributes {base_names = ["Warning"]} {}
  py.class @PendingDeprecationWarning attributes {base_names = ["Warning"]} {}
  py.class @ResourceWarning attributes {base_names = ["Warning"]} {}
  py.class @RuntimeWarning attributes {base_names = ["Warning"]} {}
  py.class @SyntaxWarning attributes {base_names = ["Warning"]} {}
  py.class @UnicodeWarning attributes {base_names = ["Warning"]} {}
  py.class @UserWarning attributes {base_names = ["Warning"]} {}
  py.class @BlockingIOError attributes {base_names = ["OSError"]} {}
  py.class @ChildProcessError attributes {base_names = ["OSError"]} {}
  py.class @ConnectionError attributes {base_names = ["OSError"]} {}
  py.class @BrokenPipeError attributes {base_names = ["ConnectionError"]} {}
  py.class @ConnectionAbortedError attributes {base_names = ["ConnectionError"]} {}
  py.class @ConnectionRefusedError attributes {base_names = ["ConnectionError"]} {}
  py.class @ConnectionResetError attributes {base_names = ["ConnectionError"]} {}
  py.class @FileExistsError attributes {base_names = ["OSError"]} {}
  py.class @InterruptedError attributes {base_names = ["OSError"]} {}
  py.class @IsADirectoryError attributes {base_names = ["OSError"]} {}
  py.class @NotADirectoryError attributes {base_names = ["OSError"]} {}
  py.class @PermissionError attributes {base_names = ["OSError"]} {}
  py.class @ProcessLookupError attributes {base_names = ["OSError"]} {}
  py.class @TimeoutError attributes {base_names = ["OSError"]} {}

  // ===========================================================
  // Lowering strategies (transform dialect carrier) -- layer 4 of the
  // transformation stack: target-selected,
  // schedule-shaped transformations that ship WITH the module instead of in
  // C++. Per-op lowerings stay in RuntimeBundleLowerer (layers 1-2); stage
  // ordering stays in LoweringPipeline.cpp (layer 3).
  //
  // A modules/<name>.mlir may declare lowering strategies as a nested
  // strategy-library module marked `transform.with_named_sequence`. The
  // runtime import skips it (it never merges into the user module); the
  // lowering pipeline's strategy interpreter collects these libraries from
  // the embedded manifests and applies matched sequences to the user module
  // via transform::applyTransforms -- matchers select payload
  // ops (transform.foreach_match), actions rewrite them
  // (transform.apply_patterns / transform.include).
  // ===========================================================
  module @__lython_lowering_strategies attributes {transform.with_named_sequence} {
    // Post-import cleanup: the user module was canonicalized before the
    // runtime implementations were imported (pipeline phase 6 runs before
    // phase 8), so the freshly imported runtime function bodies reach the
    // runtime lowering uncanonicalized. Re-run canonicalization + CSE over
    // the whole module once the implementations are in.
    transform.named_sequence @__lython_strategy_post_import_cleanup(%root: !transform.any_op) {
      %canonicalized = transform.apply_registered_pass "canonicalize" to %root : (!transform.any_op) -> !transform.any_op
      %cleaned = transform.apply_registered_pass "cse" to %canonicalized : (!transform.any_op) -> !transform.any_op
      transform.yield
    }
  }

  // ===========================================================
  // Runtime implementations (contract + impl co-located).
  // ===========================================================

  // ===== impls: object =====
  memref.global "private" constant @__ly_bool_repr_true : memref<4xi8> = dense<[84, 114, 117, 101]>
  memref.global "private" constant @__ly_bool_repr_false : memref<5xi8> = dense<[70, 97, 108, 115, 101]>

  // ABI shape declarations are manifest entries: they describe the physical
  // runtime bundle for contracts whose structural signatures live elsewhere.
  func.func private @LyNone_Shape() attributes {ly.runtime.contract = "types.NoneType", ly.runtime.shape}

  func.func private @LyObject_Shape() -> memref<16xi64> attributes {ly.runtime.contract = "builtins.object", ly.runtime.shape}

  func.func private @LyBool_Shape() -> i1 attributes {ly.runtime.contract = "builtins.bool", ly.runtime.shape}


  func.func private @LyBuiltin_Len() -> (memref<2xi64>, memref<2xi64>, memref<?xi32>) attributes {ly.runtime.builtin = "len", ly.runtime.builtin_lowering = "method", ly.runtime.builtin_method = "__len__", ly.runtime.contract = "builtins.object", ly.runtime.primitive = "builtin_len", ly.runtime.result_contract = "builtins.int"}

  func.func private @LyBuiltin_Hash() -> (memref<2xi64>, memref<2xi64>, memref<?xi32>) attributes {ly.runtime.builtin = "hash", ly.runtime.builtin_lowering = "method", ly.runtime.builtin_method = "__hash__", ly.runtime.contract = "builtins.object", ly.runtime.primitive = "builtin_hash", ly.runtime.result_contract = "builtins.int"}

  func.func @LyObject_Init(%header: memref<16xi64> {ly.ownership.object_header}) attributes {ly.runtime.class_id = 0 : i64, ly.runtime.contract = "builtins.object", ly.runtime.method = "__init__"} {
    func.return
  }

  func.func private @LyObject_ReleaseBoxedPayloadRaw(%box: memref<16xi64>)

  func.func @LyObject_DecRef(%box: memref<16xi64> {ly.ownership.object_header}) attributes {ly.ownership.release_args = [0], ly.runtime.contract = "builtins.object", ly.runtime.deallocator} {
    %storage = memref.cast %box : memref<16xi64> to memref<?xi64>
    %became_zero = func.call @LyObject_ReleaseStorageToZero(%storage) : (memref<?xi64>) -> i1
    cf.cond_br %became_zero, ^dealloc, ^done

  ^dealloc:
    func.call @LyObject_ReleaseBoxedPayloadRaw(%box) : (memref<16xi64>) -> ()
    memref.dealloc %box : memref<16xi64>
    cf.br ^done

  ^done:
    func.return
  }

  func.func @LyObject_DefaultRepr(%header: memref<2xi64, strided<[1], offset: ?>> {ly.ownership.object_header}, %prefix: memref<?xi8>, %prefix_len: i64) -> (memref<2xi64>, memref<?xi8>) attributes {ly.ownership.owned_results = [0], ly.runtime.contract = "builtins.object", ly.runtime.primitive = "default_repr", ly.runtime.result_contract = "builtins.str"} {
    %zero = arith.constant 0 : i64
    %one = arith.constant 1 : i64
    %sixteen = arith.constant 16 : i64
    %max_digits_index = arith.constant 16 : index
    %lower = arith.constant 0 : index
    %step = arith.constant 1 : index
    %ascii_zero = arith.constant 48 : i64
    %ascii_a_minus_ten = arith.constant 87 : i64
    %ascii_gt = arith.constant 62 : i8

    %ptr_index = memref.extract_aligned_pointer_as_index %header : memref<2xi64, strided<[1], offset: ?>> -> index
    %ptr = arith.index_cast %ptr_index : index to i64
    %counted:2 = scf.for %i = %lower to %max_digits_index step %step iter_args(%n = %ptr, %digits = %zero) -> (i64, i64) {
      %active = arith.cmpi ne, %n, %zero : i64
      %next_n_active = arith.divui %n, %sixteen : i64
      %next_n = arith.select %active, %next_n_active, %n : i1, i64
      %incremented = arith.addi %digits, %one : i64
      %next_digits = arith.select %active, %incremented, %digits : i1, i64
      scf.yield %next_n, %next_digits : i64, i64
    }
    %ptr_is_zero = arith.cmpi eq, %ptr, %zero : i64
    %hex_digits = arith.select %ptr_is_zero, %one, %counted#1 : i1, i64
    %body_len = arith.addi %hex_digits, %one : i64
    %total_len = arith.addi %prefix_len, %body_len : i64
    %total_len_index = arith.index_cast %total_len : i64 to index
    %prefix_len_index = arith.index_cast %prefix_len : i64 to index
    %hex_digits_index = arith.index_cast %hex_digits : i64 to index
    %buffer = memref.alloca(%total_len_index) : memref<?xi8>

    scf.for %i = %lower to %prefix_len_index step %step {
      %byte = memref.load %prefix[%i] : memref<?xi8>
      memref.store %byte, %buffer[%i] : memref<?xi8>
    }

    scf.for %i = %lower to %hex_digits_index step %step iter_args(%n = %ptr) -> (i64) {
      %digit = arith.remui %n, %sixteen : i64
      %ten = arith.constant 10 : i64
      %is_decimal = arith.cmpi ult, %digit, %ten : i64
      %decimal_ch = arith.addi %digit, %ascii_zero : i64
      %alpha_ch = arith.addi %digit, %ascii_a_minus_ten : i64
      %ch_i64 = arith.select %is_decimal, %decimal_ch, %alpha_ch : i1, i64
      %ch = arith.trunci %ch_i64 : i64 to i8
      %one_index = arith.constant 1 : index
      %last_digit = arith.subi %hex_digits_index, %one_index : index
      %offset = arith.subi %last_digit, %i : index
      %dest = arith.addi %prefix_len_index, %offset : index
      memref.store %ch, %buffer[%dest] : memref<?xi8>
      %next = arith.divui %n, %sixteen : i64
      scf.yield %next : i64
    }

    %suffix_pos = arith.addi %prefix_len_index, %hex_digits_index : index
    memref.store %ascii_gt, %buffer[%suffix_pos] : memref<?xi8>
    %start = arith.constant 0 : index
    %result_header, %result_bytes = func.call @LyUnicode_FromBytes(%buffer, %start, %total_len) : (memref<?xi8>, index, i64) -> (memref<2xi64>, memref<?xi8>)
    func.return %result_header, %result_bytes : memref<2xi64>, memref<?xi8>
  }

  func.func @LyBool_Repr(%value: i1) -> (memref<2xi64>, memref<?xi8>) attributes {ly.ownership.owned_results = [0], ly.runtime.contract = "builtins.bool", ly.runtime.method = "__repr__", ly.runtime.result_contract = "builtins.str"} {
    %c0 = arith.constant 0 : index
    %result:2 = scf.if %value -> (memref<2xi64>, memref<?xi8>) {
      %true_static = memref.get_global @__ly_bool_repr_true : memref<4xi8>
      %true_bytes = memref.cast %true_static : memref<4xi8> to memref<?xi8>
      %true_len = arith.constant 4 : i64
      %header, %bytes = func.call @LyUnicode_FromBytes(%true_bytes, %c0, %true_len) : (memref<?xi8>, index, i64) -> (memref<2xi64>, memref<?xi8>)
      scf.yield %header, %bytes : memref<2xi64>, memref<?xi8>
    } else {
      %false_static = memref.get_global @__ly_bool_repr_false : memref<5xi8>
      %false_bytes = memref.cast %false_static : memref<5xi8> to memref<?xi8>
      %false_len = arith.constant 5 : i64
      %header, %bytes = func.call @LyUnicode_FromBytes(%false_bytes, %c0, %false_len) : (memref<?xi8>, index, i64) -> (memref<2xi64>, memref<?xi8>)
      scf.yield %header, %bytes : memref<2xi64>, memref<?xi8>
    }
    func.return %result#0, %result#1 : memref<2xi64>, memref<?xi8>
  }

  // Boxed bool: two immortal singletons (CPython's True/False semantics).
  // Layout follows the shared header contract: [refcount, class_id, value].
  // The refcount starts at the immortal marker; generic retains/releases may
  // drift it but it never reaches zero, and the deallocator is a no-op.
  memref.global "private" @__ly_bool_box_true : memref<3xi64> = dense<[9223372036854775807, 22, 1]>
  memref.global "private" @__ly_bool_box_false : memref<3xi64> = dense<[9223372036854775807, 22, 0]>

  // box: canonical i1 -> the boxed singleton (no allocation).
  func.func @LyBool_Box(%value: i1) -> memref<3xi64> attributes {ly.runtime.class_id = 22 : i64, ly.runtime.contract = "builtins.bool", ly.runtime.primitive = "box"} {
    %true_box = memref.get_global @__ly_bool_box_true : memref<3xi64>
    %false_box = memref.get_global @__ly_bool_box_false : memref<3xi64>
    %box = arith.select %value, %true_box, %false_box : memref<3xi64>
    func.return %box : memref<3xi64>
  }

  // unbox: boxed singleton -> canonical i1.
  func.func @LyBool_Unbox(%header: memref<3xi64> {ly.ownership.object_header}) -> i1 attributes {ly.runtime.contract = "builtins.bool", ly.runtime.primitive = "unbox"} {
    %c2 = arith.constant 2 : index
    %c0_i64 = arith.constant 0 : i64
    %word = memref.load %header[%c2] : memref<3xi64>
    %value = arith.cmpi ne, %word, %c0_i64 : i64
    func.return %value : i1
  }

  // Boxed-conforming __repr__ (erased-element dispatch through the repr hook).
  func.func @LyBool_BoxedRepr(%header: memref<3xi64> {ly.ownership.object_header}) -> (memref<2xi64>, memref<?xi8>) attributes {ly.ownership.owned_results = [0], ly.runtime.contract = "builtins.bool", ly.runtime.method = "__repr__", ly.runtime.result_contract = "builtins.str"} {
    %value = func.call @LyBool_Unbox(%header) : (memref<3xi64>) -> i1
    %result_header, %result_bytes = func.call @LyBool_Repr(%value) : (i1) -> (memref<2xi64>, memref<?xi8>)
    func.return %result_header, %result_bytes : memref<2xi64>, memref<?xi8>
  }

  // Immortal singletons never deallocate; the release hook still needs a
  // conforming deallocator so boxed slots release without a miss.
  func.func @LyBool_DecRef(%header: memref<3xi64> {ly.ownership.object_header}) attributes {ly.ownership.release_args = [0], ly.runtime.contract = "builtins.bool", ly.runtime.deallocator} {
    func.return
  }

  func.func @LyBool_Str(%value: i1) -> (memref<2xi64>, memref<?xi8>) attributes {ly.ownership.owned_results = [0], ly.runtime.contract = "builtins.bool", ly.runtime.method = "__str__", ly.runtime.result_contract = "builtins.str"} {
    %header, %bytes = func.call @LyBool_Repr(%value) : (i1) -> (memref<2xi64>, memref<?xi8>)
    func.return %header, %bytes : memref<2xi64>, memref<?xi8>
  }

  func.func @Ly_IncRef(%header: memref<2xi64, strided<[1], offset: ?>> {ly.ownership.object_header}) attributes {ly.ownership.retain_args = [0], ly.runtime.primitive = "retain"} {
    %slot = arith.constant 0 : index
    %zero = arith.constant 0 : i64
    %immortal = arith.constant 9223372036854775807 : i64
    // Tagged fast path: a header whose aligned pointer has bit 0 set is an
    // inline tagged long. It owns no memory and must
    // not be dereferenced at all.
    %ptr_index = memref.extract_aligned_pointer_as_index %header : memref<2xi64, strided<[1], offset: ?>> -> index
    %ptr_bits = arith.index_cast %ptr_index : index to i64
    %tag_one = arith.constant 1 : i64
    %tag_bit = arith.andi %ptr_bits, %tag_one : i64
    %is_tagged = arith.cmpi eq, %tag_bit, %tag_one : i64
    cf.cond_br %is_tagged, ^done, ^probe

  ^probe:
    // Immortal fast path: immortality is fixed at object creation and never
    // changes, so a pre-RMW acquire read is a stable witness. Skipping the
    // RMW keeps immortal headers write-free, which lets constant literals
    // live in read-only sections.
    %observed = memref.load %header[%slot] {ly.atomic.ordering = "acquire", ly.atomic.role = "object.refcount.load"} : memref<2xi64, strided<[1], offset: ?>>
    %pre_immortal = arith.cmpi eq, %observed, %immortal : i64
    cf.cond_br %pre_immortal, ^done, ^mutate

  ^mutate:
    %previous = memref.generic_atomic_rmw %header[%slot] : memref<2xi64, strided<[1], offset: ?>> {
    ^bb0(%current : i64):
      %body_zero = arith.constant 0 : i64
      %body_one = arith.constant 1 : i64
      %body_immortal = arith.constant 9223372036854775807 : i64
      %body_positive = arith.cmpi sgt, %current, %body_zero : i64
      %body_immortal_check = arith.cmpi eq, %current, %body_immortal : i64
      %body_incremented = arith.addi %current, %body_one : i64
      %body_positive_next = arith.select %body_positive, %body_incremented, %current : i1, i64
      %body_next = arith.select %body_immortal_check, %current, %body_positive_next : i1, i64
      memref.atomic_yield %body_next : i64
    } {ly.atomic.ordering = "acq_rel", ly.atomic.retain_premise = "entry-borrowed", ly.atomic.role = "object.refcount.retain"}
    %is_immortal = arith.cmpi eq, %previous, %immortal : i64
    cf.cond_br %is_immortal, ^done, ^check_positive

  ^check_positive:
    %positive = arith.cmpi sgt, %previous, %zero : i64
    cf.assert %positive, "Ly_IncRef observed non-positive refcount"
    cf.br ^done

  ^done:
    func.return
  }

  func.func @LyObject_ReleaseStorageToZero(%storage: memref<?xi64>) -> i1 attributes {ly.runtime.contract = "builtins.object", ly.runtime.primitive = "release_to_zero"} {
    %slot = arith.constant 0 : index
    %zero = arith.constant 0 : i64
    %immortal = arith.constant 9223372036854775807 : i64
    // Immortal fast path: see Ly_IncRef. Immortal storage is never written,
    // so constant literal objects stay in read-only storage.
    %observed = memref.load %storage[%slot] {ly.atomic.ordering = "acquire", ly.atomic.role = "object.refcount.load"} : memref<?xi64>
    %pre_immortal = arith.cmpi eq, %observed, %immortal : i64
    cf.cond_br %pre_immortal, ^done, ^mutate

  ^mutate:
    %previous = memref.generic_atomic_rmw %storage[%slot] : memref<?xi64> {
    ^bb0(%current : i64):
      %body_zero = arith.constant 0 : i64
      %body_one = arith.constant 1 : i64
      %body_immortal = arith.constant 9223372036854775807 : i64
      %body_positive = arith.cmpi sgt, %current, %body_zero : i64
      %body_immortal_check = arith.cmpi eq, %current, %body_immortal : i64
      %body_decremented = arith.subi %current, %body_one : i64
      %body_positive_next = arith.select %body_positive, %body_decremented, %current : i1, i64
      %body_next = arith.select %body_immortal_check, %current, %body_positive_next : i1, i64
      memref.atomic_yield %body_next : i64
    } {ly.atomic.ordering = "acq_rel", ly.atomic.role = "object.refcount.release"}
    %is_immortal = arith.cmpi eq, %previous, %immortal : i64
    cf.cond_br %is_immortal, ^done, ^check_positive

  ^check_positive:
    %positive = arith.cmpi sgt, %previous, %zero : i64
    cf.assert %positive, "Ly_DecRef observed non-positive refcount"
    %one = arith.constant 1 : i64
    %became_zero = arith.cmpi eq, %previous, %one : i64
    func.return %became_zero : i1

  ^done:
    %false = arith.constant false
    func.return %false : i1
  }

  func.func @LyBaseException_DecRef(%header: memref<3xi64> {ly.ownership.object_header}, %message_header: memref<2xi64> {ly.ownership.object_header}, %message_bytes: memref<?xi8>) attributes {ly.ownership.release_args = [0], ly.runtime.contract = "builtins.BaseException", ly.runtime.deallocator} {
    %storage = memref.cast %header : memref<3xi64> to memref<?xi64>
    %became_zero = func.call @LyObject_ReleaseStorageToZero(%storage) : (memref<?xi64>) -> i1
    cf.cond_br %became_zero, ^dealloc, ^done

  ^dealloc:
    func.call @LyUnicode_DecRef(%message_header) : (memref<2xi64>) -> ()
    memref.dealloc %header : memref<3xi64>
    cf.br ^done

  ^done:
    func.return
  }

  func.func @LyLong_DecRef(%header: memref<2xi64> {ly.ownership.object_header}) attributes {ly.ownership.release_args = [0], ly.runtime.contract = "builtins.int", ly.runtime.deallocator} {
    %storage = memref.cast %header : memref<2xi64> to memref<?xi64>
    %became_zero = func.call @LyObject_ReleaseStorageToZero(%storage) : (memref<?xi64>) -> i1
    cf.cond_br %became_zero, ^dealloc, ^done

  ^dealloc:
    // int is one allocation; the header view carries it. meta/digits are
    // interior views of the same block and must not be freed.
    memref.dealloc %header : memref<2xi64>
    cf.br ^done

  ^done:
    func.return
  }

  func.func @LyUnicode_DecRef(%header: memref<2xi64> {ly.ownership.object_header}) attributes {ly.ownership.release_args = [0], ly.runtime.contract = "builtins.str", ly.runtime.deallocator} {
    %storage = memref.cast %header : memref<2xi64> to memref<?xi64>
    %became_zero = func.call @LyObject_ReleaseStorageToZero(%storage) : (memref<?xi64>) -> i1
    cf.cond_br %became_zero, ^dealloc, ^done

  ^dealloc:
    // str is one allocation; the header view carries it.
    memref.dealloc %header : memref<2xi64>
    cf.br ^done

  ^done:
    func.return
  }

  // ===== impls: exception =====
  func.func private @LyEH_ThrowException(%header: memref<3xi64> {ly.ownership.object_header}, %message_header: memref<2xi64> {ly.ownership.object_header}, %message_bytes: memref<?xi8>) attributes {ly.ownership.transfer_args = [0, 1], ly.runtime.contract = "builtins.BaseException", ly.runtime.primitive = "raise"}
  func.func private @LyEH_BorrowCurrentException() -> (memref<3xi64>, memref<2xi64>, memref<?xi8>) attributes {ly.runtime.contract = "builtins.BaseException", ly.runtime.primitive = "borrow_current"}

  func.func private @LyException_Shape() -> (memref<3xi64>, memref<2xi64>, memref<?xi8>) attributes {ly.runtime.contract = "builtins.Exception", ly.runtime.shape}
  func.func private @LyRuntimeError_Shape() -> (memref<3xi64>, memref<2xi64>, memref<?xi8>) attributes {ly.runtime.contract = "builtins.RuntimeError", ly.runtime.shape}
  func.func private @LyTypeError_Shape() -> (memref<3xi64>, memref<2xi64>, memref<?xi8>) attributes {ly.runtime.contract = "builtins.TypeError", ly.runtime.shape}
  func.func private @LyValueError_Shape() -> (memref<3xi64>, memref<2xi64>, memref<?xi8>) attributes {ly.runtime.contract = "builtins.ValueError", ly.runtime.shape}
  func.func private @LyArithmeticError_Shape() -> (memref<3xi64>, memref<2xi64>, memref<?xi8>) attributes {ly.runtime.contract = "builtins.ArithmeticError", ly.runtime.shape}
  func.func private @LyLookupError_Shape() -> (memref<3xi64>, memref<2xi64>, memref<?xi8>) attributes {ly.runtime.contract = "builtins.LookupError", ly.runtime.shape}
  func.func private @LyZeroDivisionError_Shape() -> (memref<3xi64>, memref<2xi64>, memref<?xi8>) attributes {ly.runtime.contract = "builtins.ZeroDivisionError", ly.runtime.shape}
  func.func private @LyKeyError_Shape() -> (memref<3xi64>, memref<2xi64>, memref<?xi8>) attributes {ly.runtime.contract = "builtins.KeyError", ly.runtime.shape}
  func.func private @LyIndexError_Shape() -> (memref<3xi64>, memref<2xi64>, memref<?xi8>) attributes {ly.runtime.contract = "builtins.IndexError", ly.runtime.shape}
  func.func private @LyAssertionError_Shape() -> (memref<3xi64>, memref<2xi64>, memref<?xi8>) attributes {ly.runtime.contract = "builtins.AssertionError", ly.runtime.shape}
  func.func private @LyKeyboardInterrupt_Shape() -> (memref<3xi64>, memref<2xi64>, memref<?xi8>) attributes {ly.runtime.contract = "builtins.KeyboardInterrupt", ly.runtime.shape}
  func.func private @LyBaseExceptionGroup_Shape() -> (memref<3xi64>, memref<2xi64>, memref<?xi8>) attributes {ly.runtime.contract = "builtins.BaseExceptionGroup", ly.runtime.shape}
  func.func private @LyExceptionGroup_Shape() -> (memref<3xi64>, memref<2xi64>, memref<?xi8>) attributes {ly.runtime.contract = "builtins.ExceptionGroup", ly.runtime.shape}
  func.func private @LyFloatingPointError_Shape() -> (memref<3xi64>, memref<2xi64>, memref<?xi8>) attributes {ly.runtime.contract = "builtins.FloatingPointError", ly.runtime.shape}
  func.func private @LyOverflowError_Shape() -> (memref<3xi64>, memref<2xi64>, memref<?xi8>) attributes {ly.runtime.contract = "builtins.OverflowError", ly.runtime.shape}
  func.func private @LyBufferError_Shape() -> (memref<3xi64>, memref<2xi64>, memref<?xi8>) attributes {ly.runtime.contract = "builtins.BufferError", ly.runtime.shape}
  func.func private @LyEOFError_Shape() -> (memref<3xi64>, memref<2xi64>, memref<?xi8>) attributes {ly.runtime.contract = "builtins.EOFError", ly.runtime.shape}
  func.func private @LyImportError_Shape() -> (memref<3xi64>, memref<2xi64>, memref<?xi8>) attributes {ly.runtime.contract = "builtins.ImportError", ly.runtime.shape}
  func.func private @LyModuleNotFoundError_Shape() -> (memref<3xi64>, memref<2xi64>, memref<?xi8>) attributes {ly.runtime.contract = "builtins.ModuleNotFoundError", ly.runtime.shape}
  func.func private @LyMemoryError_Shape() -> (memref<3xi64>, memref<2xi64>, memref<?xi8>) attributes {ly.runtime.contract = "builtins.MemoryError", ly.runtime.shape}
  func.func private @LyNameError_Shape() -> (memref<3xi64>, memref<2xi64>, memref<?xi8>) attributes {ly.runtime.contract = "builtins.NameError", ly.runtime.shape}
  func.func private @LyUnboundLocalError_Shape() -> (memref<3xi64>, memref<2xi64>, memref<?xi8>) attributes {ly.runtime.contract = "builtins.UnboundLocalError", ly.runtime.shape}
  func.func private @LyAttributeError_Shape() -> (memref<3xi64>, memref<2xi64>, memref<?xi8>) attributes {ly.runtime.contract = "builtins.AttributeError", ly.runtime.shape}
  func.func private @LyReferenceError_Shape() -> (memref<3xi64>, memref<2xi64>, memref<?xi8>) attributes {ly.runtime.contract = "builtins.ReferenceError", ly.runtime.shape}
  func.func private @LyNotImplementedError_Shape() -> (memref<3xi64>, memref<2xi64>, memref<?xi8>) attributes {ly.runtime.contract = "builtins.NotImplementedError", ly.runtime.shape}
  func.func private @LyRecursionError_Shape() -> (memref<3xi64>, memref<2xi64>, memref<?xi8>) attributes {ly.runtime.contract = "builtins.RecursionError", ly.runtime.shape}
  func.func private @LyPythonFinalizationError_Shape() -> (memref<3xi64>, memref<2xi64>, memref<?xi8>) attributes {ly.runtime.contract = "builtins.PythonFinalizationError", ly.runtime.shape}
  func.func private @LySyntaxError_Shape() -> (memref<3xi64>, memref<2xi64>, memref<?xi8>) attributes {ly.runtime.contract = "builtins.SyntaxError", ly.runtime.shape}
  func.func private @LyIndentationError_Shape() -> (memref<3xi64>, memref<2xi64>, memref<?xi8>) attributes {ly.runtime.contract = "builtins.IndentationError", ly.runtime.shape}
  func.func private @LyTabError_Shape() -> (memref<3xi64>, memref<2xi64>, memref<?xi8>) attributes {ly.runtime.contract = "builtins.TabError", ly.runtime.shape}
  func.func private @LySystemError_Shape() -> (memref<3xi64>, memref<2xi64>, memref<?xi8>) attributes {ly.runtime.contract = "builtins.SystemError", ly.runtime.shape}
  func.func private @LyUnicodeError_Shape() -> (memref<3xi64>, memref<2xi64>, memref<?xi8>) attributes {ly.runtime.contract = "builtins.UnicodeError", ly.runtime.shape}
  func.func private @LyUnicodeDecodeError_Shape() -> (memref<3xi64>, memref<2xi64>, memref<?xi8>) attributes {ly.runtime.contract = "builtins.UnicodeDecodeError", ly.runtime.shape}
  func.func private @LyUnicodeEncodeError_Shape() -> (memref<3xi64>, memref<2xi64>, memref<?xi8>) attributes {ly.runtime.contract = "builtins.UnicodeEncodeError", ly.runtime.shape}
  func.func private @LyUnicodeTranslateError_Shape() -> (memref<3xi64>, memref<2xi64>, memref<?xi8>) attributes {ly.runtime.contract = "builtins.UnicodeTranslateError", ly.runtime.shape}
  func.func private @LyWarning_Shape() -> (memref<3xi64>, memref<2xi64>, memref<?xi8>) attributes {ly.runtime.contract = "builtins.Warning", ly.runtime.shape}
  func.func private @LyBytesWarning_Shape() -> (memref<3xi64>, memref<2xi64>, memref<?xi8>) attributes {ly.runtime.contract = "builtins.BytesWarning", ly.runtime.shape}
  func.func private @LyDeprecationWarning_Shape() -> (memref<3xi64>, memref<2xi64>, memref<?xi8>) attributes {ly.runtime.contract = "builtins.DeprecationWarning", ly.runtime.shape}
  func.func private @LyEncodingWarning_Shape() -> (memref<3xi64>, memref<2xi64>, memref<?xi8>) attributes {ly.runtime.contract = "builtins.EncodingWarning", ly.runtime.shape}
  func.func private @LyFutureWarning_Shape() -> (memref<3xi64>, memref<2xi64>, memref<?xi8>) attributes {ly.runtime.contract = "builtins.FutureWarning", ly.runtime.shape}
  func.func private @LyImportWarning_Shape() -> (memref<3xi64>, memref<2xi64>, memref<?xi8>) attributes {ly.runtime.contract = "builtins.ImportWarning", ly.runtime.shape}
  func.func private @LyPendingDeprecationWarning_Shape() -> (memref<3xi64>, memref<2xi64>, memref<?xi8>) attributes {ly.runtime.contract = "builtins.PendingDeprecationWarning", ly.runtime.shape}
  func.func private @LyResourceWarning_Shape() -> (memref<3xi64>, memref<2xi64>, memref<?xi8>) attributes {ly.runtime.contract = "builtins.ResourceWarning", ly.runtime.shape}
  func.func private @LyRuntimeWarning_Shape() -> (memref<3xi64>, memref<2xi64>, memref<?xi8>) attributes {ly.runtime.contract = "builtins.RuntimeWarning", ly.runtime.shape}
  func.func private @LySyntaxWarning_Shape() -> (memref<3xi64>, memref<2xi64>, memref<?xi8>) attributes {ly.runtime.contract = "builtins.SyntaxWarning", ly.runtime.shape}
  func.func private @LyUnicodeWarning_Shape() -> (memref<3xi64>, memref<2xi64>, memref<?xi8>) attributes {ly.runtime.contract = "builtins.UnicodeWarning", ly.runtime.shape}
  func.func private @LyUserWarning_Shape() -> (memref<3xi64>, memref<2xi64>, memref<?xi8>) attributes {ly.runtime.contract = "builtins.UserWarning", ly.runtime.shape}
  func.func private @LyBlockingIOError_Shape() -> (memref<3xi64>, memref<2xi64>, memref<?xi8>) attributes {ly.runtime.contract = "builtins.BlockingIOError", ly.runtime.shape}
  func.func private @LyChildProcessError_Shape() -> (memref<3xi64>, memref<2xi64>, memref<?xi8>) attributes {ly.runtime.contract = "builtins.ChildProcessError", ly.runtime.shape}
  func.func private @LyConnectionError_Shape() -> (memref<3xi64>, memref<2xi64>, memref<?xi8>) attributes {ly.runtime.contract = "builtins.ConnectionError", ly.runtime.shape}
  func.func private @LyBrokenPipeError_Shape() -> (memref<3xi64>, memref<2xi64>, memref<?xi8>) attributes {ly.runtime.contract = "builtins.BrokenPipeError", ly.runtime.shape}
  func.func private @LyConnectionAbortedError_Shape() -> (memref<3xi64>, memref<2xi64>, memref<?xi8>) attributes {ly.runtime.contract = "builtins.ConnectionAbortedError", ly.runtime.shape}
  func.func private @LyConnectionRefusedError_Shape() -> (memref<3xi64>, memref<2xi64>, memref<?xi8>) attributes {ly.runtime.contract = "builtins.ConnectionRefusedError", ly.runtime.shape}
  func.func private @LyConnectionResetError_Shape() -> (memref<3xi64>, memref<2xi64>, memref<?xi8>) attributes {ly.runtime.contract = "builtins.ConnectionResetError", ly.runtime.shape}
  func.func private @LyFileExistsError_Shape() -> (memref<3xi64>, memref<2xi64>, memref<?xi8>) attributes {ly.runtime.contract = "builtins.FileExistsError", ly.runtime.shape}
  func.func private @LyInterruptedError_Shape() -> (memref<3xi64>, memref<2xi64>, memref<?xi8>) attributes {ly.runtime.contract = "builtins.InterruptedError", ly.runtime.shape}
  func.func private @LyIsADirectoryError_Shape() -> (memref<3xi64>, memref<2xi64>, memref<?xi8>) attributes {ly.runtime.contract = "builtins.IsADirectoryError", ly.runtime.shape}
  func.func private @LyNotADirectoryError_Shape() -> (memref<3xi64>, memref<2xi64>, memref<?xi8>) attributes {ly.runtime.contract = "builtins.NotADirectoryError", ly.runtime.shape}
  func.func private @LyPermissionError_Shape() -> (memref<3xi64>, memref<2xi64>, memref<?xi8>) attributes {ly.runtime.contract = "builtins.PermissionError", ly.runtime.shape}
  func.func private @LyProcessLookupError_Shape() -> (memref<3xi64>, memref<2xi64>, memref<?xi8>) attributes {ly.runtime.contract = "builtins.ProcessLookupError", ly.runtime.shape}
  func.func private @LyTimeoutError_Shape() -> (memref<3xi64>, memref<2xi64>, memref<?xi8>) attributes {ly.runtime.contract = "builtins.TimeoutError", ly.runtime.shape}
  func.func private @LyStopIteration_Shape() -> (memref<3xi64>, memref<2xi64>, memref<?xi8>) attributes {ly.runtime.contract = "builtins.StopIteration", ly.runtime.shape}
  func.func private @LyStopAsyncIteration_Shape() -> (memref<3xi64>, memref<2xi64>, memref<?xi8>) attributes {ly.runtime.contract = "builtins.StopAsyncIteration", ly.runtime.shape}
  func.func private @LySystemExit_Shape() -> (memref<3xi64>, memref<2xi64>, memref<?xi8>) attributes {ly.runtime.contract = "builtins.SystemExit", ly.runtime.shape}
  func.func private @LyGeneratorExit_Shape() -> (memref<3xi64>, memref<2xi64>, memref<?xi8>) attributes {ly.runtime.contract = "builtins.GeneratorExit", ly.runtime.shape}
  func.func private @LyOSError_Shape() -> (memref<3xi64>, memref<2xi64>, memref<?xi8>) attributes {ly.runtime.contract = "builtins.OSError", ly.runtime.shape}
  func.func private @LyFileNotFoundError_Shape() -> (memref<3xi64>, memref<2xi64>, memref<?xi8>) attributes {ly.runtime.contract = "builtins.FileNotFoundError", ly.runtime.shape}
  func.func private @LyCancelledError_Shape() -> (memref<3xi64>, memref<2xi64>, memref<?xi8>) attributes {ly.runtime.contract = "asyncio.CancelledError", ly.runtime.shape}

  func.func @LyBaseException_Init(%header: memref<3xi64> {ly.ownership.object_header}, %old_message_header: memref<2xi64> {ly.ownership.object_header}, %old_message_bytes: memref<?xi8>, %message_header: memref<2xi64> {ly.ownership.object_header}, %message_bytes: memref<?xi8>) -> (memref<3xi64>, memref<2xi64>, memref<?xi8>) attributes {ly.ownership.owned_results = [0], ly.ownership.release_args = [1], ly.ownership.transfer_args = [0, 3], ly.runtime.contract = "builtins.BaseException", ly.runtime.method = "__init__", ly.runtime.result_evidence = "receiver"} {
    func.call @LyUnicode_DecRef(%old_message_header) : (memref<2xi64>) -> ()
    func.return %header, %message_header, %message_bytes : memref<3xi64>, memref<2xi64>, memref<?xi8>
  }

  func.func @LyException_Init(%header: memref<3xi64> {ly.ownership.object_header}, %old_message_header: memref<2xi64> {ly.ownership.object_header}, %old_message_bytes: memref<?xi8>, %message_header: memref<2xi64> {ly.ownership.object_header}, %message_bytes: memref<?xi8>) -> (memref<3xi64>, memref<2xi64>, memref<?xi8>) attributes {ly.ownership.owned_results = [0], ly.ownership.release_args = [1], ly.ownership.transfer_args = [0, 3], ly.runtime.contract = "builtins.Exception", ly.runtime.method = "__init__", ly.runtime.result_evidence = "receiver"} {
    %result:3 = func.call @LyBaseException_Init(%header, %old_message_header, %old_message_bytes, %message_header, %message_bytes) : (memref<3xi64>, memref<2xi64>, memref<?xi8>, memref<2xi64>, memref<?xi8>) -> (memref<3xi64>, memref<2xi64>, memref<?xi8>)
    func.return %result#0, %result#1, %result#2 : memref<3xi64>, memref<2xi64>, memref<?xi8>
  }

  func.func @LyRuntimeError_Init(%header: memref<3xi64> {ly.ownership.object_header}, %old_message_header: memref<2xi64> {ly.ownership.object_header}, %old_message_bytes: memref<?xi8>, %message_header: memref<2xi64> {ly.ownership.object_header}, %message_bytes: memref<?xi8>) -> (memref<3xi64>, memref<2xi64>, memref<?xi8>) attributes {ly.ownership.owned_results = [0], ly.ownership.release_args = [1], ly.ownership.transfer_args = [0, 3], ly.runtime.contract = "builtins.RuntimeError", ly.runtime.method = "__init__", ly.runtime.result_evidence = "receiver"} {
    %result:3 = func.call @LyBaseException_Init(%header, %old_message_header, %old_message_bytes, %message_header, %message_bytes) : (memref<3xi64>, memref<2xi64>, memref<?xi8>, memref<2xi64>, memref<?xi8>) -> (memref<3xi64>, memref<2xi64>, memref<?xi8>)
    func.return %result#0, %result#1, %result#2 : memref<3xi64>, memref<2xi64>, memref<?xi8>
  }

  func.func @LyTypeError_Init(%header: memref<3xi64> {ly.ownership.object_header}, %old_message_header: memref<2xi64> {ly.ownership.object_header}, %old_message_bytes: memref<?xi8>, %message_header: memref<2xi64> {ly.ownership.object_header}, %message_bytes: memref<?xi8>) -> (memref<3xi64>, memref<2xi64>, memref<?xi8>) attributes {ly.ownership.owned_results = [0], ly.ownership.release_args = [1], ly.ownership.transfer_args = [0, 3], ly.runtime.contract = "builtins.TypeError", ly.runtime.method = "__init__", ly.runtime.result_evidence = "receiver"} {
    %result:3 = func.call @LyBaseException_Init(%header, %old_message_header, %old_message_bytes, %message_header, %message_bytes) : (memref<3xi64>, memref<2xi64>, memref<?xi8>, memref<2xi64>, memref<?xi8>) -> (memref<3xi64>, memref<2xi64>, memref<?xi8>)
    func.return %result#0, %result#1, %result#2 : memref<3xi64>, memref<2xi64>, memref<?xi8>
  }

  func.func @LyValueError_Init(%header: memref<3xi64> {ly.ownership.object_header}, %old_message_header: memref<2xi64> {ly.ownership.object_header}, %old_message_bytes: memref<?xi8>, %message_header: memref<2xi64> {ly.ownership.object_header}, %message_bytes: memref<?xi8>) -> (memref<3xi64>, memref<2xi64>, memref<?xi8>) attributes {ly.ownership.owned_results = [0], ly.ownership.release_args = [1], ly.ownership.transfer_args = [0, 3], ly.runtime.contract = "builtins.ValueError", ly.runtime.method = "__init__", ly.runtime.result_evidence = "receiver"} {
    %result:3 = func.call @LyBaseException_Init(%header, %old_message_header, %old_message_bytes, %message_header, %message_bytes) : (memref<3xi64>, memref<2xi64>, memref<?xi8>, memref<2xi64>, memref<?xi8>) -> (memref<3xi64>, memref<2xi64>, memref<?xi8>)
    func.return %result#0, %result#1, %result#2 : memref<3xi64>, memref<2xi64>, memref<?xi8>
  }

  func.func @LyArithmeticError_Init(%header: memref<3xi64> {ly.ownership.object_header}, %old_message_header: memref<2xi64> {ly.ownership.object_header}, %old_message_bytes: memref<?xi8>, %message_header: memref<2xi64> {ly.ownership.object_header}, %message_bytes: memref<?xi8>) -> (memref<3xi64>, memref<2xi64>, memref<?xi8>) attributes {ly.ownership.owned_results = [0], ly.ownership.release_args = [1], ly.ownership.transfer_args = [0, 3], ly.runtime.contract = "builtins.ArithmeticError", ly.runtime.method = "__init__", ly.runtime.result_evidence = "receiver"} {
    %result:3 = func.call @LyBaseException_Init(%header, %old_message_header, %old_message_bytes, %message_header, %message_bytes) : (memref<3xi64>, memref<2xi64>, memref<?xi8>, memref<2xi64>, memref<?xi8>) -> (memref<3xi64>, memref<2xi64>, memref<?xi8>)
    func.return %result#0, %result#1, %result#2 : memref<3xi64>, memref<2xi64>, memref<?xi8>
  }

  func.func @LyLookupError_Init(%header: memref<3xi64> {ly.ownership.object_header}, %old_message_header: memref<2xi64> {ly.ownership.object_header}, %old_message_bytes: memref<?xi8>, %message_header: memref<2xi64> {ly.ownership.object_header}, %message_bytes: memref<?xi8>) -> (memref<3xi64>, memref<2xi64>, memref<?xi8>) attributes {ly.ownership.owned_results = [0], ly.ownership.release_args = [1], ly.ownership.transfer_args = [0, 3], ly.runtime.contract = "builtins.LookupError", ly.runtime.method = "__init__", ly.runtime.result_evidence = "receiver"} {
    %result:3 = func.call @LyBaseException_Init(%header, %old_message_header, %old_message_bytes, %message_header, %message_bytes) : (memref<3xi64>, memref<2xi64>, memref<?xi8>, memref<2xi64>, memref<?xi8>) -> (memref<3xi64>, memref<2xi64>, memref<?xi8>)
    func.return %result#0, %result#1, %result#2 : memref<3xi64>, memref<2xi64>, memref<?xi8>
  }

  func.func @LyZeroDivisionError_Init(%header: memref<3xi64> {ly.ownership.object_header}, %old_message_header: memref<2xi64> {ly.ownership.object_header}, %old_message_bytes: memref<?xi8>, %message_header: memref<2xi64> {ly.ownership.object_header}, %message_bytes: memref<?xi8>) -> (memref<3xi64>, memref<2xi64>, memref<?xi8>) attributes {ly.ownership.owned_results = [0], ly.ownership.release_args = [1], ly.ownership.transfer_args = [0, 3], ly.runtime.contract = "builtins.ZeroDivisionError", ly.runtime.method = "__init__", ly.runtime.result_evidence = "receiver"} {
    %result:3 = func.call @LyBaseException_Init(%header, %old_message_header, %old_message_bytes, %message_header, %message_bytes) : (memref<3xi64>, memref<2xi64>, memref<?xi8>, memref<2xi64>, memref<?xi8>) -> (memref<3xi64>, memref<2xi64>, memref<?xi8>)
    func.return %result#0, %result#1, %result#2 : memref<3xi64>, memref<2xi64>, memref<?xi8>
  }

  func.func @LyKeyError_Init(%header: memref<3xi64> {ly.ownership.object_header}, %old_message_header: memref<2xi64> {ly.ownership.object_header}, %old_message_bytes: memref<?xi8>, %message_header: memref<2xi64> {ly.ownership.object_header}, %message_bytes: memref<?xi8>) -> (memref<3xi64>, memref<2xi64>, memref<?xi8>) attributes {ly.ownership.owned_results = [0], ly.ownership.release_args = [1], ly.ownership.transfer_args = [0, 3], ly.runtime.contract = "builtins.KeyError", ly.runtime.method = "__init__", ly.runtime.result_evidence = "receiver"} {
    %result:3 = func.call @LyBaseException_Init(%header, %old_message_header, %old_message_bytes, %message_header, %message_bytes) : (memref<3xi64>, memref<2xi64>, memref<?xi8>, memref<2xi64>, memref<?xi8>) -> (memref<3xi64>, memref<2xi64>, memref<?xi8>)
    func.return %result#0, %result#1, %result#2 : memref<3xi64>, memref<2xi64>, memref<?xi8>
  }

  func.func @LyIndexError_Init(%header: memref<3xi64> {ly.ownership.object_header}, %old_message_header: memref<2xi64> {ly.ownership.object_header}, %old_message_bytes: memref<?xi8>, %message_header: memref<2xi64> {ly.ownership.object_header}, %message_bytes: memref<?xi8>) -> (memref<3xi64>, memref<2xi64>, memref<?xi8>) attributes {ly.ownership.owned_results = [0], ly.ownership.release_args = [1], ly.ownership.transfer_args = [0, 3], ly.runtime.contract = "builtins.IndexError", ly.runtime.method = "__init__", ly.runtime.result_evidence = "receiver"} {
    %result:3 = func.call @LyBaseException_Init(%header, %old_message_header, %old_message_bytes, %message_header, %message_bytes) : (memref<3xi64>, memref<2xi64>, memref<?xi8>, memref<2xi64>, memref<?xi8>) -> (memref<3xi64>, memref<2xi64>, memref<?xi8>)
    func.return %result#0, %result#1, %result#2 : memref<3xi64>, memref<2xi64>, memref<?xi8>
  }

  func.func @LyAssertionError_Init(%header: memref<3xi64> {ly.ownership.object_header}, %old_message_header: memref<2xi64> {ly.ownership.object_header}, %old_message_bytes: memref<?xi8>, %message_header: memref<2xi64> {ly.ownership.object_header}, %message_bytes: memref<?xi8>) -> (memref<3xi64>, memref<2xi64>, memref<?xi8>) attributes {ly.ownership.owned_results = [0], ly.ownership.release_args = [1], ly.ownership.transfer_args = [0, 3], ly.runtime.contract = "builtins.AssertionError", ly.runtime.method = "__init__", ly.runtime.result_evidence = "receiver"} {
    %result:3 = func.call @LyBaseException_Init(%header, %old_message_header, %old_message_bytes, %message_header, %message_bytes) : (memref<3xi64>, memref<2xi64>, memref<?xi8>, memref<2xi64>, memref<?xi8>) -> (memref<3xi64>, memref<2xi64>, memref<?xi8>)
    func.return %result#0, %result#1, %result#2 : memref<3xi64>, memref<2xi64>, memref<?xi8>
  }

  func.func @LyStopIteration_Init(%header: memref<3xi64> {ly.ownership.object_header}, %old_message_header: memref<2xi64> {ly.ownership.object_header}, %old_message_bytes: memref<?xi8>, %message_header: memref<2xi64> {ly.ownership.object_header}, %message_bytes: memref<?xi8>) -> (memref<3xi64>, memref<2xi64>, memref<?xi8>) attributes {ly.ownership.owned_results = [0], ly.ownership.release_args = [1], ly.ownership.transfer_args = [0, 3], ly.runtime.contract = "builtins.StopIteration", ly.runtime.method = "__init__", ly.runtime.result_evidence = "receiver"} {
    %result:3 = func.call @LyBaseException_Init(%header, %old_message_header, %old_message_bytes, %message_header, %message_bytes) : (memref<3xi64>, memref<2xi64>, memref<?xi8>, memref<2xi64>, memref<?xi8>) -> (memref<3xi64>, memref<2xi64>, memref<?xi8>)
    func.return %result#0, %result#1, %result#2 : memref<3xi64>, memref<2xi64>, memref<?xi8>
  }

  func.func @LyStopAsyncIteration_Init(%header: memref<3xi64> {ly.ownership.object_header}, %old_message_header: memref<2xi64> {ly.ownership.object_header}, %old_message_bytes: memref<?xi8>, %message_header: memref<2xi64> {ly.ownership.object_header}, %message_bytes: memref<?xi8>) -> (memref<3xi64>, memref<2xi64>, memref<?xi8>) attributes {ly.ownership.owned_results = [0], ly.ownership.release_args = [1], ly.ownership.transfer_args = [0, 3], ly.runtime.contract = "builtins.StopAsyncIteration", ly.runtime.method = "__init__", ly.runtime.result_evidence = "receiver"} {
    %result:3 = func.call @LyBaseException_Init(%header, %old_message_header, %old_message_bytes, %message_header, %message_bytes) : (memref<3xi64>, memref<2xi64>, memref<?xi8>, memref<2xi64>, memref<?xi8>) -> (memref<3xi64>, memref<2xi64>, memref<?xi8>)
    func.return %result#0, %result#1, %result#2 : memref<3xi64>, memref<2xi64>, memref<?xi8>
  }

  func.func @LySystemExit_Init(%header: memref<3xi64> {ly.ownership.object_header}, %old_message_header: memref<2xi64> {ly.ownership.object_header}, %old_message_bytes: memref<?xi8>, %message_header: memref<2xi64> {ly.ownership.object_header}, %message_bytes: memref<?xi8>) -> (memref<3xi64>, memref<2xi64>, memref<?xi8>) attributes {ly.ownership.owned_results = [0], ly.ownership.release_args = [1], ly.ownership.transfer_args = [0, 3], ly.runtime.contract = "builtins.SystemExit", ly.runtime.method = "__init__", ly.runtime.result_evidence = "receiver"} {
    %result:3 = func.call @LyBaseException_Init(%header, %old_message_header, %old_message_bytes, %message_header, %message_bytes) : (memref<3xi64>, memref<2xi64>, memref<?xi8>, memref<2xi64>, memref<?xi8>) -> (memref<3xi64>, memref<2xi64>, memref<?xi8>)
    func.return %result#0, %result#1, %result#2 : memref<3xi64>, memref<2xi64>, memref<?xi8>
  }
  func.func @LyGeneratorExit_Init(%header: memref<3xi64> {ly.ownership.object_header}, %old_message_header: memref<2xi64> {ly.ownership.object_header}, %old_message_bytes: memref<?xi8>, %message_header: memref<2xi64> {ly.ownership.object_header}, %message_bytes: memref<?xi8>) -> (memref<3xi64>, memref<2xi64>, memref<?xi8>) attributes {ly.ownership.owned_results = [0], ly.ownership.release_args = [1], ly.ownership.transfer_args = [0, 3], ly.runtime.contract = "builtins.GeneratorExit", ly.runtime.method = "__init__", ly.runtime.result_evidence = "receiver"} {
    %result:3 = func.call @LyBaseException_Init(%header, %old_message_header, %old_message_bytes, %message_header, %message_bytes) : (memref<3xi64>, memref<2xi64>, memref<?xi8>, memref<2xi64>, memref<?xi8>) -> (memref<3xi64>, memref<2xi64>, memref<?xi8>)
    func.return %result#0, %result#1, %result#2 : memref<3xi64>, memref<2xi64>, memref<?xi8>
  }

  func.func @LyOSError_Init(%header: memref<3xi64> {ly.ownership.object_header}, %old_message_header: memref<2xi64> {ly.ownership.object_header}, %old_message_bytes: memref<?xi8>, %message_header: memref<2xi64> {ly.ownership.object_header}, %message_bytes: memref<?xi8>) -> (memref<3xi64>, memref<2xi64>, memref<?xi8>) attributes {ly.ownership.owned_results = [0], ly.ownership.release_args = [1], ly.ownership.transfer_args = [0, 3], ly.runtime.contract = "builtins.OSError", ly.runtime.method = "__init__", ly.runtime.result_evidence = "receiver"} {
    %result:3 = func.call @LyBaseException_Init(%header, %old_message_header, %old_message_bytes, %message_header, %message_bytes) : (memref<3xi64>, memref<2xi64>, memref<?xi8>, memref<2xi64>, memref<?xi8>) -> (memref<3xi64>, memref<2xi64>, memref<?xi8>)
    func.return %result#0, %result#1, %result#2 : memref<3xi64>, memref<2xi64>, memref<?xi8>
  }

  func.func @LyFileNotFoundError_Init(%header: memref<3xi64> {ly.ownership.object_header}, %old_message_header: memref<2xi64> {ly.ownership.object_header}, %old_message_bytes: memref<?xi8>, %message_header: memref<2xi64> {ly.ownership.object_header}, %message_bytes: memref<?xi8>) -> (memref<3xi64>, memref<2xi64>, memref<?xi8>) attributes {ly.ownership.owned_results = [0], ly.ownership.release_args = [1], ly.ownership.transfer_args = [0, 3], ly.runtime.contract = "builtins.FileNotFoundError", ly.runtime.method = "__init__", ly.runtime.result_evidence = "receiver"} {
    %result:3 = func.call @LyBaseException_Init(%header, %old_message_header, %old_message_bytes, %message_header, %message_bytes) : (memref<3xi64>, memref<2xi64>, memref<?xi8>, memref<2xi64>, memref<?xi8>) -> (memref<3xi64>, memref<2xi64>, memref<?xi8>)
    func.return %result#0, %result#1, %result#2 : memref<3xi64>, memref<2xi64>, memref<?xi8>
  }

  func.func @LyCancelledError_Init(%header: memref<3xi64> {ly.ownership.object_header}, %old_message_header: memref<2xi64> {ly.ownership.object_header}, %old_message_bytes: memref<?xi8>, %message_header: memref<2xi64> {ly.ownership.object_header}, %message_bytes: memref<?xi8>) -> (memref<3xi64>, memref<2xi64>, memref<?xi8>) attributes {ly.ownership.owned_results = [0], ly.ownership.release_args = [1], ly.ownership.transfer_args = [0, 3], ly.runtime.contract = "asyncio.CancelledError", ly.runtime.method = "__init__", ly.runtime.result_evidence = "receiver"} {
    %result:3 = func.call @LyBaseException_Init(%header, %old_message_header, %old_message_bytes, %message_header, %message_bytes) : (memref<3xi64>, memref<2xi64>, memref<?xi8>, memref<2xi64>, memref<?xi8>) -> (memref<3xi64>, memref<2xi64>, memref<?xi8>)
    func.return %result#0, %result#1, %result#2 : memref<3xi64>, memref<2xi64>, memref<?xi8>
  }

  func.func @LyBaseException_New(%class_id: i64 {ly.runtime.class_id_argument}) -> (memref<3xi64>, memref<2xi64>, memref<?xi8>) attributes {ly.ownership.owned_results = [0, 1], ly.runtime.class_id = 5 : i64, ly.runtime.contract = "builtins.BaseException", ly.runtime.initializer = "__new__"} {
    %one = arith.constant 1 : i64
    %layout_exception = arith.constant 5 : i64
    %refcount_slot = arith.constant 0 : index
    %layout_slot = arith.constant 1 : index
    %class_slot = arith.constant 2 : index
    %zero_index = arith.constant 0 : index
    %zero_len = arith.constant 0 : i64

    %header = memref.alloc() {ly.ownership.object_header, ly.ownership.owned_local_object} : memref<3xi64>
    %empty_bytes = memref.alloca(%zero_index) : memref<?xi8>
    %message_header, %message_bytes = func.call @LyUnicode_FromBytes(%empty_bytes, %zero_index, %zero_len) : (memref<?xi8>, index, i64) -> (memref<2xi64>, memref<?xi8>)

    memref.store %one, %header[%refcount_slot] : memref<3xi64>
    memref.store %layout_exception, %header[%layout_slot] : memref<3xi64>
    memref.store %class_id, %header[%class_slot] : memref<3xi64>

    func.return %header, %message_header, %message_bytes : memref<3xi64>, memref<2xi64>, memref<?xi8>
  }

  func.func @LyException_New(%class_id: i64 {ly.runtime.class_id_argument}) -> (memref<3xi64>, memref<2xi64>, memref<?xi8>) attributes {ly.ownership.owned_results = [0, 1], ly.runtime.class_id = 50 : i64, ly.runtime.contract = "builtins.Exception", ly.runtime.initializer = "__new__"} {
    %result:3 = func.call @LyBaseException_New(%class_id) : (i64) -> (memref<3xi64>, memref<2xi64>, memref<?xi8>)
    func.return %result#0, %result#1, %result#2 : memref<3xi64>, memref<2xi64>, memref<?xi8>
  }

  func.func @LyRuntimeError_New(%class_id: i64 {ly.runtime.class_id_argument}) -> (memref<3xi64>, memref<2xi64>, memref<?xi8>) attributes {ly.ownership.owned_results = [0, 1], ly.runtime.class_id = 51 : i64, ly.runtime.contract = "builtins.RuntimeError", ly.runtime.initializer = "__new__"} {
    %result:3 = func.call @LyBaseException_New(%class_id) : (i64) -> (memref<3xi64>, memref<2xi64>, memref<?xi8>)
    func.return %result#0, %result#1, %result#2 : memref<3xi64>, memref<2xi64>, memref<?xi8>
  }

  func.func @LyTypeError_New(%class_id: i64 {ly.runtime.class_id_argument}) -> (memref<3xi64>, memref<2xi64>, memref<?xi8>) attributes {ly.ownership.owned_results = [0, 1], ly.runtime.class_id = 52 : i64, ly.runtime.contract = "builtins.TypeError", ly.runtime.initializer = "__new__"} {
    %result:3 = func.call @LyBaseException_New(%class_id) : (i64) -> (memref<3xi64>, memref<2xi64>, memref<?xi8>)
    func.return %result#0, %result#1, %result#2 : memref<3xi64>, memref<2xi64>, memref<?xi8>
  }

  func.func @LyValueError_New(%class_id: i64 {ly.runtime.class_id_argument}) -> (memref<3xi64>, memref<2xi64>, memref<?xi8>) attributes {ly.ownership.owned_results = [0, 1], ly.runtime.class_id = 53 : i64, ly.runtime.contract = "builtins.ValueError", ly.runtime.initializer = "__new__"} {
    %result:3 = func.call @LyBaseException_New(%class_id) : (i64) -> (memref<3xi64>, memref<2xi64>, memref<?xi8>)
    func.return %result#0, %result#1, %result#2 : memref<3xi64>, memref<2xi64>, memref<?xi8>
  }

  func.func @LyArithmeticError_New(%class_id: i64 {ly.runtime.class_id_argument}) -> (memref<3xi64>, memref<2xi64>, memref<?xi8>) attributes {ly.ownership.owned_results = [0, 1], ly.runtime.class_id = 59 : i64, ly.runtime.contract = "builtins.ArithmeticError", ly.runtime.initializer = "__new__"} {
    %result:3 = func.call @LyBaseException_New(%class_id) : (i64) -> (memref<3xi64>, memref<2xi64>, memref<?xi8>)
    func.return %result#0, %result#1, %result#2 : memref<3xi64>, memref<2xi64>, memref<?xi8>
  }

  func.func @LyLookupError_New(%class_id: i64 {ly.runtime.class_id_argument}) -> (memref<3xi64>, memref<2xi64>, memref<?xi8>) attributes {ly.ownership.owned_results = [0, 1], ly.runtime.class_id = 60 : i64, ly.runtime.contract = "builtins.LookupError", ly.runtime.initializer = "__new__"} {
    %result:3 = func.call @LyBaseException_New(%class_id) : (i64) -> (memref<3xi64>, memref<2xi64>, memref<?xi8>)
    func.return %result#0, %result#1, %result#2 : memref<3xi64>, memref<2xi64>, memref<?xi8>
  }

  func.func @LyZeroDivisionError_New(%class_id: i64 {ly.runtime.class_id_argument}) -> (memref<3xi64>, memref<2xi64>, memref<?xi8>) attributes {ly.ownership.owned_results = [0, 1], ly.runtime.class_id = 61 : i64, ly.runtime.contract = "builtins.ZeroDivisionError", ly.runtime.initializer = "__new__"} {
    %result:3 = func.call @LyBaseException_New(%class_id) : (i64) -> (memref<3xi64>, memref<2xi64>, memref<?xi8>)
    func.return %result#0, %result#1, %result#2 : memref<3xi64>, memref<2xi64>, memref<?xi8>
  }

  func.func @LyKeyError_New(%class_id: i64 {ly.runtime.class_id_argument}) -> (memref<3xi64>, memref<2xi64>, memref<?xi8>) attributes {ly.ownership.owned_results = [0, 1], ly.runtime.class_id = 54 : i64, ly.runtime.contract = "builtins.KeyError", ly.runtime.initializer = "__new__"} {
    %result:3 = func.call @LyBaseException_New(%class_id) : (i64) -> (memref<3xi64>, memref<2xi64>, memref<?xi8>)
    func.return %result#0, %result#1, %result#2 : memref<3xi64>, memref<2xi64>, memref<?xi8>
  }

  func.func @LyIndexError_New(%class_id: i64 {ly.runtime.class_id_argument}) -> (memref<3xi64>, memref<2xi64>, memref<?xi8>) attributes {ly.ownership.owned_results = [0, 1], ly.runtime.class_id = 55 : i64, ly.runtime.contract = "builtins.IndexError", ly.runtime.initializer = "__new__"} {
    %result:3 = func.call @LyBaseException_New(%class_id) : (i64) -> (memref<3xi64>, memref<2xi64>, memref<?xi8>)
    func.return %result#0, %result#1, %result#2 : memref<3xi64>, memref<2xi64>, memref<?xi8>
  }

  func.func @LyAssertionError_New(%class_id: i64 {ly.runtime.class_id_argument}) -> (memref<3xi64>, memref<2xi64>, memref<?xi8>) attributes {ly.ownership.owned_results = [0, 1], ly.runtime.class_id = 56 : i64, ly.runtime.contract = "builtins.AssertionError", ly.runtime.initializer = "__new__"} {
    %result:3 = func.call @LyBaseException_New(%class_id) : (i64) -> (memref<3xi64>, memref<2xi64>, memref<?xi8>)
    func.return %result#0, %result#1, %result#2 : memref<3xi64>, memref<2xi64>, memref<?xi8>
  }

  func.func @LyStopIteration_New(%class_id: i64 {ly.runtime.class_id_argument}) -> (memref<3xi64>, memref<2xi64>, memref<?xi8>) attributes {ly.ownership.owned_results = [0, 1], ly.runtime.class_id = 57 : i64, ly.runtime.contract = "builtins.StopIteration", ly.runtime.initializer = "__new__"} {
    %result:3 = func.call @LyBaseException_New(%class_id) : (i64) -> (memref<3xi64>, memref<2xi64>, memref<?xi8>)
    func.return %result#0, %result#1, %result#2 : memref<3xi64>, memref<2xi64>, memref<?xi8>
  }

  func.func @LyStopAsyncIteration_New(%class_id: i64 {ly.runtime.class_id_argument}) -> (memref<3xi64>, memref<2xi64>, memref<?xi8>) attributes {ly.ownership.owned_results = [0, 1], ly.runtime.class_id = 58 : i64, ly.runtime.contract = "builtins.StopAsyncIteration", ly.runtime.initializer = "__new__"} {
    %result:3 = func.call @LyBaseException_New(%class_id) : (i64) -> (memref<3xi64>, memref<2xi64>, memref<?xi8>)
    func.return %result#0, %result#1, %result#2 : memref<3xi64>, memref<2xi64>, memref<?xi8>
  }

  func.func @LySystemExit_New(%class_id: i64 {ly.runtime.class_id_argument}) -> (memref<3xi64>, memref<2xi64>, memref<?xi8>) attributes {ly.ownership.owned_results = [0, 1], ly.runtime.class_id = 64 : i64, ly.runtime.contract = "builtins.SystemExit", ly.runtime.initializer = "__new__"} {
    %result:3 = func.call @LyBaseException_New(%class_id) : (i64) -> (memref<3xi64>, memref<2xi64>, memref<?xi8>)
    func.return %result#0, %result#1, %result#2 : memref<3xi64>, memref<2xi64>, memref<?xi8>
  }
  func.func @LyGeneratorExit_New(%class_id: i64 {ly.runtime.class_id_argument}) -> (memref<3xi64>, memref<2xi64>, memref<?xi8>) attributes {ly.ownership.owned_results = [0, 1], ly.runtime.class_id = 68 : i64, ly.runtime.contract = "builtins.GeneratorExit", ly.runtime.initializer = "__new__"} {
    %result:3 = func.call @LyBaseException_New(%class_id) : (i64) -> (memref<3xi64>, memref<2xi64>, memref<?xi8>)
    func.return %result#0, %result#1, %result#2 : memref<3xi64>, memref<2xi64>, memref<?xi8>
  }

  func.func @LyOSError_New(%class_id: i64 {ly.runtime.class_id_argument}) -> (memref<3xi64>, memref<2xi64>, memref<?xi8>) attributes {ly.ownership.owned_results = [0, 1], ly.runtime.class_id = 66 : i64, ly.runtime.contract = "builtins.OSError", ly.runtime.initializer = "__new__"} {
    %result:3 = func.call @LyBaseException_New(%class_id) : (i64) -> (memref<3xi64>, memref<2xi64>, memref<?xi8>)
    func.return %result#0, %result#1, %result#2 : memref<3xi64>, memref<2xi64>, memref<?xi8>
  }

  func.func @LyFileNotFoundError_New(%class_id: i64 {ly.runtime.class_id_argument}) -> (memref<3xi64>, memref<2xi64>, memref<?xi8>) attributes {ly.ownership.owned_results = [0, 1], ly.runtime.class_id = 67 : i64, ly.runtime.contract = "builtins.FileNotFoundError", ly.runtime.initializer = "__new__"} {
    %result:3 = func.call @LyBaseException_New(%class_id) : (i64) -> (memref<3xi64>, memref<2xi64>, memref<?xi8>)
    func.return %result#0, %result#1, %result#2 : memref<3xi64>, memref<2xi64>, memref<?xi8>
  }

  func.func @LyCancelledError_New(%class_id: i64 {ly.runtime.class_id_argument}) -> (memref<3xi64>, memref<2xi64>, memref<?xi8>) attributes {ly.ownership.owned_results = [0, 1], ly.runtime.class_id = 62 : i64, ly.runtime.contract = "asyncio.CancelledError", ly.runtime.initializer = "__new__"} {
    %result:3 = func.call @LyBaseException_New(%class_id) : (i64) -> (memref<3xi64>, memref<2xi64>, memref<?xi8>)
    func.return %result#0, %result#1, %result#2 : memref<3xi64>, memref<2xi64>, memref<?xi8>
  }

  memref.global "private" constant @__ly_excname_BaseException : memref<13xi8> = dense<[66, 97, 115, 101, 69, 120, 99, 101, 112, 116, 105, 111, 110]>
  memref.global "private" constant @__ly_excname_Exception : memref<9xi8> = dense<[69, 120, 99, 101, 112, 116, 105, 111, 110]>
  memref.global "private" constant @__ly_excname_RuntimeError : memref<12xi8> = dense<[82, 117, 110, 116, 105, 109, 101, 69, 114, 114, 111, 114]>
  memref.global "private" constant @__ly_excname_TypeError : memref<9xi8> = dense<[84, 121, 112, 101, 69, 114, 114, 111, 114]>
  memref.global "private" constant @__ly_excname_ValueError : memref<10xi8> = dense<[86, 97, 108, 117, 101, 69, 114, 114, 111, 114]>
  memref.global "private" constant @__ly_excname_ArithmeticError : memref<15xi8> = dense<[65, 114, 105, 116, 104, 109, 101, 116, 105, 99, 69, 114, 114, 111, 114]>
  memref.global "private" constant @__ly_excname_LookupError : memref<11xi8> = dense<[76, 111, 111, 107, 117, 112, 69, 114, 114, 111, 114]>
  memref.global "private" constant @__ly_excname_ZeroDivisionError : memref<17xi8> = dense<[90, 101, 114, 111, 68, 105, 118, 105, 115, 105, 111, 110, 69, 114, 114, 111, 114]>
  memref.global "private" constant @__ly_excname_KeyError : memref<8xi8> = dense<[75, 101, 121, 69, 114, 114, 111, 114]>
  memref.global "private" constant @__ly_excname_IndexError : memref<10xi8> = dense<[73, 110, 100, 101, 120, 69, 114, 114, 111, 114]>
  memref.global "private" constant @__ly_excname_AssertionError : memref<14xi8> = dense<[65, 115, 115, 101, 114, 116, 105, 111, 110, 69, 114, 114, 111, 114]>
  memref.global "private" constant @__ly_excname_StopIteration : memref<13xi8> = dense<[83, 116, 111, 112, 73, 116, 101, 114, 97, 116, 105, 111, 110]>
  memref.global "private" constant @__ly_excname_StopAsyncIteration : memref<18xi8> = dense<[83, 116, 111, 112, 65, 115, 121, 110, 99, 73, 116, 101, 114, 97, 116, 105, 111, 110]>
  memref.global "private" constant @__ly_excname_SystemExit : memref<10xi8> = dense<[83, 121, 115, 116, 101, 109, 69, 120, 105, 116]>
  memref.global "private" constant @__ly_excname_GeneratorExit : memref<13xi8> = dense<[71, 101, 110, 101, 114, 97, 116, 111, 114, 69, 120, 105, 116]>
  memref.global "private" constant @__ly_excname_OSError : memref<7xi8> = dense<[79, 83, 69, 114, 114, 111, 114]>
  memref.global "private" constant @__ly_excname_FileNotFoundError : memref<17xi8> = dense<[70, 105, 108, 101, 78, 111, 116, 70, 111, 117, 110, 100, 69, 114, 114, 111, 114]>
  memref.global "private" constant @__ly_excname_CancelledError : memref<14xi8> = dense<[67, 97, 110, 99, 101, 108, 108, 101, 100, 69, 114, 114, 111, 114]>

  // CPython repr(e): ClassName(<repr of the message>) -- ClassName() when
  // the message is empty. A no-argument construction and an explicit empty
  // string are indistinguishable in the 3-word payload, so the empty case
  // renders as ClassName() (the CPython-visible difference is only
  // ClassName('')).
  memref.global "private" constant @__ly_exc_lparen : memref<1xi8> = dense<40>
  memref.global "private" constant @__ly_exc_rparen : memref<1xi8> = dense<41>
  func.func private @__ly_exception_repr(%message_header: memref<2xi64>, %message_bytes: memref<?xi8>, %name: memref<?xi8>, %name_len: i64) -> (memref<2xi64>, memref<?xi8>) attributes {ly.ownership.owned_results = [0]} {
    %c0 = arith.constant 0 : index
    %c1_i64 = arith.constant 1 : i64
    %zero = arith.constant 0 : i64
    %name_h, %name_b = func.call @LyUnicode_FromBytes(%name, %c0, %name_len) : (memref<?xi8>, index, i64) -> (memref<2xi64>, memref<?xi8>)
    %lparen_ref = memref.get_global @__ly_exc_lparen : memref<1xi8>
    %lparen_dyn = memref.cast %lparen_ref : memref<1xi8> to memref<?xi8>
    %lp_h, %lp_b = func.call @LyUnicode_FromBytes(%lparen_dyn, %c0, %c1_i64) : (memref<?xi8>, index, i64) -> (memref<2xi64>, memref<?xi8>)
    %rparen_ref = memref.get_global @__ly_exc_rparen : memref<1xi8>
    %rparen_dyn = memref.cast %rparen_ref : memref<1xi8> to memref<?xi8>
    %rp_h, %rp_b = func.call @LyUnicode_FromBytes(%rparen_dyn, %c0, %c1_i64) : (memref<?xi8>, index, i64) -> (memref<2xi64>, memref<?xi8>)
    %head_h, %head_b = func.call @LyUnicode_Concat(%name_h, %name_b, %lp_h, %lp_b) : (memref<2xi64>, memref<?xi8>, memref<2xi64>, memref<?xi8>) -> (memref<2xi64>, memref<?xi8>)
    func.call @LyUnicode_DecRef(%name_h) : (memref<2xi64>) -> ()
    func.call @LyUnicode_DecRef(%lp_h) : (memref<2xi64>) -> ()
    %msg_len = func.call @__ly_unicode_count(%message_header, %message_bytes) : (memref<2xi64>, memref<?xi8>) -> i64
    %has_message = arith.cmpi sgt, %msg_len, %zero : i64
    // Both branches yield a fresh owned str so the releases stay outside the
    // regions (region-crossing ownership of the head would trip the
    // affine-ownership verifier).
    %quoted:2 = scf.if %has_message -> (memref<2xi64>, memref<?xi8>) {
      %repr_h, %repr_b = func.call @LyUnicode_Repr(%message_header, %message_bytes) : (memref<2xi64>, memref<?xi8>) -> (memref<2xi64>, memref<?xi8>)
      scf.yield %repr_h, %repr_b : memref<2xi64>, memref<?xi8>
    } else {
      %one_w = arith.constant 1 : i64
      %empty_h, %empty_b = func.call @__ly_unicode_alloc(%zero, %one_w) : (i64, i64) -> (memref<2xi64>, memref<?xi8>)
      scf.yield %empty_h, %empty_b : memref<2xi64>, memref<?xi8>
    }
    %body_h, %body_b = func.call @LyUnicode_Concat(%head_h, %head_b, %quoted#0, %quoted#1) : (memref<2xi64>, memref<?xi8>, memref<2xi64>, memref<?xi8>) -> (memref<2xi64>, memref<?xi8>)
    func.call @LyUnicode_DecRef(%head_h) : (memref<2xi64>) -> ()
    func.call @LyUnicode_DecRef(%quoted#0) : (memref<2xi64>) -> ()
    %out_h, %out_b = func.call @LyUnicode_Concat(%body_h, %body_b, %rp_h, %rp_b) : (memref<2xi64>, memref<?xi8>, memref<2xi64>, memref<?xi8>) -> (memref<2xi64>, memref<?xi8>)
    func.call @LyUnicode_DecRef(%body_h) : (memref<2xi64>) -> ()
    func.call @LyUnicode_DecRef(%rp_h) : (memref<2xi64>) -> ()
    func.return %out_h, %out_b : memref<2xi64>, memref<?xi8>
  }

  // BaseException.args: () for an empty message, (message,) otherwise (the
  // payload stores at most one argument).
  func.func @LyBaseException_Args(%header: memref<3xi64> {ly.ownership.object_header}, %message_header: memref<2xi64> {ly.ownership.object_header}, %message_bytes: memref<?xi8>) -> (memref<2xi64>, memref<2xi64>, memref<?xi64>) attributes {ly.ownership.owned_results = [0], ly.runtime.contract = "builtins.BaseException", ly.runtime.primitive = "args", ly.runtime.result_contract = "builtins.tuple", ly.runtime.element_contract = "builtins.str"} {
    %zero = arith.constant 0 : i64
    %one = arith.constant 1 : i64
    %msg_len = func.call @__ly_unicode_count(%message_header, %message_bytes) : (memref<2xi64>, memref<?xi8>) -> i64
    %has_message = arith.cmpi sgt, %msg_len, %zero : i64
    %count = arith.select %has_message, %one, %zero : i64
    %tuple:3 = func.call @LyTuple_FromLength(%count) : (i64) -> (memref<2xi64>, memref<2xi64>, memref<?xi64>)
    scf.if %has_message {
      %retained:2 = func.call @__ly_unicode_retain_self(%message_header, %message_bytes) : (memref<2xi64>, memref<?xi8>) -> (memref<2xi64>, memref<?xi8>)
      func.call @__ly_unicode_store_item(%tuple#2, %zero, %retained#0, %retained#1) : (memref<?xi64>, i64, memref<2xi64>, memref<?xi8>) -> ()
    }
    func.return %tuple#0, %tuple#1, %tuple#2 : memref<2xi64>, memref<2xi64>, memref<?xi64>
  }

  memref.global "private" constant @__ly_excname_KeyboardInterrupt : memref<17xi8> = dense<[75, 101, 121, 98, 111, 97, 114, 100, 73, 110, 116, 101, 114, 114, 117, 112, 116]>
  func.func @LyKeyboardInterrupt_New(%class_id: i64 {ly.runtime.class_id_argument}) -> (memref<3xi64>, memref<2xi64>, memref<?xi8>) attributes {ly.ownership.owned_results = [0, 1], ly.runtime.class_id = 100 : i64, ly.runtime.contract = "builtins.KeyboardInterrupt", ly.runtime.initializer = "__new__"} {
    %result:3 = func.call @LyBaseException_New(%class_id) : (i64) -> (memref<3xi64>, memref<2xi64>, memref<?xi8>)
    func.return %result#0, %result#1, %result#2 : memref<3xi64>, memref<2xi64>, memref<?xi8>
  }

  func.func private @LyKeyboardInterrupt_Raise(%header: memref<3xi64> {ly.ownership.object_header}, %message_header: memref<2xi64> {ly.ownership.object_header}, %message_bytes: memref<?xi8>) attributes {ly.ownership.transfer_args = [0, 1], ly.runtime.contract = "builtins.KeyboardInterrupt", ly.runtime.primitive = "raise"} {
    func.call @LyEH_ThrowException(%header, %message_header, %message_bytes) : (memref<3xi64>, memref<2xi64>, memref<?xi8>) -> ()
    func.return
  }

  func.func @LyKeyboardInterrupt_Str(%header: memref<3xi64> {ly.ownership.object_header}, %message_header: memref<2xi64> {ly.ownership.object_header}, %message_bytes: memref<?xi8>) -> (memref<2xi64>, memref<?xi8>) attributes {ly.ownership.owned_results = [0], ly.runtime.contract = "builtins.KeyboardInterrupt", ly.runtime.method = "__str__", ly.runtime.result_contract = "builtins.str"} {
    %view = memref.cast %message_header : memref<2xi64> to memref<2xi64, strided<[1], offset: ?>>
    func.call @Ly_IncRef(%view) : (memref<2xi64, strided<[1], offset: ?>>) -> ()
    func.return %message_header, %message_bytes : memref<2xi64>, memref<?xi8>
  }

  func.func @LyKeyboardInterrupt_Repr(%header: memref<3xi64> {ly.ownership.object_header}, %message_header: memref<2xi64> {ly.ownership.object_header}, %message_bytes: memref<?xi8>) -> (memref<2xi64>, memref<?xi8>) attributes {ly.ownership.owned_results = [0], ly.runtime.contract = "builtins.KeyboardInterrupt", ly.runtime.method = "__repr__", ly.runtime.result_contract = "builtins.str"} {
    %name_ref = memref.get_global @__ly_excname_KeyboardInterrupt : memref<17xi8>
    %name_dyn = memref.cast %name_ref : memref<17xi8> to memref<?xi8>
    %name_len = arith.constant 17 : i64
    %result:2 = func.call @__ly_exception_repr(%message_header, %message_bytes, %name_dyn, %name_len) : (memref<2xi64>, memref<?xi8>, memref<?xi8>, i64) -> (memref<2xi64>, memref<?xi8>)
    func.return %result#0, %result#1 : memref<2xi64>, memref<?xi8>
  }

  memref.global "private" constant @__ly_excname_BaseExceptionGroup : memref<18xi8> = dense<[66, 97, 115, 101, 69, 120, 99, 101, 112, 116, 105, 111, 110, 71, 114, 111, 117, 112]>
  func.func @LyBaseExceptionGroup_New(%class_id: i64 {ly.runtime.class_id_argument}) -> (memref<3xi64>, memref<2xi64>, memref<?xi8>) attributes {ly.ownership.owned_results = [0, 1], ly.runtime.class_id = 101 : i64, ly.runtime.contract = "builtins.BaseExceptionGroup", ly.runtime.initializer = "__new__"} {
    %result:3 = func.call @LyBaseException_New(%class_id) : (i64) -> (memref<3xi64>, memref<2xi64>, memref<?xi8>)
    func.return %result#0, %result#1, %result#2 : memref<3xi64>, memref<2xi64>, memref<?xi8>
  }

  func.func private @LyBaseExceptionGroup_Raise(%header: memref<3xi64> {ly.ownership.object_header}, %message_header: memref<2xi64> {ly.ownership.object_header}, %message_bytes: memref<?xi8>) attributes {ly.ownership.transfer_args = [0, 1], ly.runtime.contract = "builtins.BaseExceptionGroup", ly.runtime.primitive = "raise"} {
    func.call @LyEH_ThrowException(%header, %message_header, %message_bytes) : (memref<3xi64>, memref<2xi64>, memref<?xi8>) -> ()
    func.return
  }

  func.func @LyBaseExceptionGroup_Str(%header: memref<3xi64> {ly.ownership.object_header}, %message_header: memref<2xi64> {ly.ownership.object_header}, %message_bytes: memref<?xi8>) -> (memref<2xi64>, memref<?xi8>) attributes {ly.ownership.owned_results = [0], ly.runtime.contract = "builtins.BaseExceptionGroup", ly.runtime.method = "__str__", ly.runtime.result_contract = "builtins.str"} {
    %view = memref.cast %message_header : memref<2xi64> to memref<2xi64, strided<[1], offset: ?>>
    func.call @Ly_IncRef(%view) : (memref<2xi64, strided<[1], offset: ?>>) -> ()
    func.return %message_header, %message_bytes : memref<2xi64>, memref<?xi8>
  }

  func.func @LyBaseExceptionGroup_Repr(%header: memref<3xi64> {ly.ownership.object_header}, %message_header: memref<2xi64> {ly.ownership.object_header}, %message_bytes: memref<?xi8>) -> (memref<2xi64>, memref<?xi8>) attributes {ly.ownership.owned_results = [0], ly.runtime.contract = "builtins.BaseExceptionGroup", ly.runtime.method = "__repr__", ly.runtime.result_contract = "builtins.str"} {
    %name_ref = memref.get_global @__ly_excname_BaseExceptionGroup : memref<18xi8>
    %name_dyn = memref.cast %name_ref : memref<18xi8> to memref<?xi8>
    %name_len = arith.constant 18 : i64
    %result:2 = func.call @__ly_exception_repr(%message_header, %message_bytes, %name_dyn, %name_len) : (memref<2xi64>, memref<?xi8>, memref<?xi8>, i64) -> (memref<2xi64>, memref<?xi8>)
    func.return %result#0, %result#1 : memref<2xi64>, memref<?xi8>
  }

  memref.global "private" constant @__ly_excname_ExceptionGroup : memref<14xi8> = dense<[69, 120, 99, 101, 112, 116, 105, 111, 110, 71, 114, 111, 117, 112]>
  func.func @LyExceptionGroup_New(%class_id: i64 {ly.runtime.class_id_argument}) -> (memref<3xi64>, memref<2xi64>, memref<?xi8>) attributes {ly.ownership.owned_results = [0, 1], ly.runtime.class_id = 102 : i64, ly.runtime.contract = "builtins.ExceptionGroup", ly.runtime.initializer = "__new__"} {
    %result:3 = func.call @LyBaseException_New(%class_id) : (i64) -> (memref<3xi64>, memref<2xi64>, memref<?xi8>)
    func.return %result#0, %result#1, %result#2 : memref<3xi64>, memref<2xi64>, memref<?xi8>
  }

  func.func private @LyExceptionGroup_Raise(%header: memref<3xi64> {ly.ownership.object_header}, %message_header: memref<2xi64> {ly.ownership.object_header}, %message_bytes: memref<?xi8>) attributes {ly.ownership.transfer_args = [0, 1], ly.runtime.contract = "builtins.ExceptionGroup", ly.runtime.primitive = "raise"} {
    func.call @LyEH_ThrowException(%header, %message_header, %message_bytes) : (memref<3xi64>, memref<2xi64>, memref<?xi8>) -> ()
    func.return
  }

  func.func @LyExceptionGroup_Str(%header: memref<3xi64> {ly.ownership.object_header}, %message_header: memref<2xi64> {ly.ownership.object_header}, %message_bytes: memref<?xi8>) -> (memref<2xi64>, memref<?xi8>) attributes {ly.ownership.owned_results = [0], ly.runtime.contract = "builtins.ExceptionGroup", ly.runtime.method = "__str__", ly.runtime.result_contract = "builtins.str"} {
    %view = memref.cast %message_header : memref<2xi64> to memref<2xi64, strided<[1], offset: ?>>
    func.call @Ly_IncRef(%view) : (memref<2xi64, strided<[1], offset: ?>>) -> ()
    func.return %message_header, %message_bytes : memref<2xi64>, memref<?xi8>
  }

  func.func @LyExceptionGroup_Repr(%header: memref<3xi64> {ly.ownership.object_header}, %message_header: memref<2xi64> {ly.ownership.object_header}, %message_bytes: memref<?xi8>) -> (memref<2xi64>, memref<?xi8>) attributes {ly.ownership.owned_results = [0], ly.runtime.contract = "builtins.ExceptionGroup", ly.runtime.method = "__repr__", ly.runtime.result_contract = "builtins.str"} {
    %name_ref = memref.get_global @__ly_excname_ExceptionGroup : memref<14xi8>
    %name_dyn = memref.cast %name_ref : memref<14xi8> to memref<?xi8>
    %name_len = arith.constant 14 : i64
    %result:2 = func.call @__ly_exception_repr(%message_header, %message_bytes, %name_dyn, %name_len) : (memref<2xi64>, memref<?xi8>, memref<?xi8>, i64) -> (memref<2xi64>, memref<?xi8>)
    func.return %result#0, %result#1 : memref<2xi64>, memref<?xi8>
  }

  memref.global "private" constant @__ly_excname_FloatingPointError : memref<18xi8> = dense<[70, 108, 111, 97, 116, 105, 110, 103, 80, 111, 105, 110, 116, 69, 114, 114, 111, 114]>
  func.func @LyFloatingPointError_New(%class_id: i64 {ly.runtime.class_id_argument}) -> (memref<3xi64>, memref<2xi64>, memref<?xi8>) attributes {ly.ownership.owned_results = [0, 1], ly.runtime.class_id = 103 : i64, ly.runtime.contract = "builtins.FloatingPointError", ly.runtime.initializer = "__new__"} {
    %result:3 = func.call @LyBaseException_New(%class_id) : (i64) -> (memref<3xi64>, memref<2xi64>, memref<?xi8>)
    func.return %result#0, %result#1, %result#2 : memref<3xi64>, memref<2xi64>, memref<?xi8>
  }

  func.func private @LyFloatingPointError_Raise(%header: memref<3xi64> {ly.ownership.object_header}, %message_header: memref<2xi64> {ly.ownership.object_header}, %message_bytes: memref<?xi8>) attributes {ly.ownership.transfer_args = [0, 1], ly.runtime.contract = "builtins.FloatingPointError", ly.runtime.primitive = "raise"} {
    func.call @LyEH_ThrowException(%header, %message_header, %message_bytes) : (memref<3xi64>, memref<2xi64>, memref<?xi8>) -> ()
    func.return
  }

  func.func @LyFloatingPointError_Str(%header: memref<3xi64> {ly.ownership.object_header}, %message_header: memref<2xi64> {ly.ownership.object_header}, %message_bytes: memref<?xi8>) -> (memref<2xi64>, memref<?xi8>) attributes {ly.ownership.owned_results = [0], ly.runtime.contract = "builtins.FloatingPointError", ly.runtime.method = "__str__", ly.runtime.result_contract = "builtins.str"} {
    %view = memref.cast %message_header : memref<2xi64> to memref<2xi64, strided<[1], offset: ?>>
    func.call @Ly_IncRef(%view) : (memref<2xi64, strided<[1], offset: ?>>) -> ()
    func.return %message_header, %message_bytes : memref<2xi64>, memref<?xi8>
  }

  func.func @LyFloatingPointError_Repr(%header: memref<3xi64> {ly.ownership.object_header}, %message_header: memref<2xi64> {ly.ownership.object_header}, %message_bytes: memref<?xi8>) -> (memref<2xi64>, memref<?xi8>) attributes {ly.ownership.owned_results = [0], ly.runtime.contract = "builtins.FloatingPointError", ly.runtime.method = "__repr__", ly.runtime.result_contract = "builtins.str"} {
    %name_ref = memref.get_global @__ly_excname_FloatingPointError : memref<18xi8>
    %name_dyn = memref.cast %name_ref : memref<18xi8> to memref<?xi8>
    %name_len = arith.constant 18 : i64
    %result:2 = func.call @__ly_exception_repr(%message_header, %message_bytes, %name_dyn, %name_len) : (memref<2xi64>, memref<?xi8>, memref<?xi8>, i64) -> (memref<2xi64>, memref<?xi8>)
    func.return %result#0, %result#1 : memref<2xi64>, memref<?xi8>
  }

  memref.global "private" constant @__ly_excname_OverflowError : memref<13xi8> = dense<[79, 118, 101, 114, 102, 108, 111, 119, 69, 114, 114, 111, 114]>
  func.func @LyOverflowError_New(%class_id: i64 {ly.runtime.class_id_argument}) -> (memref<3xi64>, memref<2xi64>, memref<?xi8>) attributes {ly.ownership.owned_results = [0, 1], ly.runtime.class_id = 104 : i64, ly.runtime.contract = "builtins.OverflowError", ly.runtime.initializer = "__new__"} {
    %result:3 = func.call @LyBaseException_New(%class_id) : (i64) -> (memref<3xi64>, memref<2xi64>, memref<?xi8>)
    func.return %result#0, %result#1, %result#2 : memref<3xi64>, memref<2xi64>, memref<?xi8>
  }

  func.func private @LyOverflowError_Raise(%header: memref<3xi64> {ly.ownership.object_header}, %message_header: memref<2xi64> {ly.ownership.object_header}, %message_bytes: memref<?xi8>) attributes {ly.ownership.transfer_args = [0, 1], ly.runtime.contract = "builtins.OverflowError", ly.runtime.primitive = "raise"} {
    func.call @LyEH_ThrowException(%header, %message_header, %message_bytes) : (memref<3xi64>, memref<2xi64>, memref<?xi8>) -> ()
    func.return
  }

  func.func @LyOverflowError_Str(%header: memref<3xi64> {ly.ownership.object_header}, %message_header: memref<2xi64> {ly.ownership.object_header}, %message_bytes: memref<?xi8>) -> (memref<2xi64>, memref<?xi8>) attributes {ly.ownership.owned_results = [0], ly.runtime.contract = "builtins.OverflowError", ly.runtime.method = "__str__", ly.runtime.result_contract = "builtins.str"} {
    %view = memref.cast %message_header : memref<2xi64> to memref<2xi64, strided<[1], offset: ?>>
    func.call @Ly_IncRef(%view) : (memref<2xi64, strided<[1], offset: ?>>) -> ()
    func.return %message_header, %message_bytes : memref<2xi64>, memref<?xi8>
  }

  func.func @LyOverflowError_Repr(%header: memref<3xi64> {ly.ownership.object_header}, %message_header: memref<2xi64> {ly.ownership.object_header}, %message_bytes: memref<?xi8>) -> (memref<2xi64>, memref<?xi8>) attributes {ly.ownership.owned_results = [0], ly.runtime.contract = "builtins.OverflowError", ly.runtime.method = "__repr__", ly.runtime.result_contract = "builtins.str"} {
    %name_ref = memref.get_global @__ly_excname_OverflowError : memref<13xi8>
    %name_dyn = memref.cast %name_ref : memref<13xi8> to memref<?xi8>
    %name_len = arith.constant 13 : i64
    %result:2 = func.call @__ly_exception_repr(%message_header, %message_bytes, %name_dyn, %name_len) : (memref<2xi64>, memref<?xi8>, memref<?xi8>, i64) -> (memref<2xi64>, memref<?xi8>)
    func.return %result#0, %result#1 : memref<2xi64>, memref<?xi8>
  }

  memref.global "private" constant @__ly_excname_BufferError : memref<11xi8> = dense<[66, 117, 102, 102, 101, 114, 69, 114, 114, 111, 114]>
  func.func @LyBufferError_New(%class_id: i64 {ly.runtime.class_id_argument}) -> (memref<3xi64>, memref<2xi64>, memref<?xi8>) attributes {ly.ownership.owned_results = [0, 1], ly.runtime.class_id = 105 : i64, ly.runtime.contract = "builtins.BufferError", ly.runtime.initializer = "__new__"} {
    %result:3 = func.call @LyBaseException_New(%class_id) : (i64) -> (memref<3xi64>, memref<2xi64>, memref<?xi8>)
    func.return %result#0, %result#1, %result#2 : memref<3xi64>, memref<2xi64>, memref<?xi8>
  }

  func.func private @LyBufferError_Raise(%header: memref<3xi64> {ly.ownership.object_header}, %message_header: memref<2xi64> {ly.ownership.object_header}, %message_bytes: memref<?xi8>) attributes {ly.ownership.transfer_args = [0, 1], ly.runtime.contract = "builtins.BufferError", ly.runtime.primitive = "raise"} {
    func.call @LyEH_ThrowException(%header, %message_header, %message_bytes) : (memref<3xi64>, memref<2xi64>, memref<?xi8>) -> ()
    func.return
  }

  func.func @LyBufferError_Str(%header: memref<3xi64> {ly.ownership.object_header}, %message_header: memref<2xi64> {ly.ownership.object_header}, %message_bytes: memref<?xi8>) -> (memref<2xi64>, memref<?xi8>) attributes {ly.ownership.owned_results = [0], ly.runtime.contract = "builtins.BufferError", ly.runtime.method = "__str__", ly.runtime.result_contract = "builtins.str"} {
    %view = memref.cast %message_header : memref<2xi64> to memref<2xi64, strided<[1], offset: ?>>
    func.call @Ly_IncRef(%view) : (memref<2xi64, strided<[1], offset: ?>>) -> ()
    func.return %message_header, %message_bytes : memref<2xi64>, memref<?xi8>
  }

  func.func @LyBufferError_Repr(%header: memref<3xi64> {ly.ownership.object_header}, %message_header: memref<2xi64> {ly.ownership.object_header}, %message_bytes: memref<?xi8>) -> (memref<2xi64>, memref<?xi8>) attributes {ly.ownership.owned_results = [0], ly.runtime.contract = "builtins.BufferError", ly.runtime.method = "__repr__", ly.runtime.result_contract = "builtins.str"} {
    %name_ref = memref.get_global @__ly_excname_BufferError : memref<11xi8>
    %name_dyn = memref.cast %name_ref : memref<11xi8> to memref<?xi8>
    %name_len = arith.constant 11 : i64
    %result:2 = func.call @__ly_exception_repr(%message_header, %message_bytes, %name_dyn, %name_len) : (memref<2xi64>, memref<?xi8>, memref<?xi8>, i64) -> (memref<2xi64>, memref<?xi8>)
    func.return %result#0, %result#1 : memref<2xi64>, memref<?xi8>
  }

  memref.global "private" constant @__ly_excname_EOFError : memref<8xi8> = dense<[69, 79, 70, 69, 114, 114, 111, 114]>
  func.func @LyEOFError_New(%class_id: i64 {ly.runtime.class_id_argument}) -> (memref<3xi64>, memref<2xi64>, memref<?xi8>) attributes {ly.ownership.owned_results = [0, 1], ly.runtime.class_id = 106 : i64, ly.runtime.contract = "builtins.EOFError", ly.runtime.initializer = "__new__"} {
    %result:3 = func.call @LyBaseException_New(%class_id) : (i64) -> (memref<3xi64>, memref<2xi64>, memref<?xi8>)
    func.return %result#0, %result#1, %result#2 : memref<3xi64>, memref<2xi64>, memref<?xi8>
  }

  func.func private @LyEOFError_Raise(%header: memref<3xi64> {ly.ownership.object_header}, %message_header: memref<2xi64> {ly.ownership.object_header}, %message_bytes: memref<?xi8>) attributes {ly.ownership.transfer_args = [0, 1], ly.runtime.contract = "builtins.EOFError", ly.runtime.primitive = "raise"} {
    func.call @LyEH_ThrowException(%header, %message_header, %message_bytes) : (memref<3xi64>, memref<2xi64>, memref<?xi8>) -> ()
    func.return
  }

  func.func @LyEOFError_Str(%header: memref<3xi64> {ly.ownership.object_header}, %message_header: memref<2xi64> {ly.ownership.object_header}, %message_bytes: memref<?xi8>) -> (memref<2xi64>, memref<?xi8>) attributes {ly.ownership.owned_results = [0], ly.runtime.contract = "builtins.EOFError", ly.runtime.method = "__str__", ly.runtime.result_contract = "builtins.str"} {
    %view = memref.cast %message_header : memref<2xi64> to memref<2xi64, strided<[1], offset: ?>>
    func.call @Ly_IncRef(%view) : (memref<2xi64, strided<[1], offset: ?>>) -> ()
    func.return %message_header, %message_bytes : memref<2xi64>, memref<?xi8>
  }

  func.func @LyEOFError_Repr(%header: memref<3xi64> {ly.ownership.object_header}, %message_header: memref<2xi64> {ly.ownership.object_header}, %message_bytes: memref<?xi8>) -> (memref<2xi64>, memref<?xi8>) attributes {ly.ownership.owned_results = [0], ly.runtime.contract = "builtins.EOFError", ly.runtime.method = "__repr__", ly.runtime.result_contract = "builtins.str"} {
    %name_ref = memref.get_global @__ly_excname_EOFError : memref<8xi8>
    %name_dyn = memref.cast %name_ref : memref<8xi8> to memref<?xi8>
    %name_len = arith.constant 8 : i64
    %result:2 = func.call @__ly_exception_repr(%message_header, %message_bytes, %name_dyn, %name_len) : (memref<2xi64>, memref<?xi8>, memref<?xi8>, i64) -> (memref<2xi64>, memref<?xi8>)
    func.return %result#0, %result#1 : memref<2xi64>, memref<?xi8>
  }

  memref.global "private" constant @__ly_excname_ImportError : memref<11xi8> = dense<[73, 109, 112, 111, 114, 116, 69, 114, 114, 111, 114]>
  func.func @LyImportError_New(%class_id: i64 {ly.runtime.class_id_argument}) -> (memref<3xi64>, memref<2xi64>, memref<?xi8>) attributes {ly.ownership.owned_results = [0, 1], ly.runtime.class_id = 107 : i64, ly.runtime.contract = "builtins.ImportError", ly.runtime.initializer = "__new__"} {
    %result:3 = func.call @LyBaseException_New(%class_id) : (i64) -> (memref<3xi64>, memref<2xi64>, memref<?xi8>)
    func.return %result#0, %result#1, %result#2 : memref<3xi64>, memref<2xi64>, memref<?xi8>
  }

  func.func private @LyImportError_Raise(%header: memref<3xi64> {ly.ownership.object_header}, %message_header: memref<2xi64> {ly.ownership.object_header}, %message_bytes: memref<?xi8>) attributes {ly.ownership.transfer_args = [0, 1], ly.runtime.contract = "builtins.ImportError", ly.runtime.primitive = "raise"} {
    func.call @LyEH_ThrowException(%header, %message_header, %message_bytes) : (memref<3xi64>, memref<2xi64>, memref<?xi8>) -> ()
    func.return
  }

  func.func @LyImportError_Str(%header: memref<3xi64> {ly.ownership.object_header}, %message_header: memref<2xi64> {ly.ownership.object_header}, %message_bytes: memref<?xi8>) -> (memref<2xi64>, memref<?xi8>) attributes {ly.ownership.owned_results = [0], ly.runtime.contract = "builtins.ImportError", ly.runtime.method = "__str__", ly.runtime.result_contract = "builtins.str"} {
    %view = memref.cast %message_header : memref<2xi64> to memref<2xi64, strided<[1], offset: ?>>
    func.call @Ly_IncRef(%view) : (memref<2xi64, strided<[1], offset: ?>>) -> ()
    func.return %message_header, %message_bytes : memref<2xi64>, memref<?xi8>
  }

  func.func @LyImportError_Repr(%header: memref<3xi64> {ly.ownership.object_header}, %message_header: memref<2xi64> {ly.ownership.object_header}, %message_bytes: memref<?xi8>) -> (memref<2xi64>, memref<?xi8>) attributes {ly.ownership.owned_results = [0], ly.runtime.contract = "builtins.ImportError", ly.runtime.method = "__repr__", ly.runtime.result_contract = "builtins.str"} {
    %name_ref = memref.get_global @__ly_excname_ImportError : memref<11xi8>
    %name_dyn = memref.cast %name_ref : memref<11xi8> to memref<?xi8>
    %name_len = arith.constant 11 : i64
    %result:2 = func.call @__ly_exception_repr(%message_header, %message_bytes, %name_dyn, %name_len) : (memref<2xi64>, memref<?xi8>, memref<?xi8>, i64) -> (memref<2xi64>, memref<?xi8>)
    func.return %result#0, %result#1 : memref<2xi64>, memref<?xi8>
  }

  memref.global "private" constant @__ly_excname_ModuleNotFoundError : memref<19xi8> = dense<[77, 111, 100, 117, 108, 101, 78, 111, 116, 70, 111, 117, 110, 100, 69, 114, 114, 111, 114]>
  func.func @LyModuleNotFoundError_New(%class_id: i64 {ly.runtime.class_id_argument}) -> (memref<3xi64>, memref<2xi64>, memref<?xi8>) attributes {ly.ownership.owned_results = [0, 1], ly.runtime.class_id = 108 : i64, ly.runtime.contract = "builtins.ModuleNotFoundError", ly.runtime.initializer = "__new__"} {
    %result:3 = func.call @LyBaseException_New(%class_id) : (i64) -> (memref<3xi64>, memref<2xi64>, memref<?xi8>)
    func.return %result#0, %result#1, %result#2 : memref<3xi64>, memref<2xi64>, memref<?xi8>
  }

  func.func private @LyModuleNotFoundError_Raise(%header: memref<3xi64> {ly.ownership.object_header}, %message_header: memref<2xi64> {ly.ownership.object_header}, %message_bytes: memref<?xi8>) attributes {ly.ownership.transfer_args = [0, 1], ly.runtime.contract = "builtins.ModuleNotFoundError", ly.runtime.primitive = "raise"} {
    func.call @LyEH_ThrowException(%header, %message_header, %message_bytes) : (memref<3xi64>, memref<2xi64>, memref<?xi8>) -> ()
    func.return
  }

  func.func @LyModuleNotFoundError_Str(%header: memref<3xi64> {ly.ownership.object_header}, %message_header: memref<2xi64> {ly.ownership.object_header}, %message_bytes: memref<?xi8>) -> (memref<2xi64>, memref<?xi8>) attributes {ly.ownership.owned_results = [0], ly.runtime.contract = "builtins.ModuleNotFoundError", ly.runtime.method = "__str__", ly.runtime.result_contract = "builtins.str"} {
    %view = memref.cast %message_header : memref<2xi64> to memref<2xi64, strided<[1], offset: ?>>
    func.call @Ly_IncRef(%view) : (memref<2xi64, strided<[1], offset: ?>>) -> ()
    func.return %message_header, %message_bytes : memref<2xi64>, memref<?xi8>
  }

  func.func @LyModuleNotFoundError_Repr(%header: memref<3xi64> {ly.ownership.object_header}, %message_header: memref<2xi64> {ly.ownership.object_header}, %message_bytes: memref<?xi8>) -> (memref<2xi64>, memref<?xi8>) attributes {ly.ownership.owned_results = [0], ly.runtime.contract = "builtins.ModuleNotFoundError", ly.runtime.method = "__repr__", ly.runtime.result_contract = "builtins.str"} {
    %name_ref = memref.get_global @__ly_excname_ModuleNotFoundError : memref<19xi8>
    %name_dyn = memref.cast %name_ref : memref<19xi8> to memref<?xi8>
    %name_len = arith.constant 19 : i64
    %result:2 = func.call @__ly_exception_repr(%message_header, %message_bytes, %name_dyn, %name_len) : (memref<2xi64>, memref<?xi8>, memref<?xi8>, i64) -> (memref<2xi64>, memref<?xi8>)
    func.return %result#0, %result#1 : memref<2xi64>, memref<?xi8>
  }

  memref.global "private" constant @__ly_excname_MemoryError : memref<11xi8> = dense<[77, 101, 109, 111, 114, 121, 69, 114, 114, 111, 114]>
  func.func @LyMemoryError_New(%class_id: i64 {ly.runtime.class_id_argument}) -> (memref<3xi64>, memref<2xi64>, memref<?xi8>) attributes {ly.ownership.owned_results = [0, 1], ly.runtime.class_id = 109 : i64, ly.runtime.contract = "builtins.MemoryError", ly.runtime.initializer = "__new__"} {
    %result:3 = func.call @LyBaseException_New(%class_id) : (i64) -> (memref<3xi64>, memref<2xi64>, memref<?xi8>)
    func.return %result#0, %result#1, %result#2 : memref<3xi64>, memref<2xi64>, memref<?xi8>
  }

  func.func private @LyMemoryError_Raise(%header: memref<3xi64> {ly.ownership.object_header}, %message_header: memref<2xi64> {ly.ownership.object_header}, %message_bytes: memref<?xi8>) attributes {ly.ownership.transfer_args = [0, 1], ly.runtime.contract = "builtins.MemoryError", ly.runtime.primitive = "raise"} {
    func.call @LyEH_ThrowException(%header, %message_header, %message_bytes) : (memref<3xi64>, memref<2xi64>, memref<?xi8>) -> ()
    func.return
  }

  func.func @LyMemoryError_Str(%header: memref<3xi64> {ly.ownership.object_header}, %message_header: memref<2xi64> {ly.ownership.object_header}, %message_bytes: memref<?xi8>) -> (memref<2xi64>, memref<?xi8>) attributes {ly.ownership.owned_results = [0], ly.runtime.contract = "builtins.MemoryError", ly.runtime.method = "__str__", ly.runtime.result_contract = "builtins.str"} {
    %view = memref.cast %message_header : memref<2xi64> to memref<2xi64, strided<[1], offset: ?>>
    func.call @Ly_IncRef(%view) : (memref<2xi64, strided<[1], offset: ?>>) -> ()
    func.return %message_header, %message_bytes : memref<2xi64>, memref<?xi8>
  }

  func.func @LyMemoryError_Repr(%header: memref<3xi64> {ly.ownership.object_header}, %message_header: memref<2xi64> {ly.ownership.object_header}, %message_bytes: memref<?xi8>) -> (memref<2xi64>, memref<?xi8>) attributes {ly.ownership.owned_results = [0], ly.runtime.contract = "builtins.MemoryError", ly.runtime.method = "__repr__", ly.runtime.result_contract = "builtins.str"} {
    %name_ref = memref.get_global @__ly_excname_MemoryError : memref<11xi8>
    %name_dyn = memref.cast %name_ref : memref<11xi8> to memref<?xi8>
    %name_len = arith.constant 11 : i64
    %result:2 = func.call @__ly_exception_repr(%message_header, %message_bytes, %name_dyn, %name_len) : (memref<2xi64>, memref<?xi8>, memref<?xi8>, i64) -> (memref<2xi64>, memref<?xi8>)
    func.return %result#0, %result#1 : memref<2xi64>, memref<?xi8>
  }

  memref.global "private" constant @__ly_excname_NameError : memref<9xi8> = dense<[78, 97, 109, 101, 69, 114, 114, 111, 114]>
…
      %kl_index_i64 = arith.addi %base, %c10_i64 : i64
      %kp_index = arith.index_cast %kp_index_i64 : i64 to index
      %kl_index = arith.index_cast %kl_index_i64 : i64 to index
      %kp = memref.load %keys[%kp_index] : memref<?xi64>
      %kl = memref.load %keys[%kl_index] : memref<?xi64>
      %eq = func.call @raw_bytes_equal(%kp, %kl, %key_ptr, %key_len) : (i64, i64, i64, i64) -> i1
      %not_yet = arith.cmpi eq, %acc, %minus_one : i64
      %take = arith.andi %eq, %not_yet : i1
      %next = arith.select %take, %ii, %acc : i1, i64
      scf.yield %next : i64
    }
    func.return %found : i64
  }

  // `key in d` for runtime dicts (str keys): a present slot with equal bytes.
  func.func @LyDict_Contains(%header: memref<2xi64> {ly.ownership.object_header}, %meta: memref<2xi64>, %keys: memref<?xi64>, %values: memref<?xi64>, %present: memref<?xi64>, %key_header: memref<2xi64> {ly.ownership.object_header}, %key_bytes: memref<?xi8>) -> i1 attributes {ly.runtime.contract = "builtins.dict", ly.runtime.method = "__contains__", ly.runtime.result_contract = "builtins.bool"} {
    %c0 = arith.constant 0 : index
    %c0_i64 = arith.constant 0 : i64
    %ptr_index = memref.extract_aligned_pointer_as_index %key_bytes : memref<?xi8> -> index
    %ptr = arith.index_cast %ptr_index : index to i64
    %dim = memref.dim %key_bytes, %c0 : memref<?xi8>
    %len = arith.index_cast %dim : index to i64
    %slot = func.call @LyDict_FindSlot(%header, %meta, %keys, %values, %present, %ptr, %len) : (memref<2xi64>, memref<2xi64>, memref<?xi64>, memref<?xi64>, memref<?xi64>, i64, i64) -> i64
    %found = arith.cmpi sge, %slot, %c0_i64 : i64
    func.return %found : i1
  }

  // Runtime dict insert/replace with a boxed str key and boxed value. The
  // caller retained both boxes; on key replacement the duplicate key box is
  // consumed here. Slots 0..len-1 are always present (no deletion surface).
  func.func @LyDict_SetItemBox(%header: memref<2xi64> {ly.ownership.object_header}, %meta: memref<2xi64>, %keys: memref<?xi64>, %values: memref<?xi64>, %present: memref<?xi64>, %key_box: memref<16xi64>, %value_box: memref<16xi64>) -> (memref<2xi64>, memref<2xi64>, memref<?xi64>, memref<?xi64>, memref<?xi64>) attributes {ly.ownership.transfer_args = [0], ly.ownership.owned_results = [0], ly.runtime.contract = "builtins.dict", ly.runtime.primitive = "setitem_box"} {
    %zero = arith.constant 0 : i64
    %one = arith.constant 1 : i64
    %minus_one = arith.constant -1 : i64
    %handle_words = arith.constant 16 : i64
    %length_slot = arith.constant 0 : index
    %c0 = arith.constant 0 : index
    %c1 = arith.constant 1 : index
    %c5 = arith.constant 5 : index
    %c10 = arith.constant 10 : index

    %len = memref.load %meta[%length_slot] : memref<2xi64>
    %new_ptr = memref.load %key_box[%c5] : memref<16xi64>
    %new_len = memref.load %key_box[%c10] : memref<16xi64>

    %found = func.call @LyDict_FindSlot(%header, %meta, %keys, %values, %present, %new_ptr, %new_len) : (memref<2xi64>, memref<2xi64>, memref<?xi64>, memref<?xi64>, memref<?xi64>, i64, i64) -> i64

    %missing = arith.cmpi eq, %found, %minus_one : i64
    %out:5 = scf.if %missing -> (memref<2xi64>, memref<2xi64>, memref<?xi64>, memref<?xi64>, memref<?xi64>) {
      // Insert at slot len (all lower slots occupied).
      %required = arith.addi %len, %one : i64
      %grown:5 = func.call @LyDict_EnsureCapacity(%header, %meta, %keys, %values, %present, %required) : (memref<2xi64>, memref<2xi64>, memref<?xi64>, memref<?xi64>, memref<?xi64>, i64) -> (memref<2xi64>, memref<2xi64>, memref<?xi64>, memref<?xi64>, memref<?xi64>)
      %slot_base_i64 = arith.muli %len, %handle_words : i64
      %c16 = arith.constant 16 : index
      %slot_base = arith.index_cast %slot_base_i64 : i64 to index
      scf.for %w = %c0 to %c16 step %c1 {
        %kw = memref.load %key_box[%w] : memref<16xi64>
        %vw = memref.load %value_box[%w] : memref<16xi64>
        %dst = arith.addi %slot_base, %w : index
        memref.store %kw, %grown#2[%dst] : memref<?xi64>
        memref.store %vw, %grown#3[%dst] : memref<?xi64>
      }
      %len_slot_index = arith.index_cast %len : i64 to index
      memref.store %one, %grown#4[%len_slot_index] : memref<?xi64>
      memref.store %required, %grown#1[%length_slot] : memref<2xi64>
      scf.yield %grown#0, %grown#1, %grown#2, %grown#3, %grown#4 : memref<2xi64>, memref<2xi64>, memref<?xi64>, memref<?xi64>, memref<?xi64>
    } else {
      // Replace: release the old value and the duplicate new key box.
      func.call @LyObject_ReleaseBoxedPayloadArraySlotRaw(%values, %found) : (memref<?xi64>, i64) -> ()
      func.call @LyObject_ReleaseBoxedPayloadRaw(%key_box) : (memref<16xi64>) -> ()
      %slot_base_i64 = arith.muli %found, %handle_words : i64
      %c16 = arith.constant 16 : index
      %slot_base = arith.index_cast %slot_base_i64 : i64 to index
      scf.for %w = %c0 to %c16 step %c1 {
        %vw = memref.load %value_box[%w] : memref<16xi64>
        %dst = arith.addi %slot_base, %w : index
        memref.store %vw, %values[%dst] : memref<?xi64>
      }
      scf.yield %header, %meta, %keys, %values, %present : memref<2xi64>, memref<2xi64>, memref<?xi64>, memref<?xi64>, memref<?xi64>
    }
    func.return %out#0, %out#1, %out#2, %out#3, %out#4 : memref<2xi64>, memref<2xi64>, memref<?xi64>, memref<?xi64>, memref<?xi64>
  }

  func.func @LyList_DecRef(%header: memref<2xi64> {ly.ownership.object_header}, %meta: memref<2xi64>, %items: memref<?xi64>) attributes {ly.ownership.release_args = [0], ly.runtime.contract = "builtins.list", ly.runtime.deallocator} {
    %storage = memref.cast %header : memref<2xi64> to memref<?xi64>
    %became_zero = func.call @LyObject_ReleaseStorageToZero(%storage) : (memref<?xi64>) -> i1
    cf.cond_br %became_zero, ^dealloc, ^done

  ^dealloc:
    %length_slot = arith.constant 0 : index
    %lower = arith.constant 0 : index
    %step = arith.constant 1 : index
    %length = memref.load %meta[%length_slot] : memref<2xi64>
    %length_index = arith.index_cast %length : i64 to index
    scf.for %i = %lower to %length_index step %step {
      %logical_index = arith.index_cast %i : index to i64
      func.call @LyObject_ReleaseBoxedPayloadArraySlotRaw(%items, %logical_index) : (memref<?xi64>, i64) -> ()
    }
    memref.dealloc %items : memref<?xi64>
    memref.dealloc %header : memref<2xi64>
    cf.br ^done

  ^done:
    func.return
  }

  // Uniform per-element repr dispatch, generated per program by the lowering
  // (class id -> the manifest __repr__); resolved at link. Returns an owned str
  // (header, bytes) plus a handled flag.
  func.func private @__ly_repr_boxed_by_contract(%box: !llvm.ptr, %class_id: i64) -> (memref<2xi64>, memref<?xi8>, i1) attributes {ly.ownership.owned_results = [0]}

  memref.global "private" constant @__ly_repr_lbracket : memref<1xi8> = dense<91>
  memref.global "private" constant @__ly_repr_rbracket : memref<1xi8> = dense<93>
  memref.global "private" constant @__ly_repr_comma : memref<2xi8> = dense<[44, 32]>
  memref.global "private" constant @__ly_repr_lparen : memref<1xi8> = dense<40>
  memref.global "private" constant @__ly_repr_rparen : memref<1xi8> = dense<41>
  memref.global "private" constant @__ly_repr_lbrace : memref<1xi8> = dense<123>
  memref.global "private" constant @__ly_repr_rbrace : memref<1xi8> = dense<125>
  memref.global "private" constant @__ly_repr_colon : memref<2xi8> = dense<[58, 32]>

  // list.__repr__: `[e0, e1, ...]`, each element repr'd through the uniform
  // boxed-method hook. Intermediate strs are released explicitly (Concat
  // borrows its operands).
  func.func @LyList_Repr(%header: memref<2xi64> {ly.ownership.object_header}, %meta: memref<2xi64>, %items: memref<?xi64>) -> (memref<2xi64>, memref<?xi8>) attributes {ly.ownership.owned_results = [0], ly.runtime.contract = "builtins.list", ly.runtime.method = "__repr__", ly.runtime.result_contract = "builtins.str"} {
    %c0 = arith.constant 0 : index
    %c1 = arith.constant 1 : index
    %c0_i64 = arith.constant 0 : i64
    %c1_i64 = arith.constant 1 : i64
    %c2_i64 = arith.constant 2 : i64
    %c16_i64 = arith.constant 16 : i64
    %len = memref.load %meta[%c0] : memref<2xi64>
    %len_idx = arith.index_cast %len : i64 to index
    %items_idx = memref.extract_aligned_pointer_as_index %items : memref<?xi64> -> index
    %items_i64 = arith.index_cast %items_idx : index to i64
    %items_ptr = llvm.inttoptr %items_i64 : i64 to !llvm.ptr

    %open_ref = memref.get_global @__ly_repr_lbracket : memref<1xi8>
    %open_dyn = memref.cast %open_ref : memref<1xi8> to memref<?xi8>
    %r0_h, %r0_b = func.call @LyUnicode_FromBytes(%open_dyn, %c0, %c1_i64) : (memref<?xi8>, index, i64) -> (memref<2xi64>, memref<?xi8>)

    %loop:2 = scf.for %i = %c0 to %len_idx step %c1 iter_args(%rh = %r0_h, %rb = %r0_b) -> (memref<2xi64>, memref<?xi8>) {
      %i_i64 = arith.index_cast %i : index to i64
      %is_pos = arith.cmpi sgt, %i_i64, %c0_i64 : i64
      %sep:2 = scf.if %is_pos -> (memref<2xi64>, memref<?xi8>) {
        %sep_ref = memref.get_global @__ly_repr_comma : memref<2xi8>
        %sep_dyn = memref.cast %sep_ref : memref<2xi8> to memref<?xi8>
        %sh, %sb = func.call @LyUnicode_FromBytes(%sep_dyn, %c0, %c2_i64) : (memref<?xi8>, index, i64) -> (memref<2xi64>, memref<?xi8>)
        %ch, %cb = func.call @LyUnicode_Concat(%rh, %rb, %sh, %sb) : (memref<2xi64>, memref<?xi8>, memref<2xi64>, memref<?xi8>) -> (memref<2xi64>, memref<?xi8>)
        func.call @LyUnicode_DecRef(%rh) : (memref<2xi64>) -> ()
        func.call @LyUnicode_DecRef(%sh) : (memref<2xi64>) -> ()
        scf.yield %ch, %cb : memref<2xi64>, memref<?xi8>
      } else {
        scf.yield %rh, %rb : memref<2xi64>, memref<?xi8>
      }
      %off = arith.muli %i_i64, %c16_i64 : i64
      %box_ptr = llvm.getelementptr %items_ptr[%off] : (!llvm.ptr, i64) -> !llvm.ptr, i64
      %class_gep = llvm.getelementptr %box_ptr[%c1_i64] : (!llvm.ptr, i64) -> !llvm.ptr, i64
      %class_id = llvm.load %class_gep : !llvm.ptr -> i64
      %erh, %erb, %ok = func.call @__ly_repr_boxed_by_contract(%box_ptr, %class_id) : (!llvm.ptr, i64) -> (memref<2xi64>, memref<?xi8>, i1)
      cf.assert %ok, "repr: boxed element has no conforming __repr__"
      %nh, %nb = func.call @LyUnicode_Concat(%sep#0, %sep#1, %erh, %erb) : (memref<2xi64>, memref<?xi8>, memref<2xi64>, memref<?xi8>) -> (memref<2xi64>, memref<?xi8>)
      func.call @LyUnicode_DecRef(%sep#0) : (memref<2xi64>) -> ()
      func.call @LyUnicode_DecRef(%erh) : (memref<2xi64>) -> ()
      scf.yield %nh, %nb : memref<2xi64>, memref<?xi8>
    }

    %close_ref = memref.get_global @__ly_repr_rbracket : memref<1xi8>
    %close_dyn = memref.cast %close_ref : memref<1xi8> to memref<?xi8>
    %clh, %clb = func.call @LyUnicode_FromBytes(%close_dyn, %c0, %c1_i64) : (memref<?xi8>, index, i64) -> (memref<2xi64>, memref<?xi8>)
    %out_h, %out_b = func.call @LyUnicode_Concat(%loop#0, %loop#1, %clh, %clb) : (memref<2xi64>, memref<?xi8>, memref<2xi64>, memref<?xi8>) -> (memref<2xi64>, memref<?xi8>)
    func.call @LyUnicode_DecRef(%loop#0) : (memref<2xi64>) -> ()
    func.call @LyUnicode_DecRef(%clh) : (memref<2xi64>) -> ()
    func.return %out_h, %out_b : memref<2xi64>, memref<?xi8>
  }

  // tuple.__repr__: `(e0, e1, ...)`; a single element gets a trailing comma
  // (`(1,)`), matching CPython. Same uniform element dispatch as LyList_Repr.
  func.func @LyTuple_Repr(%header: memref<2xi64> {ly.ownership.object_header}, %meta: memref<2xi64>, %items: memref<?xi64>) -> (memref<2xi64>, memref<?xi8>) attributes {ly.ownership.owned_results = [0], ly.runtime.contract = "builtins.tuple", ly.runtime.method = "__repr__", ly.runtime.result_contract = "builtins.str"} {
    %c0 = arith.constant 0 : index
    %c1 = arith.constant 1 : index
    %c0_i64 = arith.constant 0 : i64
    %c1_i64 = arith.constant 1 : i64
    %c2_i64 = arith.constant 2 : i64
    %c16_i64 = arith.constant 16 : i64
    %len = memref.load %meta[%c0] : memref<2xi64>
    %len_idx = arith.index_cast %len : i64 to index
    %items_idx = memref.extract_aligned_pointer_as_index %items : memref<?xi64> -> index
    %items_i64 = arith.index_cast %items_idx : index to i64
    %items_ptr = llvm.inttoptr %items_i64 : i64 to !llvm.ptr

    %open_ref = memref.get_global @__ly_repr_lparen : memref<1xi8>
    %open_dyn = memref.cast %open_ref : memref<1xi8> to memref<?xi8>
    %r0_h, %r0_b = func.call @LyUnicode_FromBytes(%open_dyn, %c0, %c1_i64) : (memref<?xi8>, index, i64) -> (memref<2xi64>, memref<?xi8>)

    %loop:2 = scf.for %i = %c0 to %len_idx step %c1 iter_args(%rh = %r0_h, %rb = %r0_b) -> (memref<2xi64>, memref<?xi8>) {
      %i_i64 = arith.index_cast %i : index to i64
      %is_pos = arith.cmpi sgt, %i_i64, %c0_i64 : i64
      %sep:2 = scf.if %is_pos -> (memref<2xi64>, memref<?xi8>) {
        %sep_ref = memref.get_global @__ly_repr_comma : memref<2xi8>
        %sep_dyn = memref.cast %sep_ref : memref<2xi8> to memref<?xi8>
        %sh, %sb = func.call @LyUnicode_FromBytes(%sep_dyn, %c0, %c2_i64) : (memref<?xi8>, index, i64) -> (memref<2xi64>, memref<?xi8>)
        %ch, %cb = func.call @LyUnicode_Concat(%rh, %rb, %sh, %sb) : (memref<2xi64>, memref<?xi8>, memref<2xi64>, memref<?xi8>) -> (memref<2xi64>, memref<?xi8>)
        func.call @LyUnicode_DecRef(%rh) : (memref<2xi64>) -> ()
        func.call @LyUnicode_DecRef(%sh) : (memref<2xi64>) -> ()
        scf.yield %ch, %cb : memref<2xi64>, memref<?xi8>
      } else {
        scf.yield %rh, %rb : memref<2xi64>, memref<?xi8>
      }
      %off = arith.muli %i_i64, %c16_i64 : i64
      %box_ptr = llvm.getelementptr %items_ptr[%off] : (!llvm.ptr, i64) -> !llvm.ptr, i64
      %class_gep = llvm.getelementptr %box_ptr[%c1_i64] : (!llvm.ptr, i64) -> !llvm.ptr, i64
      %class_id = llvm.load %class_gep : !llvm.ptr -> i64
      %erh, %erb, %ok = func.call @__ly_repr_boxed_by_contract(%box_ptr, %class_id) : (!llvm.ptr, i64) -> (memref<2xi64>, memref<?xi8>, i1)
      cf.assert %ok, "repr: boxed element has no conforming __repr__"
      %nh, %nb = func.call @LyUnicode_Concat(%sep#0, %sep#1, %erh, %erb) : (memref<2xi64>, memref<?xi8>, memref<2xi64>, memref<?xi8>) -> (memref<2xi64>, memref<?xi8>)
      func.call @LyUnicode_DecRef(%sep#0) : (memref<2xi64>) -> ()
      func.call @LyUnicode_DecRef(%erh) : (memref<2xi64>) -> ()
      scf.yield %nh, %nb : memref<2xi64>, memref<?xi8>
    }

    // Single-element tuple: trailing comma.
    %is_single = arith.cmpi eq, %len, %c1_i64 : i64
    %comma:2 = scf.if %is_single -> (memref<2xi64>, memref<?xi8>) {
      %comma_ref = memref.get_global @__ly_repr_comma : memref<2xi8>
      %comma_dyn = memref.cast %comma_ref : memref<2xi8> to memref<?xi8>
      %tc_h, %tc_b = func.call @LyUnicode_FromBytes(%comma_dyn, %c0, %c1_i64) : (memref<?xi8>, index, i64) -> (memref<2xi64>, memref<?xi8>)
      %wh, %wb = func.call @LyUnicode_Concat(%loop#0, %loop#1, %tc_h, %tc_b) : (memref<2xi64>, memref<?xi8>, memref<2xi64>, memref<?xi8>) -> (memref<2xi64>, memref<?xi8>)
      func.call @LyUnicode_DecRef(%loop#0) : (memref<2xi64>) -> ()
      func.call @LyUnicode_DecRef(%tc_h) : (memref<2xi64>) -> ()
      scf.yield %wh, %wb : memref<2xi64>, memref<?xi8>
    } else {
      scf.yield %loop#0, %loop#1 : memref<2xi64>, memref<?xi8>
    }

    %close_ref = memref.get_global @__ly_repr_rparen : memref<1xi8>
    %close_dyn = memref.cast %close_ref : memref<1xi8> to memref<?xi8>
    %clh, %clb = func.call @LyUnicode_FromBytes(%close_dyn, %c0, %c1_i64) : (memref<?xi8>, index, i64) -> (memref<2xi64>, memref<?xi8>)
    %out_h, %out_b = func.call @LyUnicode_Concat(%comma#0, %comma#1, %clh, %clb) : (memref<2xi64>, memref<?xi8>, memref<2xi64>, memref<?xi8>) -> (memref<2xi64>, memref<?xi8>)
    func.call @LyUnicode_DecRef(%comma#0) : (memref<2xi64>) -> ()
    func.call @LyUnicode_DecRef(%clh) : (memref<2xi64>) -> ()
    func.return %out_h, %out_b : memref<2xi64>, memref<?xi8>
  }

  func.func @LyTuple_DecRef(%header: memref<2xi64> {ly.ownership.object_header}, %meta: memref<2xi64>, %items: memref<?xi64>) attributes {ly.ownership.release_args = [0], ly.runtime.contract = "builtins.tuple", ly.runtime.deallocator} {
    %storage = memref.cast %header : memref<2xi64> to memref<?xi64>
    %became_zero = func.call @LyObject_ReleaseStorageToZero(%storage) : (memref<?xi64>) -> i1
    cf.cond_br %became_zero, ^dealloc, ^done

  ^dealloc:
    %length_slot = arith.constant 0 : index
    %lower = arith.constant 0 : index
    %step = arith.constant 1 : index
    %length = memref.load %meta[%length_slot] : memref<2xi64>
    %length_index = arith.index_cast %length : i64 to index
    scf.for %i = %lower to %length_index step %step {
      %logical_index = arith.index_cast %i : index to i64
      func.call @LyObject_ReleaseBoxedPayloadArraySlotRaw(%items, %logical_index) : (memref<?xi64>, i64) -> ()
    }
    memref.dealloc %items : memref<?xi64>
    memref.dealloc %header : memref<2xi64>
    cf.br ^done

  ^done:
    func.return
  }

  // dict.__repr__: `{k0: v0, k1: v1}` over present slots (capacity order); key
  // and value each repr'd through the uniform boxed-method hook. Same manual
  // loop-ownership as the sequence reprs (Concat borrows).
  func.func @LyDict_Repr(%header: memref<2xi64> {ly.ownership.object_header}, %meta: memref<2xi64>, %keys: memref<?xi64>, %values: memref<?xi64>, %present: memref<?xi64>) -> (memref<2xi64>, memref<?xi8>) attributes {ly.ownership.owned_results = [0], ly.runtime.contract = "builtins.dict", ly.runtime.method = "__repr__", ly.runtime.result_contract = "builtins.str"} {
    %c0 = arith.constant 0 : index
    %c1 = arith.constant 1 : index
    %c1_meta = arith.constant 1 : index
    %c0_i64 = arith.constant 0 : i64
    %c1_i64 = arith.constant 1 : i64
    %c2_i64 = arith.constant 2 : i64
    %c16_i64 = arith.constant 16 : i64
    %capacity = memref.load %meta[%c1_meta] : memref<2xi64>
    %capacity_idx = arith.index_cast %capacity : i64 to index
    %keys_idx = memref.extract_aligned_pointer_as_index %keys : memref<?xi64> -> index
    %keys_i64 = arith.index_cast %keys_idx : index to i64
    %keys_ptr = llvm.inttoptr %keys_i64 : i64 to !llvm.ptr
    %values_idx = memref.extract_aligned_pointer_as_index %values : memref<?xi64> -> index
    %values_i64 = arith.index_cast %values_idx : index to i64
    %values_ptr = llvm.inttoptr %values_i64 : i64 to !llvm.ptr

    %open_ref = memref.get_global @__ly_repr_lbrace : memref<1xi8>
    %open_dyn = memref.cast %open_ref : memref<1xi8> to memref<?xi8>
    %r0_h, %r0_b = func.call @LyUnicode_FromBytes(%open_dyn, %c0, %c1_i64) : (memref<?xi8>, index, i64) -> (memref<2xi64>, memref<?xi8>)

    %loop:3 = scf.for %i = %c0 to %capacity_idx step %c1 iter_args(%rh = %r0_h, %rb = %r0_b, %emitted = %c0_i64) -> (memref<2xi64>, memref<?xi8>, i64) {
      %slot = memref.load %present[%i] : memref<?xi64>
      %is_present = arith.cmpi ne, %slot, %c0_i64 : i64
      %entry:3 = scf.if %is_present -> (memref<2xi64>, memref<?xi8>, i64) {
        %i_i64 = arith.index_cast %i : index to i64
        // separator ", " when this is not the first emitted entry
        %has_prev = arith.cmpi sgt, %emitted, %c0_i64 : i64
        %sep:2 = scf.if %has_prev -> (memref<2xi64>, memref<?xi8>) {
          %sep_ref = memref.get_global @__ly_repr_comma : memref<2xi8>
          %sep_dyn = memref.cast %sep_ref : memref<2xi8> to memref<?xi8>
          %sh, %sb = func.call @LyUnicode_FromBytes(%sep_dyn, %c0, %c2_i64) : (memref<?xi8>, index, i64) -> (memref<2xi64>, memref<?xi8>)
          %ch, %cb = func.call @LyUnicode_Concat(%rh, %rb, %sh, %sb) : (memref<2xi64>, memref<?xi8>, memref<2xi64>, memref<?xi8>) -> (memref<2xi64>, memref<?xi8>)
          func.call @LyUnicode_DecRef(%rh) : (memref<2xi64>) -> ()
          func.call @LyUnicode_DecRef(%sh) : (memref<2xi64>) -> ()
          scf.yield %ch, %cb : memref<2xi64>, memref<?xi8>
        } else {
          scf.yield %rh, %rb : memref<2xi64>, memref<?xi8>
        }
        %off = arith.muli %i_i64, %c16_i64 : i64
        // key repr
        %kbox = llvm.getelementptr %keys_ptr[%off] : (!llvm.ptr, i64) -> !llvm.ptr, i64
        %kclass_gep = llvm.getelementptr %kbox[%c1_i64] : (!llvm.ptr, i64) -> !llvm.ptr, i64
        %kclass = llvm.load %kclass_gep : !llvm.ptr -> i64
        %krh, %krb, %kok = func.call @__ly_repr_boxed_by_contract(%kbox, %kclass) : (!llvm.ptr, i64) -> (memref<2xi64>, memref<?xi8>, i1)
        cf.assert %kok, "repr: boxed dict key has no conforming __repr__"
        %k1h, %k1b = func.call @LyUnicode_Concat(%sep#0, %sep#1, %krh, %krb) : (memref<2xi64>, memref<?xi8>, memref<2xi64>, memref<?xi8>) -> (memref<2xi64>, memref<?xi8>)
        func.call @LyUnicode_DecRef(%sep#0) : (memref<2xi64>) -> ()
        func.call @LyUnicode_DecRef(%krh) : (memref<2xi64>) -> ()
        // ": "
        %colon_ref = memref.get_global @__ly_repr_colon : memref<2xi8>
        %colon_dyn = memref.cast %colon_ref : memref<2xi8> to memref<?xi8>
        %coh, %cob = func.call @LyUnicode_FromBytes(%colon_dyn, %c0, %c2_i64) : (memref<?xi8>, index, i64) -> (memref<2xi64>, memref<?xi8>)
        %k2h, %k2b = func.call @LyUnicode_Concat(%k1h, %k1b, %coh, %cob) : (memref<2xi64>, memref<?xi8>, memref<2xi64>, memref<?xi8>) -> (memref<2xi64>, memref<?xi8>)
        func.call @LyUnicode_DecRef(%k1h) : (memref<2xi64>) -> ()
        func.call @LyUnicode_DecRef(%coh) : (memref<2xi64>) -> ()
        // value repr
        %vbox = llvm.getelementptr %values_ptr[%off] : (!llvm.ptr, i64) -> !llvm.ptr, i64
        %vclass_gep = llvm.getelementptr %vbox[%c1_i64] : (!llvm.ptr, i64) -> !llvm.ptr, i64
        %vclass = llvm.load %vclass_gep : !llvm.ptr -> i64
        %vrh, %vrb, %vok = func.call @__ly_repr_boxed_by_contract(%vbox, %vclass) : (!llvm.ptr, i64) -> (memref<2xi64>, memref<?xi8>, i1)
        cf.assert %vok, "repr: boxed dict value has no conforming __repr__"
        %k3h, %k3b = func.call @LyUnicode_Concat(%k2h, %k2b, %vrh, %vrb) : (memref<2xi64>, memref<?xi8>, memref<2xi64>, memref<?xi8>) -> (memref<2xi64>, memref<?xi8>)
        func.call @LyUnicode_DecRef(%k2h) : (memref<2xi64>) -> ()
        func.call @LyUnicode_DecRef(%vrh) : (memref<2xi64>) -> ()
        %next_emitted = arith.addi %emitted, %c1_i64 : i64
        scf.yield %k3h, %k3b, %next_emitted : memref<2xi64>, memref<?xi8>, i64
      } else {
        scf.yield %rh, %rb, %emitted : memref<2xi64>, memref<?xi8>, i64
      }
      scf.yield %entry#0, %entry#1, %entry#2 : memref<2xi64>, memref<?xi8>, i64
    }

    %close_ref = memref.get_global @__ly_repr_rbrace : memref<1xi8>
    %close_dyn = memref.cast %close_ref : memref<1xi8> to memref<?xi8>
    %clh, %clb = func.call @LyUnicode_FromBytes(%close_dyn, %c0, %c1_i64) : (memref<?xi8>, index, i64) -> (memref<2xi64>, memref<?xi8>)
    %out_h, %out_b = func.call @LyUnicode_Concat(%loop#0, %loop#1, %clh, %clb) : (memref<2xi64>, memref<?xi8>, memref<2xi64>, memref<?xi8>) -> (memref<2xi64>, memref<?xi8>)
    func.call @LyUnicode_DecRef(%loop#0) : (memref<2xi64>) -> ()
    func.call @LyUnicode_DecRef(%clh) : (memref<2xi64>) -> ()
    func.return %out_h, %out_b : memref<2xi64>, memref<?xi8>
  }

  func.func @LyDict_DecRef(%header: memref<2xi64> {ly.ownership.object_header}, %meta: memref<2xi64>, %keys: memref<?xi64>, %values: memref<?xi64>, %present: memref<?xi64>) attributes {ly.ownership.release_args = [0], ly.runtime.contract = "builtins.dict", ly.runtime.deallocator} {
    %storage = memref.cast %header : memref<2xi64> to memref<?xi64>
    %became_zero = func.call @LyObject_ReleaseStorageToZero(%storage) : (memref<?xi64>) -> i1
    cf.cond_br %became_zero, ^dealloc, ^done

  ^dealloc:
    %capacity_slot = arith.constant 1 : index
    %lower = arith.constant 0 : index
    %step = arith.constant 1 : index
    %zero = arith.constant 0 : i64
    %capacity = memref.load %meta[%capacity_slot] : memref<2xi64>
    %capacity_index = arith.index_cast %capacity : i64 to index
    scf.for %i = %lower to %capacity_index step %step {
      %occupied = memref.load %present[%i] : memref<?xi64>
      %is_present = arith.cmpi ne, %occupied, %zero : i64
      scf.if %is_present {
        %logical_index = arith.index_cast %i : index to i64
        func.call @LyObject_ReleaseBoxedPayloadArraySlotRaw(%keys, %logical_index) : (memref<?xi64>, i64) -> ()
        func.call @LyObject_ReleaseBoxedPayloadArraySlotRaw(%values, %logical_index) : (memref<?xi64>, i64) -> ()
      }
    }
    memref.dealloc %present : memref<?xi64>
    memref.dealloc %values : memref<?xi64>
    memref.dealloc %keys : memref<?xi64>
    memref.dealloc %header : memref<2xi64>
    cf.br ^done

  ^done:
    func.return
  }

  // ===== impls: set =====
  func.func private @boxed_int_value(%meta_bits: i64, %digits_bits: i64) -> i64

  func.func private @LySet_Shape() -> (memref<2xi64>, memref<2xi64>, memref<?xi64>) attributes {ly.runtime.contract = "builtins.set", ly.runtime.shape}

  func.func @LySet_FromLength(%length: i64 {ly.runtime.default_i64 = 0 : i64}) -> (memref<2xi64>, memref<2xi64>, memref<?xi64>) attributes {ly.ownership.owned_results = [0], ly.runtime.class_id = 21 : i64, ly.runtime.contract = "builtins.set", ly.runtime.initializer = "__new__"} {
    %class_id = arith.constant 21 : i64
    %header, %meta, %items = func.call @__ly_sequence_alloc(%class_id, %length) : (i64, i64) -> (memref<2xi64>, memref<2xi64>, memref<?xi64>)
    func.return %header, %meta, %items : memref<2xi64>, memref<2xi64>, memref<?xi64>
  }

  func.func @LySet_Len(%header: memref<2xi64> {ly.ownership.object_header}, %meta: memref<2xi64>, %items: memref<?xi64>) -> i64 attributes {ly.runtime.contract = "builtins.set", ly.runtime.method = "__len__"} {
    %length_slot = arith.constant 0 : index
    %length = memref.load %meta[%length_slot] : memref<2xi64>
    func.return %length : i64
  }

  // Boxed equality between the slot at `slot` in `items` and `box`: class ids
  // must match; ints compare by decoded value, strs by bytes. Other element
  // classes conservatively compare unequal (the lowering restricts set
  // elements to int/str evidence).
  func.func private @__ly_set_slot_matches(%items: memref<?xi64>, %slot: i64, %box: memref<16xi64>) -> i1 {
    %handle_words = arith.constant 16 : i64
    %c1 = arith.constant 1 : index
    %c5 = arith.constant 5 : index
    %c6 = arith.constant 6 : index
    %c10 = arith.constant 10 : index
    %int_class = arith.constant 1 : i64
    %str_class = arith.constant 4 : i64
    %false = arith.constant false
    %base_i64 = arith.muli %slot, %handle_words : i64
    %base = arith.index_cast %base_i64 : i64 to index
    %class_index = arith.addi %base, %c1 : index
    %slot_class = memref.load %items[%class_index] : memref<?xi64>
    %box_class = memref.load %box[%c1] : memref<16xi64>
    %same_class = arith.cmpi eq, %slot_class, %box_class : i64
    %result = scf.if %same_class -> (i1) {
      %is_int = arith.cmpi eq, %slot_class, %int_class : i64
      %inner = scf.if %is_int -> (i1) {
        %slot_meta_index = arith.addi %base, %c5 : index
        %slot_digits_index = arith.addi %base, %c6 : index
        %slot_meta = memref.load %items[%slot_meta_index] : memref<?xi64>
        %slot_digits = memref.load %items[%slot_digits_index] : memref<?xi64>
        %box_meta = memref.load %box[%c5] : memref<16xi64>
        %box_digits = memref.load %box[%c6] : memref<16xi64>
        %slot_value = func.call @boxed_int_value(%slot_meta, %slot_digits) : (i64, i64) -> i64
        %box_value = func.call @boxed_int_value(%box_meta, %box_digits) : (i64, i64) -> i64
        %eq = arith.cmpi eq, %slot_value, %box_value : i64
        scf.yield %eq : i1
      } else {
        %is_str = arith.cmpi eq, %slot_class, %str_class : i64
        %str_eq = scf.if %is_str -> (i1) {
          %slot_ptr_index = arith.addi %base, %c5 : index
          %slot_len_index = arith.addi %base, %c10 : index
          %slot_ptr = memref.load %items[%slot_ptr_index] : memref<?xi64>
          %slot_len = memref.load %items[%slot_len_index] : memref<?xi64>
          %box_ptr = memref.load %box[%c5] : memref<16xi64>
          %box_len = memref.load %box[%c10] : memref<16xi64>
          // Adaptive-width strs must also match character width: distinct
          // strings of different widths can share the same code-unit bytes
          // (latin-1 "\x00\x01" vs UCS-2 U+0100). The width word sits at
          // header+16; both handles carry the header pointer at word 2.
          %c2_slot = arith.constant 2 : index
          %slot_header_index = arith.addi %base, %c2_slot : index
          %slot_header_ptr = memref.load %items[%slot_header_index] : memref<?xi64>
          %box_header_ptr = memref.load %box[%c2_slot] : memref<16xi64>
          %sixteen = arith.constant 16 : i64
          %slot_width_addr = arith.addi %slot_header_ptr, %sixteen : i64
          %box_width_addr = arith.addi %box_header_ptr, %sixteen : i64
          %slot_width_ptr = llvm.inttoptr %slot_width_addr : i64 to !llvm.ptr
          %box_width_ptr = llvm.inttoptr %box_width_addr : i64 to !llvm.ptr
          %slot_width = llvm.load %slot_width_ptr : !llvm.ptr -> i64
          %box_width = llvm.load %box_width_ptr : !llvm.ptr -> i64
          %width_eq = arith.cmpi eq, %slot_width, %box_width : i64
          %bytes_eq = func.call @raw_bytes_equal(%slot_ptr, %slot_len, %box_ptr, %box_len) : (i64, i64, i64, i64) -> i1
          %eq = arith.andi %width_eq, %bytes_eq : i1
          scf.yield %eq : i1
        } else {
          scf.yield %false : i1
        }
        scf.yield %str_eq : i1
      }
      scf.yield %inner : i1
    } else {
      scf.yield %false : i1
    }
    func.return %result : i1
  }

  // Probe for an equal element among slots 0..len-1. Returns the slot index
  // or -1.
  func.func private @__ly_set_find_slot(%meta: memref<2xi64>, %items: memref<?xi64>, %box: memref<16xi64>) -> i64 {
    %minus_one = arith.constant -1 : i64
    %length_slot = arith.constant 0 : index
    %c0 = arith.constant 0 : index
    %c1 = arith.constant 1 : index
    %len = memref.load %meta[%length_slot] : memref<2xi64>
    %len_index = arith.index_cast %len : i64 to index
    %found = scf.for %i = %c0 to %len_index step %c1 iter_args(%acc = %minus_one) -> (i64) {
      %ii = arith.index_cast %i : index to i64
      %eq = func.call @__ly_set_slot_matches(%items, %ii, %box) : (memref<?xi64>, i64, memref<16xi64>) -> i1
      %not_yet = arith.cmpi eq, %acc, %minus_one : i64
      %take = arith.andi %eq, %not_yet : i1
      %next = arith.select %take, %ii, %acc : i1, i64
      scf.yield %next : i64
    }
    func.return %found : i64
  }

  // Runtime set insert with a boxed element. The caller retained the box; a
  // duplicate element consumes it here.
  func.func @LySet_AddBox(%header: memref<2xi64> {ly.ownership.object_header}, %meta: memref<2xi64>, %items: memref<?xi64>, %elem_box: memref<16xi64>) -> (memref<2xi64>, memref<2xi64>, memref<?xi64>) attributes {ly.ownership.transfer_args = [0], ly.ownership.owned_results = [0], ly.runtime.contract = "builtins.set", ly.runtime.primitive = "add_box"} {
    %one = arith.constant 1 : i64
    %minus_one = arith.constant -1 : i64
    %handle_words = arith.constant 16 : i64
    %length_slot = arith.constant 0 : index
    %c0 = arith.constant 0 : index
    %c1 = arith.constant 1 : index
    %len = memref.load %meta[%length_slot] : memref<2xi64>
    %found = func.call @__ly_set_find_slot(%meta, %items, %elem_box) : (memref<2xi64>, memref<?xi64>, memref<16xi64>) -> i64
    %missing = arith.cmpi eq, %found, %minus_one : i64
    %out:3 = scf.if %missing -> (memref<2xi64>, memref<2xi64>, memref<?xi64>) {
      %required = arith.addi %len, %one : i64
      %grown:3 = func.call @__ly_sequence_ensure_capacity(%header, %meta, %items, %required) : (memref<2xi64>, memref<2xi64>, memref<?xi64>, i64) -> (memref<2xi64>, memref<2xi64>, memref<?xi64>)
      %slot_base_i64 = arith.muli %len, %handle_words : i64
      %c16 = arith.constant 16 : index
      %slot_base = arith.index_cast %slot_base_i64 : i64 to index
      scf.for %w = %c0 to %c16 step %c1 {
        %word = memref.load %elem_box[%w] : memref<16xi64>
        %dst = arith.addi %slot_base, %w : index
        memref.store %word, %grown#2[%dst] : memref<?xi64>
      }
      memref.store %required, %grown#1[%length_slot] : memref<2xi64>
      scf.yield %grown#0, %grown#1, %grown#2 : memref<2xi64>, memref<2xi64>, memref<?xi64>
    } else {
      // Duplicate: consume the caller's retained box.
      func.call @LyObject_ReleaseBoxedPayloadRaw(%elem_box) : (memref<16xi64>) -> ()
      scf.yield %header, %meta, %items : memref<2xi64>, memref<2xi64>, memref<?xi64>
    }
    func.return %out#0, %out#1, %out#2 : memref<2xi64>, memref<2xi64>, memref<?xi64>
  }

  // Membership probe with a BORROWED transient box (not consumed).
  func.func @LySet_ContainsBox(%header: memref<2xi64> {ly.ownership.object_header}, %meta: memref<2xi64>, %items: memref<?xi64>, %elem_box: memref<16xi64>) -> i1 attributes {ly.runtime.contract = "builtins.set", ly.runtime.primitive = "contains_box"} {
    %minus_one = arith.constant -1 : i64
    %found = func.call @__ly_set_find_slot(%meta, %items, %elem_box) : (memref<2xi64>, memref<?xi64>, memref<16xi64>) -> i64
    %result = arith.cmpi ne, %found, %minus_one : i64
    func.return %result : i1
  }

  func.func @LySet_DecRef(%header: memref<2xi64> {ly.ownership.object_header}, %meta: memref<2xi64>, %items: memref<?xi64>) attributes {ly.ownership.release_args = [0], ly.runtime.contract = "builtins.set", ly.runtime.deallocator} {
    %storage = memref.cast %header : memref<2xi64> to memref<?xi64>
    %became_zero = func.call @LyObject_ReleaseStorageToZero(%storage) : (memref<?xi64>) -> i1
    cf.cond_br %became_zero, ^dealloc, ^done

  ^dealloc:
    %length_slot = arith.constant 0 : index
    %lower = arith.constant 0 : index
    %step = arith.constant 1 : index
    %length = memref.load %meta[%length_slot] : memref<2xi64>
    %length_index = arith.index_cast %length : i64 to index
    scf.for %i = %lower to %length_index step %step {
      %logical_index = arith.index_cast %i : index to i64
      func.call @LyObject_ReleaseBoxedPayloadArraySlotRaw(%items, %logical_index) : (memref<?xi64>, i64) -> ()
    }
    memref.dealloc %items : memref<?xi64>
    memref.dealloc %header : memref<2xi64>
    cf.br ^done

  ^done:
    func.return
  }

  // ===== impls: range =====
  func.func private @LyRange_Shape() -> (memref<2xi64>, memref<3xi64>) attributes {ly.runtime.contract = "builtins.range", ly.runtime.shape}
  func.func private @LyRangeIterator_Shape() -> (memref<2xi64>, memref<3xi64>) attributes {ly.runtime.contract = "builtins.range_iterator", ly.runtime.shape}

  memref.global "private" constant @__ly_range_msg_zero_step : memref<30xi8> = dense<[114, 97, 110, 103, 101, 40, 41, 32, 97, 114, 103, 32, 51, 32, 109, 117, 115, 116, 32, 110, 111, 116, 32, 98, 101, 32, 122, 101, 114, 111]>

  func.func private @__ly_range_raise_zero_step() {
    %class_id = arith.constant 53 : i64
    %length = arith.constant 30 : i64
    %start = arith.constant 0 : index
    %message_static = memref.get_global @__ly_range_msg_zero_step : memref<30xi8>
    %message = memref.cast %message_static : memref<30xi8> to memref<?xi8>
    %exception:3 = func.call @LyBaseException_New(%class_id) : (i64) -> (memref<3xi64>, memref<2xi64>, memref<?xi8>)
    %message_header, %message_bytes = func.call @LyUnicode_FromBytes(%message, %start, %length) : (memref<?xi8>, index, i64) -> (memref<2xi64>, memref<?xi8>)
    %initialized:3 = func.call @LyBaseException_Init(%exception#0, %exception#1, %exception#2, %message_header, %message_bytes) : (memref<3xi64>, memref<2xi64>, memref<?xi8>, memref<2xi64>, memref<?xi8>) -> (memref<3xi64>, memref<2xi64>, memref<?xi8>)
    func.call @LyEH_ThrowException(%initialized#0, %initialized#1, %initialized#2) : (memref<3xi64>, memref<2xi64>, memref<?xi8>) -> ()
    func.return
  }

  func.func @LyRange_New(%first: i64, %second: i64 {ly.runtime.default_i64 = 9223372036854775807 : i64}, %step_in: i64 {ly.runtime.default_i64 = 9223372036854775807 : i64}) -> (memref<2xi64>, memref<3xi64>) attributes {ly.ownership.owned_results = [0], ly.runtime.class_id = 3 : i64, ly.runtime.contract = "builtins.range", ly.runtime.initializer = "__new__"} {
    %sentinel = arith.constant 9223372036854775807 : i64
    %zero = arith.constant 0 : i64
    %one = arith.constant 1 : i64
    %second_missing = arith.cmpi eq, %second, %sentinel : i64
    %start = arith.select %second_missing, %zero, %first : i64
    %stop = arith.select %second_missing, %first, %second : i64
    %step_missing = arith.cmpi eq, %step_in, %sentinel : i64
    %step = arith.select %step_missing, %one, %step_in : i64
    %step_zero = arith.cmpi eq, %step, %zero : i64
    cf.cond_br %step_zero, ^raise, ^make

  ^raise:
    func.call @__ly_range_raise_zero_step() : () -> ()
    cf.br ^make

  ^make:
    // One entity, one allocation: [0,16) header, [16,40) state view.
    %block_bytes = arith.constant 40 : index
    %block = memref.alloc(%block_bytes) {alignment = 16 : i64} : memref<?xi8>
    %header_offset = arith.constant 0 : index
    %part_offset = arith.constant 16 : index
    %header = memref.view %block[%header_offset][] {ly.ownership.object_header, ly.ownership.owned_local_object} : memref<?xi8> to memref<2xi64>
    %state = memref.view %block[%part_offset][] : memref<?xi8> to memref<3xi64>
    %layout_range = arith.constant 3 : i64
    %refcount_slot = arith.constant 0 : index
    %layout_slot = arith.constant 1 : index
    %start_slot = arith.constant 0 : index
    %stop_slot = arith.constant 1 : index
    %step_slot = arith.constant 2 : index
    memref.store %one, %header[%refcount_slot] : memref<2xi64>
    memref.store %layout_range, %header[%layout_slot] : memref<2xi64>
    memref.store %start, %state[%start_slot] : memref<3xi64>
    memref.store %stop, %state[%stop_slot] : memref<3xi64>
    memref.store %step, %state[%step_slot] : memref<3xi64>
    func.return %header, %state : memref<2xi64>, memref<3xi64>
  }

  func.func @LyRange_Init(%header: memref<2xi64> {ly.ownership.object_header}, %state: memref<3xi64>) attributes {ly.runtime.contract = "builtins.range", ly.runtime.method = "__init__"} {
    func.return
  }

  func.func private @__ly_range_iterator_alloc(%current: i64, %stop: i64, %step: i64) -> (memref<2xi64>, memref<3xi64>) attributes {ly.ownership.owned_results = [0], ly.runtime.class_id = 20 : i64, ly.runtime.contract = "builtins.range_iterator", ly.runtime.primitive = "alloc"} {
    // One entity, one allocation: [0,16) header, [16,40) state view.
    %block_bytes = arith.constant 40 : index
    %block = memref.alloc(%block_bytes) {alignment = 16 : i64} : memref<?xi8>
    %header_offset = arith.constant 0 : index
    %part_offset = arith.constant 16 : index
    %header = memref.view %block[%header_offset][] {ly.ownership.object_header, ly.ownership.owned_local_object} : memref<?xi8> to memref<2xi64>
    %state = memref.view %block[%part_offset][] : memref<?xi8> to memref<3xi64>
    %one = arith.constant 1 : i64
    %layout_range_iterator = arith.constant 20 : i64
    %refcount_slot = arith.constant 0 : index
    %layout_slot = arith.constant 1 : index
    %current_slot = arith.constant 0 : index
    %stop_slot = arith.constant 1 : index
    %step_slot = arith.constant 2 : index
    memref.store %one, %header[%refcount_slot] : memref<2xi64>
    memref.store %layout_range_iterator, %header[%layout_slot] : memref<2xi64>
    memref.store %current, %state[%current_slot] : memref<3xi64>
    memref.store %stop, %state[%stop_slot] : memref<3xi64>
    memref.store %step, %state[%step_slot] : memref<3xi64>
    func.return %header, %state : memref<2xi64>, memref<3xi64>
  }

  func.func @LyRange_Iter(%header: memref<2xi64> {ly.ownership.object_header}, %state: memref<3xi64>) -> (memref<2xi64>, memref<3xi64>) attributes {ly.ownership.owned_results = [0], ly.runtime.contract = "builtins.range", ly.runtime.method = "__iter__", ly.runtime.result_contract = "builtins.range_iterator"} {
    %start_slot = arith.constant 0 : index
    %stop_slot = arith.constant 1 : index
    %step_slot = arith.constant 2 : index
    %start = memref.load %state[%start_slot] : memref<3xi64>
    %stop = memref.load %state[%stop_slot] : memref<3xi64>
    %step = memref.load %state[%step_slot] : memref<3xi64>
    %iter_header, %iter_state = func.call @__ly_range_iterator_alloc(%start, %stop, %step) : (i64, i64, i64) -> (memref<2xi64>, memref<3xi64>)
    func.return %iter_header, %iter_state : memref<2xi64>, memref<3xi64>
  }

  func.func @LyRangeIterator_Iter(%header: memref<2xi64> {ly.ownership.object_header}, %state: memref<3xi64>) -> (memref<2xi64>, memref<3xi64>) attributes {ly.ownership.owned_results = [0], ly.runtime.contract = "builtins.range_iterator", ly.runtime.method = "__iter__", ly.runtime.result_contract = "builtins.range_iterator"} {
    %header_view = memref.cast %header : memref<2xi64> to memref<2xi64, strided<[1], offset: ?>>
    func.call @Ly_IncRef(%header_view) : (memref<2xi64, strided<[1], offset: ?>>) -> ()
    func.return %header, %state : memref<2xi64>, memref<3xi64>
  }

  func.func @LyRangeIterator_Next(%header: memref<2xi64> {ly.ownership.object_header}, %state: memref<3xi64>) -> (memref<2xi64>, memref<2xi64>, memref<?xi32>, i1, memref<2xi64>, memref<3xi64>) attributes {ly.ownership.owned_results = [0, 4], ly.runtime.contract = "builtins.range_iterator", ly.runtime.method = "__next__", ly.runtime.element_contract = "builtins.int", ly.runtime.next_contract = "builtins.range_iterator", ly.runtime.valid_result_index = 3 : i64} {
    %current_slot = arith.constant 0 : index
    %stop_slot = arith.constant 1 : index
    %step_slot = arith.constant 2 : index
    %zero = arith.constant 0 : i64
    %current = memref.load %state[%current_slot] : memref<3xi64>
    %stop = memref.load %state[%stop_slot] : memref<3xi64>
    %step = memref.load %state[%step_slot] : memref<3xi64>
    %ascending = arith.cmpi sgt, %step, %zero : i64
    %below = arith.cmpi slt, %current, %stop : i64
    %above = arith.cmpi sgt, %current, %stop : i64
    %valid = arith.select %ascending, %below, %above : i1
    %advanced = arith.addi %current, %step : i64
    %next_current = arith.select %valid, %advanced, %current : i1, i64
    memref.store %next_current, %state[%current_slot] : memref<3xi64>
    %header_view = memref.cast %header : memref<2xi64> to memref<2xi64, strided<[1], offset: ?>>
    func.call @Ly_IncRef(%header_view) : (memref<2xi64, strided<[1], offset: ?>>) -> ()
    %element_value = arith.select %valid, %current, %zero : i1, i64
    %element:3 = func.call @LyLong_FromI64(%element_value) : (i64) -> (memref<2xi64>, memref<2xi64>, memref<?xi32>)
    func.return %element#0, %element#1, %element#2, %valid, %header, %state : memref<2xi64>, memref<2xi64>, memref<?xi32>, i1, memref<2xi64>, memref<3xi64>
  }

  func.func @LyRange_DecRef(%header: memref<2xi64> {ly.ownership.object_header}) attributes {ly.ownership.release_args = [0], ly.runtime.contract = "builtins.range", ly.runtime.deallocator} {
    %storage = memref.cast %header : memref<2xi64> to memref<?xi64>
    %became_zero = func.call @LyObject_ReleaseStorageToZero(%storage) : (memref<?xi64>) -> i1
    cf.cond_br %became_zero, ^dealloc, ^done

  ^dealloc:
    memref.dealloc %header : memref<2xi64>
    cf.br ^done

  ^done:
    func.return
  }

  func.func @LyRangeIterator_DecRef(%header: memref<2xi64> {ly.ownership.object_header}) attributes {ly.ownership.release_args = [0], ly.runtime.contract = "builtins.range_iterator", ly.runtime.deallocator} {
    %storage = memref.cast %header : memref<2xi64> to memref<?xi64>
    %became_zero = func.call @LyObject_ReleaseStorageToZero(%storage) : (memref<?xi64>) -> i1
    cf.cond_br %became_zero, ^dealloc, ^done

  ^dealloc:
    memref.dealloc %header : memref<2xi64>
    cf.br ^done

  ^done:
    func.return
  }

  // ===== impls: str_iterator =====
  func.func private @__ly_str_iterator_alloc(%position: i64, %length: i64) -> (memref<2xi64>, memref<2xi64>) attributes {ly.ownership.owned_results = [0], ly.runtime.class_id = 7 : i64, ly.runtime.contract = "builtins.str_iterator", ly.runtime.primitive = "alloc"} {
    // One entity, one allocation: [0,16) header, [16,32) state view.
    %block_bytes = arith.constant 32 : index
    %block = memref.alloc(%block_bytes) {alignment = 16 : i64} : memref<?xi8>
    %header_offset = arith.constant 0 : index
    %part_offset = arith.constant 16 : index
    %header = memref.view %block[%header_offset][] {ly.ownership.object_header, ly.ownership.owned_local_object} : memref<?xi8> to memref<2xi64>
    %state = memref.view %block[%part_offset][] : memref<?xi8> to memref<2xi64>
    %one = arith.constant 1 : i64
    %layout_str_iterator = arith.constant 7 : i64
    %refcount_slot = arith.constant 0 : index
    %layout_slot = arith.constant 1 : index
    %position_slot = arith.constant 0 : index
    %length_slot = arith.constant 1 : index
    memref.store %one, %header[%refcount_slot] : memref<2xi64>
    memref.store %layout_str_iterator, %header[%layout_slot] : memref<2xi64>
    memref.store %position, %state[%position_slot] : memref<2xi64>
    memref.store %length, %state[%length_slot] : memref<2xi64>
    func.return %header, %state : memref<2xi64>, memref<2xi64>
  }

  func.func @LyUnicode_Iter(%source_header: memref<2xi64> {ly.ownership.object_header}, %source_bytes: memref<?xi8>) -> (memref<2xi64>, memref<2xi64>, memref<2xi64>, memref<?xi8>) attributes {ly.ownership.owned_results = [0], ly.runtime.contract = "builtins.str", ly.runtime.method = "__iter__", ly.runtime.result_contract = "builtins.str_iterator"} {
    %zero = arith.constant 0 : i64
    %length = func.call @LyUnicode_CodepointLength(%source_header, %source_bytes) : (memref<2xi64>, memref<?xi8>) -> i64
    %iter_header, %state = func.call @__ly_str_iterator_alloc(%zero, %length) : (i64, i64) -> (memref<2xi64>, memref<2xi64>)
    %source_header_view = memref.cast %source_header : memref<2xi64> to memref<2xi64, strided<[1], offset: ?>>
    func.call @Ly_IncRef(%source_header_view) : (memref<2xi64, strided<[1], offset: ?>>) -> ()
    func.return %iter_header, %state, %source_header, %source_bytes : memref<2xi64>, memref<2xi64>, memref<2xi64>, memref<?xi8>
  }

  func.func @LyUnicodeStrIterator_Iter(%iter_header: memref<2xi64> {ly.ownership.object_header}, %state: memref<2xi64>, %source_header: memref<2xi64> {ly.ownership.object_header}, %source_bytes: memref<?xi8>) -> (memref<2xi64>, memref<2xi64>, memref<2xi64>, memref<?xi8>) attributes {ly.ownership.owned_results = [0], ly.runtime.contract = "builtins.str_iterator", ly.runtime.method = "__iter__", ly.runtime.result_contract = "builtins.str_iterator"} {
    %iter_header_view = memref.cast %iter_header : memref<2xi64> to memref<2xi64, strided<[1], offset: ?>>
    func.call @Ly_IncRef(%iter_header_view) : (memref<2xi64, strided<[1], offset: ?>>) -> ()
    func.return %iter_header, %state, %source_header, %source_bytes : memref<2xi64>, memref<2xi64>, memref<2xi64>, memref<?xi8>
  }

  func.func @LyUnicodeStrIterator_Next(%iter_header: memref<2xi64> {ly.ownership.object_header}, %state: memref<2xi64>, %source_header: memref<2xi64> {ly.ownership.object_header}, %source_bytes: memref<?xi8>) -> (memref<2xi64>, memref<?xi8>, i1, memref<2xi64>, memref<2xi64>, memref<2xi64>, memref<?xi8>) attributes {ly.ownership.owned_results = [0, 3], ly.runtime.contract = "builtins.str_iterator", ly.runtime.method = "__next__", ly.runtime.element_contract = "builtins.str", ly.runtime.next_contract = "builtins.str_iterator", ly.runtime.valid_result_index = 2 : i64} {
    %position_slot = arith.constant 0 : index
    %length_slot = arith.constant 1 : index
    %position = memref.load %state[%position_slot] : memref<2xi64>
    %length = memref.load %state[%length_slot] : memref<2xi64>
    %valid = arith.cmpi slt, %position, %length : i64
    %one = arith.constant 1 : i64
    %next_position_candidate = arith.addi %position, %one : i64
    %next_position = arith.select %valid, %next_position_candidate, %position : i1, i64
    memref.store %next_position, %state[%position_slot] : memref<2xi64>
    %iter_header_view = memref.cast %iter_header : memref<2xi64> to memref<2xi64, strided<[1], offset: ?>>
    func.call @Ly_IncRef(%iter_header_view) : (memref<2xi64, strided<[1], offset: ?>>) -> ()

    %element:2 = scf.if %valid -> (memref<2xi64>, memref<?xi8>) {
      %item_header, %item_bytes = func.call @LyUnicode_GetItem(%source_header, %source_bytes, %position) : (memref<2xi64>, memref<?xi8>, i64) -> (memref<2xi64>, memref<?xi8>)
      scf.yield %item_header, %item_bytes : memref<2xi64>, memref<?xi8>
    } else {
      %start = arith.constant 0 : index
      %zero = arith.constant 0 : i64
      %empty_header, %empty_bytes = func.call @LyUnicode_FromBytes(%source_bytes, %start, %zero) : (memref<?xi8>, index, i64) -> (memref<2xi64>, memref<?xi8>)
      scf.yield %empty_header, %empty_bytes : memref<2xi64>, memref<?xi8>
    }

    func.return %element#0, %element#1, %valid, %iter_header, %state, %source_header, %source_bytes : memref<2xi64>, memref<?xi8>, i1, memref<2xi64>, memref<2xi64>, memref<2xi64>, memref<?xi8>
  }

  func.func @LyUnicodeStrIterator_DecRef(%iter_header: memref<2xi64> {ly.ownership.object_header}, %state: memref<2xi64>, %source_header: memref<2xi64> {ly.ownership.object_header}, %source_bytes: memref<?xi8>) attributes {ly.ownership.release_args = [0], ly.runtime.contract = "builtins.str_iterator", ly.runtime.deallocator} {
    %storage = memref.cast %iter_header : memref<2xi64> to memref<?xi64>
    %became_zero = func.call @LyObject_ReleaseStorageToZero(%storage) : (memref<?xi64>) -> i1
    cf.cond_br %became_zero, ^dealloc, ^done

  ^dealloc:
    func.call @LyUnicode_DecRef(%source_header) : (memref<2xi64>) -> ()
    memref.dealloc %iter_header : memref<2xi64>
    cf.br ^done

  ^done:
    func.return
  }
}
