// Contract manifest for `builtins`.
//
// Signature source (1:1 correspondence target):
//   https://github.com/python/typeshed/blob/main/stdlib/builtins.pyi
//
// Signatures follow typeshed 1:1 where the static surface supports them;
// classes are grouped as typeshed declares them. Runtime implementations are
// co-located below (modules/<name>.mlir = CPython Modules/: one file carries
// the module's contracts, lowering strategies, and native implementations).
//
// Conventions (shared by all contract manifests):
//   - `!py.contract<"builtins.int">` is a nominal manifest contract.
//   - `!py.contract<"$T">` names a generic parameter from `ly.typing.params`.
//   - Method contracts are Callable terms in `method_contracts`; hand-written
//     manifests may use the typeshed-shaped `!py.protocol<"Callable", ...>`
//     spelling with `!py.callable<...>` for nested/variadic terms.

module attributes {
  ly.typing.manifest,
  ly.runtime.contracts = ["types.NoneType", "builtins.object", "builtins.bool", "builtins.BaseException", "builtins.int", "builtins.str", "builtins.Exception", "builtins.RuntimeError", "builtins.TypeError", "builtins.ValueError", "builtins.ArithmeticError", "builtins.LookupError", "builtins.ZeroDivisionError", "builtins.KeyError", "builtins.IndexError", "builtins.AssertionError", "builtins.StopIteration", "builtins.StopAsyncIteration", "builtins.SystemExit", "builtins.GeneratorExit", "builtins.OSError", "builtins.FileNotFoundError", "asyncio.CancelledError", "builtins.float", "builtins.bytes", "builtins.list", "builtins.tuple", "builtins.dict", "builtins.set", "builtins.range", "builtins.range_iterator", "builtins.str_iterator"],
  // Manifest Callable contracts for builtin free functions. These are the
  // single trusted source for these signatures; the emitter's seedBuiltins
  // reads them here instead of constructing the contracts in C++.
  ly.typing.function_names = ["builtins.print", "builtins.len", "builtins.hash", "builtins.sorted", "builtins.abs", "builtins.divmod", "builtins.pow", "builtins.ord", "builtins.chr", "builtins.hex", "builtins.oct", "builtins.bin"],
  ly.typing.function_contracts = [
    !py.callable<[], vararg = !py.contract<"builtins.tuple", [!py.contract<"builtins.object">]>, returns = [!py.literal<None>]>,
    !py.callable<[!py.contract<"builtins.object">], returns = [!py.contract<"builtins.int">]>,
    !py.callable<[!py.contract<"builtins.object">], returns = [!py.contract<"builtins.int">]>,
    !py.callable<[!py.protocol<"Iterable", [!py.typevar<"T">]>], returns = [!py.contract<"builtins.list", [!py.typevar<"T">]>]>,
    !py.callable<[!py.typevar<"T">], returns = [!py.typevar<"T">]>,
    !py.callable<[!py.contract<"builtins.int">, !py.contract<"builtins.int">], returns = [!py.contract<"builtins.tuple", [!py.contract<"builtins.int">, !py.contract<"builtins.int">]>]>,
    !py.callable<[!py.contract<"builtins.int">, !py.contract<"builtins.int">, !py.contract<"builtins.int">], returns = [!py.contract<"builtins.int">]>,
    !py.callable<[!py.contract<"builtins.str">], returns = [!py.contract<"builtins.int">]>,
    !py.callable<[!py.contract<"builtins.int">], returns = [!py.contract<"builtins.str">]>,
    !py.callable<[!py.contract<"builtins.int">], returns = [!py.contract<"builtins.str">]>,
    !py.callable<[!py.contract<"builtins.int">], returns = [!py.contract<"builtins.str">]>,
    !py.callable<[!py.contract<"builtins.int">], returns = [!py.contract<"builtins.str">]>
  ]
} {
  py.class @object attributes {
    ly.typing.abstract,
    method_names = ["__init__", "__new__", "__repr__", "__str__", "__bool__",
                    "__eq__", "__ne__", "__hash__", "__getattribute__",
                    "__setattr__", "__delattr__"],
    method_contracts = [
      !py.protocol<"Callable", [!py.contract<"builtins.object">] -> [!py.literal<None>]>,
      !py.protocol<"Callable", [!py.type<!py.contract<"builtins.object">>] -> [!py.self]>,
      !py.protocol<"Callable", [!py.contract<"builtins.object">] -> [!py.contract<"builtins.str">]>,
      !py.protocol<"Callable", [!py.contract<"builtins.object">] -> [!py.contract<"builtins.str">]>,
      !py.protocol<"Callable", [!py.contract<"builtins.object">] -> [!py.contract<"builtins.bool">]>,
      !py.protocol<"Callable", [!py.contract<"builtins.object">, !py.contract<"builtins.object">] -> [!py.contract<"builtins.bool">]>,
      !py.protocol<"Callable", [!py.contract<"builtins.object">, !py.contract<"builtins.object">] -> [!py.contract<"builtins.bool">]>,
      !py.protocol<"Callable", [!py.contract<"builtins.object">] -> [!py.contract<"builtins.int">]>,
      !py.protocol<"Callable", [!py.contract<"builtins.object">, !py.contract<"builtins.str">] -> [!py.contract<"typing.Any">]>,
      !py.protocol<"Callable", [!py.contract<"builtins.object">, !py.contract<"builtins.str">, !py.contract<"typing.Any">] -> [!py.literal<None>]>,
      !py.protocol<"Callable", [!py.contract<"builtins.object">, !py.contract<"builtins.str">] -> [!py.literal<None>]>
    ],
    method_kinds = ["instance", "classmethod", "instance", "instance",
                    "instance", "instance", "instance", "instance",
                    "instance", "instance", "instance"]
  } {}

  py.class @type attributes {
    base_names = ["object"], ly.typing.params = ["T", "P"],
    method_names = ["__call__", "__new__", "__or__", "__ror__"],
    method_contracts = [
      !py.protocol<"Callable", [!py.type<!py.contract<"$T">>, !py.paramspec<"P">] -> [!py.contract<"$T">]>,
      !py.protocol<"Callable", [!py.type<!py.contract<"builtins.type">>, !py.contract<"builtins.object">] -> [!py.type<!py.contract<"builtins.object">>]>,
      !py.protocol<"Callable", [!py.type<!py.contract<"builtins.object">>, !py.contract<"typing.Any">] -> [!py.contract<"types.UnionType">]>,
      !py.protocol<"Callable", [!py.type<!py.contract<"builtins.object">>, !py.contract<"typing.Any">] -> [!py.contract<"types.UnionType">]>
    ],
    method_kinds = ["instance", "classmethod", "instance", "instance"]
  } {}

  py.class @function attributes {
    base_names = ["object"], ly.typing.final,
    method_names = ["__call__", "__get__"],
    method_contracts = [
      !py.protocol<"Callable", [!py.contract<"builtins.function">, !py.paramspec<"P">] -> [!py.contract<"typing.Any">]>,
      !py.protocol<"Callable", [!py.contract<"builtins.function">, !py.contract<"builtins.object">, !py.union<!py.type<!py.contract<"builtins.object">>, !py.literal<None>>] -> [!py.contract<"typing.Any">]>
    ],
    method_kinds = ["instance", "instance"]
  } {}

  py.class @staticmethod attributes {
    base_names = ["object"], ly.typing.params = ["P", "R"],
    method_names = ["__call__", "__get__"],
    method_contracts = [
      !py.protocol<"Callable", [!py.contract<"builtins.staticmethod">, !py.paramspec<"P">] -> [!py.contract<"$R">]>,
      !py.protocol<"Callable", [!py.contract<"builtins.staticmethod">, !py.union<!py.contract<"builtins.object">, !py.literal<None>>, !py.type<!py.contract<"builtins.object">>] -> [!py.protocol<"Callable", [!py.paramspec<"P">] -> [!py.contract<"$R">]>]>
    ],
    method_kinds = ["instance", "instance"]
  } {}

  py.class @classmethod attributes {
    base_names = ["object"], ly.typing.params = ["T", "P", "R"],
    method_names = ["__get__"],
    method_contracts = [
      !py.protocol<"Callable", [!py.contract<"builtins.classmethod">, !py.union<!py.contract<"$T">, !py.literal<None>>, !py.type<!py.contract<"$T">>] -> [!py.protocol<"Callable", [!py.paramspec<"P">] -> [!py.contract<"$R">]>]>
    ],
    method_kinds = ["instance"]
  } {}

  py.class @int attributes {
    base_names = ["object"], ly.typing.final,
    method_names = ["__new__", "__add__", "__sub__", "__mul__", "__floordiv__",
                    "__truediv__", "__mod__", "__and__", "__or__", "__xor__",
                    "__lshift__", "__rshift__", "__neg__", "__pos__",
                    "__invert__", "__round__", "__int__", "__float__",
                    "__bool__", "__index__", "__hash__", "__lt__", "__le__",
                    "__gt__", "__ge__", "__repr__", "__str__", "__eq__", "__ne__",
                    "__pow__", "__abs__"],
    method_contracts = [
      !py.protocol<"Callable", [!py.type<!py.contract<"builtins.int">>, !py.union<!py.contract<"typing.SupportsInt">, !py.contract<"typing.SupportsIndex">, !py.contract<"builtins.str">, !py.contract<"builtins.bytes">, !py.contract<"builtins.bytearray">>] -> [!py.self]>,
      !py.protocol<"Callable", [!py.contract<"builtins.int">, !py.contract<"builtins.int">] -> [!py.contract<"builtins.int">]>,
      !py.protocol<"Callable", [!py.contract<"builtins.int">, !py.contract<"builtins.int">] -> [!py.contract<"builtins.int">]>,
      !py.protocol<"Callable", [!py.contract<"builtins.int">, !py.contract<"builtins.int">] -> [!py.contract<"builtins.int">]>,
      !py.protocol<"Callable", [!py.contract<"builtins.int">, !py.contract<"builtins.int">] -> [!py.contract<"builtins.int">]>,
      !py.protocol<"Callable", [!py.contract<"builtins.int">, !py.contract<"builtins.int">] -> [!py.contract<"builtins.float">]>,
      !py.protocol<"Callable", [!py.contract<"builtins.int">, !py.contract<"builtins.int">] -> [!py.contract<"builtins.int">]>,
      !py.protocol<"Callable", [!py.contract<"builtins.int">, !py.contract<"builtins.int">] -> [!py.contract<"builtins.int">]>,
      !py.protocol<"Callable", [!py.contract<"builtins.int">, !py.contract<"builtins.int">] -> [!py.contract<"builtins.int">]>,
      !py.protocol<"Callable", [!py.contract<"builtins.int">, !py.contract<"builtins.int">] -> [!py.contract<"builtins.int">]>,
      !py.protocol<"Callable", [!py.contract<"builtins.int">, !py.contract<"builtins.int">] -> [!py.contract<"builtins.int">]>,
      !py.protocol<"Callable", [!py.contract<"builtins.int">, !py.contract<"builtins.int">] -> [!py.contract<"builtins.int">]>,
      !py.protocol<"Callable", [!py.contract<"builtins.int">] -> [!py.contract<"builtins.int">]>,
      !py.protocol<"Callable", [!py.contract<"builtins.int">] -> [!py.contract<"builtins.int">]>,
      !py.protocol<"Callable", [!py.contract<"builtins.int">] -> [!py.contract<"builtins.int">]>,
      !py.protocol<"Callable", [!py.contract<"builtins.int">, !py.contract<"builtins.int">] -> [!py.contract<"builtins.int">]>,
      !py.protocol<"Callable", [!py.contract<"builtins.int">] -> [!py.contract<"builtins.int">]>,
      !py.protocol<"Callable", [!py.contract<"builtins.int">] -> [!py.contract<"builtins.float">]>,
      !py.protocol<"Callable", [!py.contract<"builtins.int">] -> [!py.contract<"builtins.bool">]>,
      !py.protocol<"Callable", [!py.contract<"builtins.int">] -> [!py.contract<"builtins.int">]>,
      !py.protocol<"Callable", [!py.contract<"builtins.int">] -> [!py.contract<"builtins.int">]>,
      !py.protocol<"Callable", [!py.contract<"builtins.int">, !py.contract<"builtins.int">] -> [!py.contract<"builtins.bool">]>,
      !py.protocol<"Callable", [!py.contract<"builtins.int">, !py.contract<"builtins.int">] -> [!py.contract<"builtins.bool">]>,
      !py.protocol<"Callable", [!py.contract<"builtins.int">, !py.contract<"builtins.int">] -> [!py.contract<"builtins.bool">]>,
      !py.protocol<"Callable", [!py.contract<"builtins.int">, !py.contract<"builtins.int">] -> [!py.contract<"builtins.bool">]>,
      !py.protocol<"Callable", [!py.contract<"builtins.int">] -> [!py.contract<"builtins.str">]>,
      !py.protocol<"Callable", [!py.contract<"builtins.int">] -> [!py.contract<"builtins.str">]>,
      !py.protocol<"Callable", [!py.contract<"builtins.int">, !py.contract<"builtins.object">] -> [!py.contract<"builtins.bool">]>,
      !py.protocol<"Callable", [!py.contract<"builtins.int">, !py.contract<"builtins.object">] -> [!py.contract<"builtins.bool">]>,
      !py.protocol<"Callable", [!py.contract<"builtins.int">, !py.contract<"builtins.int">] -> [!py.contract<"builtins.int">]>,
      !py.protocol<"Callable", [!py.contract<"builtins.int">] -> [!py.contract<"builtins.int">]>
    ],
    method_kinds = ["classmethod", "instance", "instance", "instance",
                    "instance", "instance", "instance", "instance",
                    "instance", "instance", "instance", "instance",
                    "instance", "instance", "instance", "instance",
                    "instance", "instance", "instance", "instance",
                    "instance", "instance", "instance", "instance",
                    "instance", "instance", "instance", "instance", "instance",
                    "instance", "instance"]
  } {}

  py.class @bool attributes {
    base_names = ["int"], ly.typing.final,
    method_names = ["__new__", "__repr__", "__str__", "__bool__", "__and__",
                    "__or__", "__xor__", "__hash__"],
    method_contracts = [
      !py.protocol<"Callable", [!py.type<!py.contract<"builtins.bool">>, !py.contract<"builtins.object">] -> [!py.self]>,
      !py.protocol<"Callable", [!py.contract<"builtins.bool">] -> [!py.contract<"builtins.str">]>,
      !py.protocol<"Callable", [!py.contract<"builtins.bool">] -> [!py.contract<"builtins.str">]>,
      !py.protocol<"Callable", [!py.contract<"builtins.bool">] -> [!py.contract<"builtins.bool">]>,
      !py.protocol<"Callable", [!py.contract<"builtins.bool">, !py.contract<"builtins.bool">] -> [!py.contract<"builtins.bool">]>,
      !py.protocol<"Callable", [!py.contract<"builtins.bool">, !py.contract<"builtins.bool">] -> [!py.contract<"builtins.bool">]>,
      !py.protocol<"Callable", [!py.contract<"builtins.bool">, !py.contract<"builtins.bool">] -> [!py.contract<"builtins.bool">]>,
      !py.protocol<"Callable", [!py.contract<"builtins.bool">] -> [!py.contract<"builtins.int">]>
    ],
    method_kinds = ["classmethod", "instance", "instance", "instance",
                    "instance", "instance", "instance", "instance"]
  } {}

  py.class @float attributes {
    base_names = ["object"], ly.typing.final,
    method_names = ["__new__", "__repr__", "__add__", "__sub__", "__mul__",
                    "__truediv__", "__floordiv__", "__mod__", "__float__",
                    "__bool__", "__round__", "__lt__", "__le__", "__gt__",
                    "__ge__", "__str__", "__eq__", "__ne__", "__pow__",
                    "__hash__", "__abs__"],
    method_contracts = [
      !py.protocol<"Callable", [!py.type<!py.contract<"builtins.float">>, !py.contract<"typing.SupportsFloat">] -> [!py.self]>,
      !py.protocol<"Callable", [!py.contract<"builtins.float">] -> [!py.contract<"builtins.str">]>,
      !py.protocol<"Callable", [!py.contract<"builtins.float">, !py.contract<"builtins.float">] -> [!py.contract<"builtins.float">]>,
      !py.protocol<"Callable", [!py.contract<"builtins.float">, !py.contract<"builtins.float">] -> [!py.contract<"builtins.float">]>,
      !py.protocol<"Callable", [!py.contract<"builtins.float">, !py.contract<"builtins.float">] -> [!py.contract<"builtins.float">]>,
      !py.protocol<"Callable", [!py.contract<"builtins.float">, !py.contract<"builtins.float">] -> [!py.contract<"builtins.float">]>,
      !py.protocol<"Callable", [!py.contract<"builtins.float">, !py.contract<"builtins.float">] -> [!py.contract<"builtins.float">]>,
      !py.protocol<"Callable", [!py.contract<"builtins.float">, !py.contract<"builtins.float">] -> [!py.contract<"builtins.float">]>,
      !py.protocol<"Callable", [!py.contract<"builtins.float">] -> [!py.contract<"builtins.float">]>,
      !py.protocol<"Callable", [!py.contract<"builtins.float">] -> [!py.contract<"builtins.bool">]>,
      !py.protocol<"Callable", [!py.contract<"builtins.float">, !py.union<!py.contract<"typing.SupportsIndex">, !py.literal<None>>] -> [!py.contract<"builtins.float">]>,
      !py.protocol<"Callable", [!py.contract<"builtins.float">, !py.contract<"builtins.float">] -> [!py.contract<"builtins.bool">]>,
      !py.protocol<"Callable", [!py.contract<"builtins.float">, !py.contract<"builtins.float">] -> [!py.contract<"builtins.bool">]>,
      !py.protocol<"Callable", [!py.contract<"builtins.float">, !py.contract<"builtins.float">] -> [!py.contract<"builtins.bool">]>,
      !py.protocol<"Callable", [!py.contract<"builtins.float">, !py.contract<"builtins.float">] -> [!py.contract<"builtins.bool">]>,
      !py.protocol<"Callable", [!py.contract<"builtins.float">] -> [!py.contract<"builtins.str">]>,
      !py.protocol<"Callable", [!py.contract<"builtins.float">, !py.contract<"builtins.object">] -> [!py.contract<"builtins.bool">]>,
      !py.protocol<"Callable", [!py.contract<"builtins.float">, !py.contract<"builtins.object">] -> [!py.contract<"builtins.bool">]>,
      !py.protocol<"Callable", [!py.contract<"builtins.float">, !py.contract<"builtins.float">] -> [!py.contract<"builtins.float">]>,
      !py.protocol<"Callable", [!py.contract<"builtins.float">] -> [!py.contract<"builtins.int">]>,
      !py.protocol<"Callable", [!py.contract<"builtins.float">] -> [!py.contract<"builtins.float">]>
    ],
    method_kinds = ["classmethod", "instance", "instance", "instance",
                    "instance", "instance", "instance", "instance",
                    "instance", "instance", "instance", "instance",
                    "instance", "instance", "instance", "instance", "instance", "instance",
                    "instance", "instance", "instance"]
  } {}

  py.class @complex attributes {base_names = ["object"], ly.typing.final} {}

  py.class @str attributes {
    base_names = ["Sequence", "Hashable"],
    ly.typing.base_args = [[!py.contract<"builtins.str">], []],
    method_names = ["__new__", "__len__", "__iter__", "__getitem__", "__add__",
                    "__contains__", "__eq__", "__lt__", "__le__", "__gt__",
                    "__ge__", "join", "startswith", "endswith", "__repr__", "__str__", "__ne__",
                    "encode", "__hash__"],
    method_contracts = [
      !py.protocol<"Callable", [!py.type<!py.contract<"builtins.str">>, !py.contract<"builtins.object">] -> [!py.self]>,
      !py.protocol<"Callable", [!py.contract<"builtins.str">] -> [!py.contract<"builtins.int">]>,
      !py.protocol<"Callable", [!py.contract<"builtins.str">] -> [!py.contract<"builtins.str_iterator">]>,
      !py.protocol<"Callable", [!py.contract<"builtins.str">, !py.contract<"typing.SupportsIndex">] -> [!py.contract<"builtins.str">]>,
      !py.protocol<"Callable", [!py.contract<"builtins.str">, !py.contract<"builtins.str">] -> [!py.contract<"builtins.str">]>,
      !py.protocol<"Callable", [!py.contract<"builtins.str">, !py.contract<"builtins.object">] -> [!py.contract<"builtins.bool">]>,
      !py.protocol<"Callable", [!py.contract<"builtins.str">, !py.contract<"builtins.object">] -> [!py.contract<"builtins.bool">]>,
      !py.protocol<"Callable", [!py.contract<"builtins.str">, !py.contract<"builtins.str">] -> [!py.contract<"builtins.bool">]>,
      !py.protocol<"Callable", [!py.contract<"builtins.str">, !py.contract<"builtins.str">] -> [!py.contract<"builtins.bool">]>,
      !py.protocol<"Callable", [!py.contract<"builtins.str">, !py.contract<"builtins.str">] -> [!py.contract<"builtins.bool">]>,
      !py.protocol<"Callable", [!py.contract<"builtins.str">, !py.contract<"builtins.str">] -> [!py.contract<"builtins.bool">]>,
      !py.protocol<"Callable", [!py.contract<"builtins.str">, !py.protocol<"Iterable", [!py.contract<"builtins.str">]>] -> [!py.contract<"builtins.str">]>,
      !py.protocol<"Callable", [!py.contract<"builtins.str">, !py.contract<"builtins.str">] -> [!py.contract<"builtins.bool">]>,
      !py.protocol<"Callable", [!py.contract<"builtins.str">, !py.contract<"builtins.str">] -> [!py.contract<"builtins.bool">]>,
      !py.protocol<"Callable", [!py.contract<"builtins.str">] -> [!py.contract<"builtins.str">]>,
      !py.protocol<"Callable", [!py.contract<"builtins.str">] -> [!py.contract<"builtins.str">]>,
      !py.protocol<"Callable", [!py.contract<"builtins.str">, !py.contract<"builtins.object">] -> [!py.contract<"builtins.bool">]>,
      !py.protocol<"Callable", [!py.contract<"builtins.str">] -> [!py.contract<"builtins.bytes">]>,
      !py.protocol<"Callable", [!py.contract<"builtins.str">] -> [!py.contract<"builtins.int">]>
    ],
    method_kinds = ["classmethod", "instance", "instance", "instance",
                    "instance", "instance", "instance", "instance",
                    "instance", "instance", "instance", "instance",
                    "instance", "instance", "instance", "instance", "instance",
                    "instance", "instance"]
  } {}

  py.class @str_iterator attributes {
    base_names = ["Iterator"],
    ly.typing.base_args = [[!py.contract<"builtins.str">]],
    method_names = ["__iter__", "__next__"],
    method_contracts = [
      !py.protocol<"Callable", [!py.contract<"builtins.str_iterator">] -> [!py.self]>,
      !py.protocol<"Callable", [!py.contract<"builtins.str_iterator">] -> [!py.contract<"builtins.str">]>
    ],
    method_kinds = ["instance", "instance"]
  } {}

  py.class @bytes attributes {
    base_names = ["Sequence", "Hashable"],
    ly.typing.base_args = [[!py.contract<"builtins.int">], []],
    ly.typing.final,
    method_names = ["__len__", "__getitem__", "__add__", "__eq__", "__ne__",
                    "__bool__", "__repr__", "__str__", "decode", "__hash__"],
    method_contracts = [
      !py.protocol<"Callable", [!py.contract<"builtins.bytes">] -> [!py.contract<"builtins.int">]>,
      !py.protocol<"Callable", [!py.contract<"builtins.bytes">, !py.contract<"typing.SupportsIndex">] -> [!py.contract<"builtins.int">]>,
      !py.protocol<"Callable", [!py.contract<"builtins.bytes">, !py.contract<"builtins.bytes">] -> [!py.contract<"builtins.bytes">]>,
      !py.protocol<"Callable", [!py.contract<"builtins.bytes">, !py.contract<"builtins.object">] -> [!py.contract<"builtins.bool">]>,
      !py.protocol<"Callable", [!py.contract<"builtins.bytes">, !py.contract<"builtins.object">] -> [!py.contract<"builtins.bool">]>,
      !py.protocol<"Callable", [!py.contract<"builtins.bytes">] -> [!py.contract<"builtins.bool">]>,
      !py.protocol<"Callable", [!py.contract<"builtins.bytes">] -> [!py.contract<"builtins.str">]>,
      !py.protocol<"Callable", [!py.contract<"builtins.bytes">] -> [!py.contract<"builtins.str">]>,
      !py.protocol<"Callable", [!py.contract<"builtins.bytes">] -> [!py.contract<"builtins.str">]>,
      !py.protocol<"Callable", [!py.contract<"builtins.bytes">] -> [!py.contract<"builtins.int">]>
    ],
    method_kinds = ["instance", "instance", "instance", "instance",
                    "instance", "instance", "instance", "instance",
                    "instance", "instance"]
  } {}
  py.class @bytearray attributes {base_names = ["MutableSequence"],
                                 ly.typing.base_args = [[!py.contract<"builtins.int">]],
                                 ly.typing.final} {}
  py.class @memoryview attributes {base_names = ["Sequence"],
                                  ly.typing.base_args = [[!py.contract<"builtins.int">]]} {}

  py.class @slice attributes {
    base_names = ["object"], ly.typing.final,
    ly.typing.params = ["StartT", "StopT", "StepT"],
    method_names = ["indices"],
    method_contracts = [
      !py.protocol<"Callable", [!py.contract<"builtins.slice">, !py.contract<"typing.SupportsIndex">] -> [!py.contract<"builtins.tuple">]>
    ],
    method_kinds = ["instance"]
  } {}

  py.class @tuple attributes {
    base_names = ["Sequence"], ly.typing.params = ["T"],
    ly.runtime.contract = "builtins.tuple", ly.runtime.required,
    ly.runtime.required_deallocator,
    ly.runtime.required_initializers = ["__new__"],
    ly.runtime.required_methods = ["__len__"],
    ly.typing.param_variance = ["covariant"],
    ly.typing.base_args = [[!py.contract<"$T">]],
    method_names = ["__len__", "__contains__", "__getitem__", "__iter__",
                    "__add__", "__mul__", "count", "index", "__repr__",
                    "__hash__", "__eq__", "__ne__", "__lt__", "__le__",
                    "__gt__", "__ge__"],
    method_contracts = [
      !py.protocol<"Callable", [!py.contract<"builtins.tuple">] -> [!py.contract<"builtins.int">]>,
      !py.protocol<"Callable", [!py.contract<"builtins.tuple">, !py.contract<"builtins.object">] -> [!py.contract<"builtins.bool">]>,
      !py.protocol<"Callable", [!py.contract<"builtins.tuple">, !py.contract<"typing.SupportsIndex">] -> [!py.contract<"$T">]>,
      !py.protocol<"Callable", [!py.contract<"builtins.tuple">] -> [!py.protocol<"Iterator", [!py.contract<"$T">]>]>,
      !py.protocol<"Callable", [!py.contract<"builtins.tuple">, !py.contract<"builtins.tuple">] -> [!py.contract<"builtins.tuple">]>,
      !py.protocol<"Callable", [!py.contract<"builtins.tuple">, !py.contract<"typing.SupportsIndex">] -> [!py.contract<"builtins.tuple">]>,
      !py.protocol<"Callable", [!py.contract<"builtins.tuple">, !py.contract<"typing.Any">] -> [!py.contract<"builtins.int">]>,
      !py.protocol<"Callable", [!py.contract<"builtins.tuple">, !py.contract<"typing.Any">, !py.contract<"typing.SupportsIndex">, !py.contract<"typing.SupportsIndex">] -> [!py.contract<"builtins.int">]>,
      !py.protocol<"Callable", [!py.contract<"builtins.tuple">] -> [!py.contract<"builtins.str">]>,
      !py.protocol<"Callable", [!py.contract<"builtins.tuple">] -> [!py.contract<"builtins.int">]>,
      !py.protocol<"Callable", [!py.contract<"builtins.tuple">, !py.contract<"builtins.object">] -> [!py.contract<"builtins.bool">]>,
      !py.protocol<"Callable", [!py.contract<"builtins.tuple">, !py.contract<"builtins.object">] -> [!py.contract<"builtins.bool">]>,
      !py.protocol<"Callable", [!py.contract<"builtins.tuple">, !py.contract<"builtins.tuple">] -> [!py.contract<"builtins.bool">]>,
      !py.protocol<"Callable", [!py.contract<"builtins.tuple">, !py.contract<"builtins.tuple">] -> [!py.contract<"builtins.bool">]>,
      !py.protocol<"Callable", [!py.contract<"builtins.tuple">, !py.contract<"builtins.tuple">] -> [!py.contract<"builtins.bool">]>,
      !py.protocol<"Callable", [!py.contract<"builtins.tuple">, !py.contract<"builtins.tuple">] -> [!py.contract<"builtins.bool">]>
    ],
    method_kinds = ["instance", "instance", "instance", "instance",
                    "instance", "instance", "instance", "instance", "instance",
                    "instance", "instance", "instance", "instance", "instance",
                    "instance", "instance"]
  } {}

  py.class @list attributes {
    base_names = ["MutableSequence"], ly.typing.params = ["T"],
    ly.runtime.contract = "builtins.list", ly.runtime.required,
    ly.runtime.required_deallocator,
    ly.runtime.required_initializers = ["__new__"],
    ly.runtime.required_methods = ["__len__"],
    ly.runtime.required_primitives = ["ensure_capacity"],
    ly.typing.structural_mutators = ["append"],
    ly.typing.base_args = [[!py.contract<"$T">]],
    method_names = ["__init__", "__init__", "append", "extend", "pop",
                    "insert", "remove", "clear", "__len__", "__iter__",
                    "__getitem__", "__setitem__", "__delitem__",
                    "__contains__", "__repr__", "sort", "reverse", "copy",
                    "count", "index", "__add__", "__mul__", "__eq__",
                    "__ne__", "__lt__", "__le__", "__gt__", "__ge__"],
    method_contracts = [
      !py.protocol<"Callable", [!py.contract<"builtins.list">] -> [!py.literal<None>]>,
      !py.protocol<"Callable", [!py.contract<"builtins.list">, !py.protocol<"Iterable", [!py.contract<"$T">]>] -> [!py.literal<None>]>,
      !py.protocol<"Callable", [!py.contract<"builtins.list">, !py.contract<"$T">] -> [!py.literal<None>]>,
      !py.protocol<"Callable", [!py.contract<"builtins.list">, !py.protocol<"Iterable", [!py.contract<"$T">]>] -> [!py.literal<None>]>,
      !py.protocol<"Callable", [!py.contract<"builtins.list">, !py.contract<"typing.SupportsIndex">] -> [!py.contract<"$T">]>,
      !py.protocol<"Callable", [!py.contract<"builtins.list">, !py.contract<"typing.SupportsIndex">, !py.contract<"$T">] -> [!py.literal<None>]>,
      !py.protocol<"Callable", [!py.contract<"builtins.list">, !py.contract<"$T">] -> [!py.literal<None>]>,
      !py.protocol<"Callable", [!py.contract<"builtins.list">] -> [!py.literal<None>]>,
      !py.protocol<"Callable", [!py.contract<"builtins.list">] -> [!py.contract<"builtins.int">]>,
      !py.protocol<"Callable", [!py.contract<"builtins.list">] -> [!py.protocol<"Iterator", [!py.contract<"$T">]>]>,
      !py.protocol<"Callable", [!py.contract<"builtins.list">, !py.contract<"typing.SupportsIndex">] -> [!py.contract<"$T">]>,
      !py.protocol<"Callable", [!py.contract<"builtins.list">, !py.contract<"typing.SupportsIndex">, !py.contract<"$T">] -> [!py.literal<None>]>,
      !py.protocol<"Callable", [!py.contract<"builtins.list">, !py.contract<"typing.SupportsIndex">] -> [!py.literal<None>]>,
      !py.protocol<"Callable", [!py.contract<"builtins.list">, !py.contract<"builtins.object">] -> [!py.contract<"builtins.bool">]>,
      !py.protocol<"Callable", [!py.contract<"builtins.list">] -> [!py.contract<"builtins.str">]>,
      !py.protocol<"Callable", [!py.contract<"builtins.list">] -> [!py.literal<None>]>,
      !py.protocol<"Callable", [!py.contract<"builtins.list">] -> [!py.literal<None>]>,
      !py.protocol<"Callable", [!py.contract<"builtins.list">] -> [!py.contract<"builtins.list", [!py.contract<"$T">]>]>,
      !py.protocol<"Callable", [!py.contract<"builtins.list">, !py.contract<"$T">] -> [!py.contract<"builtins.int">]>,
      !py.protocol<"Callable", [!py.contract<"builtins.list">, !py.contract<"$T">] -> [!py.contract<"builtins.int">]>,
      !py.protocol<"Callable", [!py.contract<"builtins.list">, !py.contract<"builtins.list", [!py.contract<"$T">]>] -> [!py.contract<"builtins.list", [!py.contract<"$T">]>]>,
      !py.protocol<"Callable", [!py.contract<"builtins.list">, !py.contract<"builtins.int">] -> [!py.contract<"builtins.list", [!py.contract<"$T">]>]>,
      !py.protocol<"Callable", [!py.contract<"builtins.list">, !py.contract<"builtins.object">] -> [!py.contract<"builtins.bool">]>,
      !py.protocol<"Callable", [!py.contract<"builtins.list">, !py.contract<"builtins.object">] -> [!py.contract<"builtins.bool">]>,
      !py.protocol<"Callable", [!py.contract<"builtins.list">, !py.contract<"builtins.list">] -> [!py.contract<"builtins.bool">]>,
      !py.protocol<"Callable", [!py.contract<"builtins.list">, !py.contract<"builtins.list">] -> [!py.contract<"builtins.bool">]>,
      !py.protocol<"Callable", [!py.contract<"builtins.list">, !py.contract<"builtins.list">] -> [!py.contract<"builtins.bool">]>,
      !py.protocol<"Callable", [!py.contract<"builtins.list">, !py.contract<"builtins.list">] -> [!py.contract<"builtins.bool">]>
    ],
    method_kinds = ["instance", "instance", "instance", "instance",
                    "instance", "instance", "instance", "instance",
                    "instance", "instance", "instance", "instance",
                    "instance", "instance", "instance", "instance",
                    "instance", "instance", "instance", "instance",
                    "instance", "instance", "instance", "instance",
                    "instance", "instance", "instance", "instance"]
  } {}

  py.class @set attributes {
    base_names = ["MutableSet"], ly.typing.params = ["T"],
    ly.typing.base_args = [[!py.contract<"$T">]],
    ly.runtime.contract = "builtins.set", ly.runtime.required,
    ly.runtime.required_deallocator,
    ly.runtime.required_initializers = ["__new__"],
    ly.runtime.required_methods = ["__len__"],
    ly.typing.structural_mutators = ["add", "update", "intersection_update",
                                     "difference_update",
                                     "symmetric_difference_update"],
    method_names = ["__init__", "add", "__len__", "__iter__",
                    "__contains__", "discard", "remove", "clear", "copy",
                    "update", "intersection_update", "difference_update",
                    "symmetric_difference_update",
                    "union", "intersection", "difference",
                    "symmetric_difference", "issubset", "issuperset",
                    "isdisjoint", "__eq__", "__ne__", "__or__", "__and__",
                    "__sub__", "__xor__", "__le__", "__lt__", "__ge__",
                    "__gt__"],
    method_contracts = [
      !py.protocol<"Callable", [!py.contract<"builtins.set">] -> [!py.literal<None>]>,
      !py.protocol<"Callable", [!py.contract<"builtins.set">, !py.contract<"$T">] -> [!py.literal<None>]>,
      !py.protocol<"Callable", [!py.contract<"builtins.set">] -> [!py.contract<"builtins.int">]>,
      !py.protocol<"Callable", [!py.contract<"builtins.set">] -> [!py.protocol<"Iterator", [!py.contract<"$T">]>]>,
      !py.protocol<"Callable", [!py.contract<"builtins.set">, !py.contract<"builtins.object">] -> [!py.contract<"builtins.bool">]>,
      !py.protocol<"Callable", [!py.contract<"builtins.set">, !py.contract<"$T">] -> [!py.literal<None>]>,
      !py.protocol<"Callable", [!py.contract<"builtins.set">, !py.contract<"$T">] -> [!py.literal<None>]>,
      !py.protocol<"Callable", [!py.contract<"builtins.set">] -> [!py.literal<None>]>,
      !py.protocol<"Callable", [!py.contract<"builtins.set">] -> [!py.contract<"builtins.set", [!py.contract<"$T">]>]>,
      !py.protocol<"Callable", [!py.contract<"builtins.set">, !py.contract<"builtins.set", [!py.contract<"$T">]>] -> [!py.literal<None>]>,
      !py.protocol<"Callable", [!py.contract<"builtins.set">, !py.contract<"builtins.set", [!py.contract<"$T">]>] -> [!py.literal<None>]>,
      !py.protocol<"Callable", [!py.contract<"builtins.set">, !py.contract<"builtins.set", [!py.contract<"$T">]>] -> [!py.literal<None>]>,
      !py.protocol<"Callable", [!py.contract<"builtins.set">, !py.contract<"builtins.set", [!py.contract<"$T">]>] -> [!py.literal<None>]>,
      !py.protocol<"Callable", [!py.contract<"builtins.set">, !py.contract<"builtins.set", [!py.contract<"$T">]>] -> [!py.contract<"builtins.set", [!py.contract<"$T">]>]>,
      !py.protocol<"Callable", [!py.contract<"builtins.set">, !py.contract<"builtins.set", [!py.contract<"$T">]>] -> [!py.contract<"builtins.set", [!py.contract<"$T">]>]>,
      !py.protocol<"Callable", [!py.contract<"builtins.set">, !py.contract<"builtins.set", [!py.contract<"$T">]>] -> [!py.contract<"builtins.set", [!py.contract<"$T">]>]>,
      !py.protocol<"Callable", [!py.contract<"builtins.set">, !py.contract<"builtins.set", [!py.contract<"$T">]>] -> [!py.contract<"builtins.set", [!py.contract<"$T">]>]>,
      !py.protocol<"Callable", [!py.contract<"builtins.set">, !py.contract<"builtins.set">] -> [!py.contract<"builtins.bool">]>,
      !py.protocol<"Callable", [!py.contract<"builtins.set">, !py.contract<"builtins.set">] -> [!py.contract<"builtins.bool">]>,
      !py.protocol<"Callable", [!py.contract<"builtins.set">, !py.contract<"builtins.set">] -> [!py.contract<"builtins.bool">]>,
      !py.protocol<"Callable", [!py.contract<"builtins.set">, !py.contract<"builtins.object">] -> [!py.contract<"builtins.bool">]>,
      !py.protocol<"Callable", [!py.contract<"builtins.set">, !py.contract<"builtins.object">] -> [!py.contract<"builtins.bool">]>,
      !py.protocol<"Callable", [!py.contract<"builtins.set">, !py.contract<"builtins.set", [!py.contract<"$T">]>] -> [!py.contract<"builtins.set", [!py.contract<"$T">]>]>,
      !py.protocol<"Callable", [!py.contract<"builtins.set">, !py.contract<"builtins.set", [!py.contract<"$T">]>] -> [!py.contract<"builtins.set", [!py.contract<"$T">]>]>,
      !py.protocol<"Callable", [!py.contract<"builtins.set">, !py.contract<"builtins.set", [!py.contract<"$T">]>] -> [!py.contract<"builtins.set", [!py.contract<"$T">]>]>,
      !py.protocol<"Callable", [!py.contract<"builtins.set">, !py.contract<"builtins.set", [!py.contract<"$T">]>] -> [!py.contract<"builtins.set", [!py.contract<"$T">]>]>,
      !py.protocol<"Callable", [!py.contract<"builtins.set">, !py.contract<"builtins.set">] -> [!py.contract<"builtins.bool">]>,
      !py.protocol<"Callable", [!py.contract<"builtins.set">, !py.contract<"builtins.set">] -> [!py.contract<"builtins.bool">]>,
      !py.protocol<"Callable", [!py.contract<"builtins.set">, !py.contract<"builtins.set">] -> [!py.contract<"builtins.bool">]>,
      !py.protocol<"Callable", [!py.contract<"builtins.set">, !py.contract<"builtins.set">] -> [!py.contract<"builtins.bool">]>
    ],
    method_kinds = ["instance", "instance", "instance", "instance",
                    "instance", "instance", "instance", "instance",
                    "instance", "instance", "instance", "instance",
                    "instance", "instance", "instance", "instance",
                    "instance", "instance", "instance", "instance",
                    "instance", "instance", "instance", "instance",
                    "instance", "instance", "instance", "instance",
                    "instance", "instance"]
  } {}

  py.class @dict attributes {
    base_names = ["MutableMapping"], ly.typing.params = ["K", "V"],
    ly.runtime.contract = "builtins.dict", ly.runtime.required,
    ly.runtime.required_deallocator,
    ly.runtime.required_initializers = ["__new__"],
    ly.runtime.required_methods = ["__len__"],
    ly.runtime.required_primitives = ["ensure_capacity"],
    ly.typing.structural_mutators = ["__setitem__", "update"],
    ly.typing.base_args = [[!py.contract<"$K">, !py.contract<"$V">]],
    method_names = ["__init__", "__init__", "__len__", "__iter__",
                    "__getitem__", "get", "get", "get", "__setitem__",
                    "__delitem__", "__contains__", "keys", "values", "items",
                    "__repr__", "clear", "copy", "update", "__or__",
                    "__eq__", "__ne__", "pop", "pop"],
    method_contracts = [
      !py.protocol<"Callable", [!py.contract<"builtins.dict">] -> [!py.literal<None>]>,
      !py.protocol<"Callable", [!py.contract<"builtins.dict">, !py.protocol<"Iterable", [!py.contract<"builtins.tuple", [!py.contract<"$K">, !py.contract<"$V">]>]>] -> [!py.literal<None>]>,
      !py.protocol<"Callable", [!py.contract<"builtins.dict">] -> [!py.contract<"builtins.int">]>,
      !py.protocol<"Callable", [!py.contract<"builtins.dict">] -> [!py.protocol<"Iterator", [!py.contract<"$K">]>]>,
      !py.protocol<"Callable", [!py.contract<"builtins.dict">, !py.contract<"$K">] -> [!py.contract<"$V">]>,
      !py.protocol<"Callable", [!py.contract<"builtins.dict">, !py.contract<"$K">] -> [!py.union<!py.contract<"$V">, !py.literal<None>>]>,
      !py.protocol<"Callable", [!py.contract<"builtins.dict">, !py.contract<"$K">, !py.contract<"$V">] -> [!py.contract<"$V">]>,
      !py.protocol<"Callable", [!py.contract<"builtins.dict">, !py.contract<"$K">, !py.typevar<"D">] -> [!py.union<!py.contract<"$V">, !py.typevar<"D">>]>,
      !py.protocol<"Callable", [!py.contract<"builtins.dict">, !py.contract<"$K">, !py.contract<"$V">] -> [!py.literal<None>]>,
      !py.protocol<"Callable", [!py.contract<"builtins.dict">, !py.contract<"$K">] -> [!py.literal<None>]>,
      !py.protocol<"Callable", [!py.contract<"builtins.dict">, !py.contract<"builtins.object">] -> [!py.contract<"builtins.bool">]>,
      !py.protocol<"Callable", [!py.contract<"builtins.dict">] -> [!py.contract<"builtins.dict_keys", [!py.contract<"$K">, !py.contract<"$V">]>]>,
      !py.protocol<"Callable", [!py.contract<"builtins.dict">] -> [!py.contract<"builtins.dict_values", [!py.contract<"$K">, !py.contract<"$V">]>]>,
      !py.protocol<"Callable", [!py.contract<"builtins.dict">] -> [!py.contract<"builtins.dict_items", [!py.contract<"$K">, !py.contract<"$V">]>]>,
      !py.protocol<"Callable", [!py.contract<"builtins.dict">] -> [!py.contract<"builtins.str">]>,
      !py.protocol<"Callable", [!py.contract<"builtins.dict">] -> [!py.literal<None>]>,
      !py.protocol<"Callable", [!py.contract<"builtins.dict">] -> [!py.contract<"builtins.dict", [!py.contract<"$K">, !py.contract<"$V">]>]>,
      !py.protocol<"Callable", [!py.contract<"builtins.dict">, !py.contract<"builtins.dict", [!py.contract<"$K">, !py.contract<"$V">]>] -> [!py.literal<None>]>,
      !py.protocol<"Callable", [!py.contract<"builtins.dict">, !py.contract<"builtins.dict", [!py.contract<"$K">, !py.contract<"$V">]>] -> [!py.contract<"builtins.dict", [!py.contract<"$K">, !py.contract<"$V">]>]>,
      !py.protocol<"Callable", [!py.contract<"builtins.dict">, !py.contract<"builtins.object">] -> [!py.contract<"builtins.bool">]>,
      !py.protocol<"Callable", [!py.contract<"builtins.dict">, !py.contract<"builtins.object">] -> [!py.contract<"builtins.bool">]>,
      !py.protocol<"Callable", [!py.contract<"builtins.dict">, !py.contract<"$K">] -> [!py.contract<"$V">]>,
      !py.protocol<"Callable", [!py.contract<"builtins.dict">, !py.contract<"$K">, !py.contract<"$V">] -> [!py.contract<"$V">]>
    ],
    method_kinds = ["instance", "instance", "instance", "instance",
                    "instance", "instance", "instance", "instance",
                    "instance", "instance", "instance", "instance",
                    "instance", "instance", "instance", "instance",
                    "instance", "instance", "instance", "instance",
                    "instance", "instance", "instance"]
  } {}

  py.class @MappingView attributes {
    base_names = ["Sized"], ly.typing.abstract,
    method_names = ["__len__"],
    method_contracts = [
      !py.protocol<"Callable", [!py.contract<"typing.MappingView">] -> [!py.contract<"builtins.int">]>
    ],
    method_kinds = ["instance"]
  } {}
  py.class @KeysView attributes {
    base_names = ["MappingView", "AbstractSet"], ly.typing.params = ["K"],
    ly.typing.param_variance = ["covariant"],
    ly.typing.base_args = [[], [!py.contract<"$K">]],
    method_names = ["__contains__", "__iter__"],
    method_contracts = [
      !py.protocol<"Callable", [!py.contract<"typing.KeysView">, !py.contract<"builtins.object">] -> [!py.contract<"builtins.bool">]>,
      !py.protocol<"Callable", [!py.contract<"typing.KeysView">] -> [!py.protocol<"Iterator", [!py.contract<"$K">]>]>
    ],
    method_kinds = ["instance", "instance"]
  } {}
  py.class @ValuesView attributes {
    base_names = ["MappingView", "Collection"], ly.typing.params = ["V"],
    ly.typing.param_variance = ["covariant"],
    ly.typing.base_args = [[], [!py.contract<"$V">]],
    method_names = ["__contains__", "__iter__"],
    method_contracts = [
      !py.protocol<"Callable", [!py.contract<"typing.ValuesView">, !py.contract<"builtins.object">] -> [!py.contract<"builtins.bool">]>,
      !py.protocol<"Callable", [!py.contract<"typing.ValuesView">] -> [!py.protocol<"Iterator", [!py.contract<"$V">]>]>
    ],
    method_kinds = ["instance", "instance"]
  } {}
  py.class @ItemsView attributes {
    base_names = ["MappingView", "AbstractSet"], ly.typing.params = ["K", "V"],
    ly.typing.param_variance = ["covariant", "covariant"],
    ly.typing.base_args = [[], [!py.contract<"builtins.tuple">]],
    method_names = ["__contains__", "__iter__"],
    method_contracts = [
      !py.protocol<"Callable", [!py.contract<"typing.ItemsView">, !py.contract<"builtins.tuple">] -> [!py.contract<"builtins.bool">]>,
      !py.protocol<"Callable", [!py.contract<"typing.ItemsView">] -> [!py.protocol<"Iterator", [!py.contract<"builtins.tuple", [!py.contract<"$K">, !py.contract<"$V">]>]>]>
    ],
    method_kinds = ["instance", "instance"]
  } {}
  py.class @dict_keys attributes {
    base_names = ["KeysView"], ly.typing.final,
    ly.typing.params = ["K", "V"],
    ly.typing.param_variance = ["covariant", "covariant"],
    ly.typing.base_args = [[!py.contract<"$K">]],
    method_names = ["__reversed__"],
    method_contracts = [
      !py.protocol<"Callable", [!py.contract<"builtins.dict_keys", [!py.contract<"$K">, !py.contract<"$V">]>] -> [!py.protocol<"Iterator", [!py.contract<"$K">]>]>
    ],
    method_kinds = ["instance"]
  } {}
  py.class @dict_values attributes {
    base_names = ["ValuesView"], ly.typing.final,
    ly.typing.params = ["K", "V"],
    ly.typing.param_variance = ["covariant", "covariant"],
    ly.typing.base_args = [[!py.contract<"$V">]],
    method_names = ["__reversed__"],
    method_contracts = [
      !py.protocol<"Callable", [!py.contract<"builtins.dict_values", [!py.contract<"$K">, !py.contract<"$V">]>] -> [!py.protocol<"Iterator", [!py.contract<"$V">]>]>
    ],
    method_kinds = ["instance"]
  } {}
  py.class @dict_items attributes {
    base_names = ["ItemsView"], ly.typing.final,
    ly.typing.params = ["K", "V"],
    ly.typing.param_variance = ["covariant", "covariant"],
    ly.typing.base_args = [[!py.contract<"$K">, !py.contract<"$V">]],
    method_names = ["__reversed__"],
    method_contracts = [
      !py.protocol<"Callable", [!py.contract<"builtins.dict_items", [!py.contract<"$K">, !py.contract<"$V">]>] -> [!py.protocol<"Iterator", [!py.contract<"builtins.tuple", [!py.contract<"$K">, !py.contract<"$V">]>]>]>
    ],
    method_kinds = ["instance"]
  } {}

  py.class @frozenset attributes {base_names = ["AbstractSet", "Hashable"],
                                 ly.typing.params = ["T"],
                                 ly.typing.base_args = [[!py.contract<"$T">], []]} {}
  py.class @range attributes {base_names = ["Sequence", "Hashable"],
                             ly.typing.base_args = [[!py.contract<"builtins.int">], []],
                             ly.typing.final,
    method_names = ["__new__", "__new__", "__new__", "__init__", "__iter__"],
    method_contracts = [
      !py.protocol<"Callable", [!py.type<!py.contract<"builtins.range">>, !py.contract<"builtins.int">] -> [!py.self]>,
      !py.protocol<"Callable", [!py.type<!py.contract<"builtins.range">>, !py.contract<"builtins.int">, !py.contract<"builtins.int">] -> [!py.self]>,
      !py.protocol<"Callable", [!py.type<!py.contract<"builtins.range">>, !py.contract<"builtins.int">, !py.contract<"builtins.int">, !py.contract<"builtins.int">] -> [!py.self]>,
      !py.protocol<"Callable", [!py.contract<"builtins.range">, !py.paramspec<"P">] -> [!py.literal<None>]>,
      !py.protocol<"Callable", [!py.contract<"builtins.range">] -> [!py.contract<"builtins.range_iterator">]>
    ],
    method_kinds = ["classmethod", "classmethod", "classmethod", "instance",
                    "instance"]
  } {}

  py.class @range_iterator attributes {
    base_names = ["Iterator"],
    ly.typing.base_args = [[!py.contract<"builtins.int">]],
    method_names = ["__iter__", "__next__"],
    method_contracts = [
      !py.protocol<"Callable", [!py.contract<"builtins.range_iterator">] -> [!py.self]>,
      !py.protocol<"Callable", [!py.contract<"builtins.range_iterator">] -> [!py.contract<"builtins.int">]>
    ],
    method_kinds = ["instance", "instance"]
  } {}

  py.class @BaseException attributes {
    base_names = ["object"],
    field_names = ["args", "__cause__", "__context__", "__suppress_context__",
                   "__traceback__"],
    field_contract_types = [
      !py.contract<"builtins.tuple">,
      !py.union<!py.contract<"builtins.BaseException">, !py.literal<None>>,
      !py.union<!py.contract<"builtins.BaseException">, !py.literal<None>>,
      !py.contract<"builtins.bool">,
      !py.union<!py.contract<"types.TracebackType">, !py.literal<None>>
    ],
    method_names = ["__init__", "with_traceback", "__str__", "__repr__",
                    "add_note"],
    method_contracts = [
      !py.protocol<"Callable", [!py.contract<"builtins.BaseException">, !py.paramspec<"P">] -> [!py.literal<None>]>,
      !py.protocol<"Callable", [!py.contract<"builtins.BaseException">, !py.union<!py.contract<"types.TracebackType">, !py.literal<None>>] -> [!py.self]>,
      !py.protocol<"Callable", [!py.contract<"builtins.BaseException">] -> [!py.contract<"builtins.str">]>,
      !py.protocol<"Callable", [!py.contract<"builtins.BaseException">] -> [!py.contract<"builtins.str">]>,
      !py.protocol<"Callable", [!py.contract<"builtins.BaseException">, !py.contract<"builtins.str">] -> [!py.literal<None>]>
    ],
    method_kinds = ["instance", "instance", "instance", "instance",
                    "instance"]
  } {}
  py.class @Exception attributes {base_names = ["BaseException"]} {}
  py.class @RuntimeError attributes {base_names = ["Exception"]} {}
  py.class @TypeError attributes {base_names = ["Exception"]} {}
  py.class @ValueError attributes {base_names = ["Exception"]} {}
  py.class @ArithmeticError attributes {base_names = ["Exception"]} {}
  py.class @LookupError attributes {base_names = ["Exception"]} {}
  py.class @ZeroDivisionError attributes {base_names = ["ArithmeticError"]} {}
  py.class @KeyError attributes {base_names = ["LookupError"]} {}
  py.class @IndexError attributes {base_names = ["LookupError"]} {}
  py.class @AssertionError attributes {base_names = ["Exception"]} {}
  py.class @StopIteration attributes {
    base_names = ["Exception"],
    field_names = ["value"],
    field_contract_types = [!py.contract<"typing.Any">]
  } {}
  py.class @StopAsyncIteration attributes {base_names = ["Exception"]} {}
  // SystemExit derives from BaseException directly (never caught by
  // `except Exception`); the top-level runner converts it to the process
  // exit status instead of printing a traceback.
  py.class @SystemExit attributes {base_names = ["BaseException"]} {}
  // GeneratorExit derives from BaseException directly (never caught by
  // `except Exception`); generator.close() injects it at the suspension
  // point so the body's finally blocks run.
  py.class @GeneratorExit attributes {base_names = ["BaseException"]} {}
  py.class @OSError attributes {base_names = ["Exception"]} {}
  py.class @FileNotFoundError attributes {base_names = ["OSError"]} {}

  // ===========================================================
  // Lowering strategies (transform dialect carrier) -- layer 4 of the
  // transformation stack: target-selected,
  // schedule-shaped transformations that ship WITH the module instead of in
  // C++. Per-op lowerings stay in RuntimeBundleLowerer (layers 1-2); stage
  // ordering stays in LoweringPipeline.cpp (layer 3).
  //
  // A modules/<name>.mlir may declare lowering strategies as a nested
  // strategy-library module marked `transform.with_named_sequence`. The
  // runtime import skips it (it never merges into the user module); the
  // lowering pipeline's strategy interpreter collects these libraries from
  // the embedded manifests and applies matched sequences to the user module
  // via transform::applyTransforms -- matchers select payload
  // ops (transform.foreach_match), actions rewrite them
  // (transform.apply_patterns / transform.include).
  // ===========================================================
  module @__lython_lowering_strategies attributes {transform.with_named_sequence} {
    // Post-import cleanup: the user module was canonicalized before the
    // runtime implementations were imported (pipeline phase 6 runs before
    // phase 8), so the freshly imported runtime function bodies reach the
    // runtime lowering uncanonicalized. Re-run canonicalization + CSE over
    // the whole module once the implementations are in.
    transform.named_sequence @__lython_strategy_post_import_cleanup(%root: !transform.any_op) {
      %canonicalized = transform.apply_registered_pass "canonicalize" to %root : (!transform.any_op) -> !transform.any_op
      %cleaned = transform.apply_registered_pass "cse" to %canonicalized : (!transform.any_op) -> !transform.any_op
      transform.yield
    }
  }

  // ===========================================================
  // Runtime implementations (contract + impl co-located).
  // ===========================================================

  // ===== impls: object =====
  memref.global "private" constant @__ly_bool_repr_true : memref<4xi8> = dense<[84, 114, 117, 101]>
  memref.global "private" constant @__ly_bool_repr_false : memref<5xi8> = dense<[70, 97, 108, 115, 101]>

  // ABI shape declarations are manifest entries: they describe the physical
  // runtime bundle for contracts whose structural signatures live elsewhere.
  func.func private @LyNone_Shape() attributes {ly.runtime.contract = "types.NoneType", ly.runtime.shape}

  func.func private @LyObject_Shape() -> memref<16xi64> attributes {ly.runtime.contract = "builtins.object", ly.runtime.shape}

  func.func private @LyBool_Shape() -> i1 attributes {ly.runtime.contract = "builtins.bool", ly.runtime.shape}


  func.func private @LyBuiltin_Len() -> (memref<2xi64>, memref<2xi64>, memref<?xi32>) attributes {ly.runtime.builtin = "len", ly.runtime.builtin_lowering = "method", ly.runtime.builtin_method = "__len__", ly.runtime.contract = "builtins.object", ly.runtime.primitive = "builtin_len", ly.runtime.result_contract = "builtins.int"}

  func.func private @LyBuiltin_Hash() -> (memref<2xi64>, memref<2xi64>, memref<?xi32>) attributes {ly.runtime.builtin = "hash", ly.runtime.builtin_lowering = "method", ly.runtime.builtin_method = "__hash__", ly.runtime.contract = "builtins.object", ly.runtime.primitive = "builtin_hash", ly.runtime.result_contract = "builtins.int"}

  func.func @LyObject_Init(%header: memref<16xi64> {ly.ownership.object_header}) attributes {ly.runtime.class_id = 0 : i64, ly.runtime.contract = "builtins.object", ly.runtime.method = "__init__"} {
    func.return
  }

  func.func private @LyObject_ReleaseBoxedPayloadRaw(%box: memref<16xi64>)

  // Liveness pin: a no-op call whose operand keeps a box alive past calls
  // that consumed only its raw pointer words (the same device the container
  // paths use with __len__).
  func.func @LyObject_Touch(%box: memref<16xi64>) attributes {ly.runtime.contract = "builtins.object", ly.runtime.primitive = "touch"} {
    func.return
  }

  // "<object object at 0x"
  memref.global "private" constant @__ly_object_repr_prefix : memref<20xi8> = dense<[60, 111, 98, 106, 101, 99, 116, 32, 111, 98, 106, 101, 99, 116, 32, 97, 116, 32, 48, 120]>
  // "None"
  memref.global "private" constant @__ly_object_repr_none : memref<4xi8> = dense<[78, 111, 110, 101]>

  // repr of an erased object box: dispatch the payload class through the
  // boxed-repr hook; the None handle prints "None"; anything unhandled gets
  // the CPython default `<object object at 0x...>` form.
  func.func @LyObject_BoxedRepr(%box: memref<16xi64>) -> (memref<2xi64>, memref<?xi8>) attributes {ly.ownership.owned_results = [0], ly.runtime.contract = "builtins.object", ly.runtime.method = "__repr__", ly.runtime.result_contract = "builtins.str"} {
    %c0 = arith.constant 0 : index
    %c1 = arith.constant 1 : index
    %c2 = arith.constant 2 : index
    %zero = arith.constant 0 : i64
    %class_id = memref.load %box[%c1] : memref<16xi64>
    %entity = memref.load %box[%c2] : memref<16xi64>
    %class_zero = arith.cmpi eq, %class_id, %zero : i64
    cf.cond_br %class_zero, ^zero_class, ^try_hook

  ^zero_class:
    %entity_zero = arith.cmpi eq, %entity, %zero : i64
    cf.cond_br %entity_zero, ^none, ^default

  ^none:
    %none_static = memref.get_global @__ly_object_repr_none : memref<4xi8>
    %none_bytes = memref.cast %none_static : memref<4xi8> to memref<?xi8>
    %none_len = arith.constant 4 : i64
    %nh, %nb = func.call @LyUnicode_FromBytes(%none_bytes, %c0, %none_len) : (memref<?xi8>, index, i64) -> (memref<2xi64>, memref<?xi8>)
    cf.br ^done(%nh, %nb : memref<2xi64>, memref<?xi8>)

  ^try_hook:
    %box_idx = memref.extract_aligned_pointer_as_index %box : memref<16xi64> -> index
    %box_i64 = arith.index_cast %box_idx : index to i64
    %box_ptr = llvm.inttoptr %box_i64 : i64 to !llvm.ptr
    %hooked:3 = func.call @__ly_repr_boxed_by_contract(%box_ptr, %class_id) : (!llvm.ptr, i64) -> (memref<2xi64>, memref<?xi8>, i1)
    cf.cond_br %hooked#2, ^done(%hooked#0, %hooked#1 : memref<2xi64>, memref<?xi8>), ^default

  ^default:
    %prefix_static = memref.get_global @__ly_object_repr_prefix : memref<20xi8>
    %prefix = memref.cast %prefix_static : memref<20xi8> to memref<?xi8>
    %prefix_len = arith.constant 20 : i64
    %header_sub = memref.subview %box[0] [2] [1] : memref<16xi64> to memref<2xi64, strided<[1]>>
    %header_view = memref.cast %header_sub : memref<2xi64, strided<[1]>> to memref<2xi64, strided<[1], offset: ?>>
    %dh, %db = func.call @LyObject_DefaultRepr(%header_view, %prefix, %prefix_len) : (memref<2xi64, strided<[1], offset: ?>>, memref<?xi8>, i64) -> (memref<2xi64>, memref<?xi8>)
    cf.br ^done(%dh, %db : memref<2xi64>, memref<?xi8>)

  ^done(%rh: memref<2xi64>, %rb: memref<?xi8>):
    func.return %rh, %rb : memref<2xi64>, memref<?xi8>
  }

  func.func private @__ly_str_boxed_by_contract(%box: !llvm.ptr, %class_id: i64) -> (memref<2xi64>, memref<?xi8>, i1)

  // str() of an erased object box (print's conversion): classes with a
  // boxed-conforming __str__ dispatch through the str hook (str prints
  // unquoted); everything else falls back to the repr form, matching
  // CPython where str(x) == repr(x) for the remaining builtins.
  func.func @LyObject_BoxedStr(%box: memref<16xi64>) -> (memref<2xi64>, memref<?xi8>) attributes {ly.ownership.owned_results = [0], ly.runtime.contract = "builtins.object", ly.runtime.method = "__str__", ly.runtime.result_contract = "builtins.str"} {
    %c1 = arith.constant 1 : index
    %zero = arith.constant 0 : i64
    %class_id = memref.load %box[%c1] : memref<16xi64>
    %class_zero = arith.cmpi eq, %class_id, %zero : i64
    cf.cond_br %class_zero, ^fallback, ^try_hook

  ^try_hook:
    %box_idx = memref.extract_aligned_pointer_as_index %box : memref<16xi64> -> index
    %box_i64 = arith.index_cast %box_idx : index to i64
    %box_ptr = llvm.inttoptr %box_i64 : i64 to !llvm.ptr
    %hooked:3 = func.call @__ly_str_boxed_by_contract(%box_ptr, %class_id) : (!llvm.ptr, i64) -> (memref<2xi64>, memref<?xi8>, i1)
    cf.cond_br %hooked#2, ^done(%hooked#0, %hooked#1 : memref<2xi64>, memref<?xi8>), ^fallback

  ^fallback:
    %fh, %fb = func.call @LyObject_BoxedRepr(%box) : (memref<16xi64>) -> (memref<2xi64>, memref<?xi8>)
    cf.br ^done(%fh, %fb : memref<2xi64>, memref<?xi8>)

  ^done(%rh: memref<2xi64>, %rb: memref<?xi8>):
    func.return %rh, %rb : memref<2xi64>, memref<?xi8>
  }

  func.func @LyObject_DecRef(%box: memref<16xi64> {ly.ownership.object_header}) attributes {ly.ownership.release_args = [0], ly.runtime.contract = "builtins.object", ly.runtime.deallocator} {
    %storage = memref.cast %box : memref<16xi64> to memref<?xi64>
    %became_zero = func.call @LyObject_ReleaseStorageToZero(%storage) : (memref<?xi64>) -> i1
    cf.cond_br %became_zero, ^dealloc, ^done

  ^dealloc:
    func.call @LyObject_ReleaseBoxedPayloadRaw(%box) : (memref<16xi64>) -> ()
    memref.dealloc %box : memref<16xi64>
    cf.br ^done

  ^done:
    func.return
  }

  func.func @LyObject_DefaultRepr(%header: memref<2xi64, strided<[1], offset: ?>> {ly.ownership.object_header}, %prefix: memref<?xi8>, %prefix_len: i64) -> (memref<2xi64>, memref<?xi8>) attributes {ly.ownership.owned_results = [0], ly.runtime.contract = "builtins.object", ly.runtime.primitive = "default_repr", ly.runtime.result_contract = "builtins.str"} {
    %zero = arith.constant 0 : i64
    %one = arith.constant 1 : i64
    %sixteen = arith.constant 16 : i64
    %max_digits_index = arith.constant 16 : index
    %lower = arith.constant 0 : index
    %step = arith.constant 1 : index
    %ascii_zero = arith.constant 48 : i64
    %ascii_a_minus_ten = arith.constant 87 : i64
    %ascii_gt = arith.constant 62 : i8

    %ptr_index = memref.extract_aligned_pointer_as_index %header : memref<2xi64, strided<[1], offset: ?>> -> index
    %ptr = arith.index_cast %ptr_index : index to i64
    %counted:2 = scf.for %i = %lower to %max_digits_index step %step iter_args(%n = %ptr, %digits = %zero) -> (i64, i64) {
      %active = arith.cmpi ne, %n, %zero : i64
      %next_n_active = arith.divui %n, %sixteen : i64
      %next_n = arith.select %active, %next_n_active, %n : i1, i64
      %incremented = arith.addi %digits, %one : i64
      %next_digits = arith.select %active, %incremented, %digits : i1, i64
      scf.yield %next_n, %next_digits : i64, i64
    }
    %ptr_is_zero = arith.cmpi eq, %ptr, %zero : i64
    %hex_digits = arith.select %ptr_is_zero, %one, %counted#1 : i1, i64
    %body_len = arith.addi %hex_digits, %one : i64
    %total_len = arith.addi %prefix_len, %body_len : i64
    %total_len_index = arith.index_cast %total_len : i64 to index
    %prefix_len_index = arith.index_cast %prefix_len : i64 to index
    %hex_digits_index = arith.index_cast %hex_digits : i64 to index
    %buffer = memref.alloca(%total_len_index) : memref<?xi8>

    scf.for %i = %lower to %prefix_len_index step %step {
      %byte = memref.load %prefix[%i] : memref<?xi8>
      memref.store %byte, %buffer[%i] : memref<?xi8>
    }

    scf.for %i = %lower to %hex_digits_index step %step iter_args(%n = %ptr) -> (i64) {
      %digit = arith.remui %n, %sixteen : i64
      %ten = arith.constant 10 : i64
      %is_decimal = arith.cmpi ult, %digit, %ten : i64
      %decimal_ch = arith.addi %digit, %ascii_zero : i64
      %alpha_ch = arith.addi %digit, %ascii_a_minus_ten : i64
      %ch_i64 = arith.select %is_decimal, %decimal_ch, %alpha_ch : i1, i64
      %ch = arith.trunci %ch_i64 : i64 to i8
      %one_index = arith.constant 1 : index
      %last_digit = arith.subi %hex_digits_index, %one_index : index
      %offset = arith.subi %last_digit, %i : index
      %dest = arith.addi %prefix_len_index, %offset : index
      memref.store %ch, %buffer[%dest] : memref<?xi8>
      %next = arith.divui %n, %sixteen : i64
      scf.yield %next : i64
    }

    %suffix_pos = arith.addi %prefix_len_index, %hex_digits_index : index
    memref.store %ascii_gt, %buffer[%suffix_pos] : memref<?xi8>
    %start = arith.constant 0 : index
    %result_header, %result_bytes = func.call @LyUnicode_FromBytes(%buffer, %start, %total_len) : (memref<?xi8>, index, i64) -> (memref<2xi64>, memref<?xi8>)
    func.return %result_header, %result_bytes : memref<2xi64>, memref<?xi8>
  }

  func.func @LyBool_Repr(%value: i1) -> (memref<2xi64>, memref<?xi8>) attributes {ly.ownership.owned_results = [0], ly.runtime.contract = "builtins.bool", ly.runtime.method = "__repr__", ly.runtime.result_contract = "builtins.str"} {
    %c0 = arith.constant 0 : index
    %result:2 = scf.if %value -> (memref<2xi64>, memref<?xi8>) {
      %true_static = memref.get_global @__ly_bool_repr_true : memref<4xi8>
      %true_bytes = memref.cast %true_static : memref<4xi8> to memref<?xi8>
      %true_len = arith.constant 4 : i64
      %header, %bytes = func.call @LyUnicode_FromBytes(%true_bytes, %c0, %true_len) : (memref<?xi8>, index, i64) -> (memref<2xi64>, memref<?xi8>)
      scf.yield %header, %bytes : memref<2xi64>, memref<?xi8>
    } else {
      %false_static = memref.get_global @__ly_bool_repr_false : memref<5xi8>
      %false_bytes = memref.cast %false_static : memref<5xi8> to memref<?xi8>
      %false_len = arith.constant 5 : i64
      %header, %bytes = func.call @LyUnicode_FromBytes(%false_bytes, %c0, %false_len) : (memref<?xi8>, index, i64) -> (memref<2xi64>, memref<?xi8>)
      scf.yield %header, %bytes : memref<2xi64>, memref<?xi8>
    }
    func.return %result#0, %result#1 : memref<2xi64>, memref<?xi8>
  }

  // Boxed bool: two immortal singletons (CPython's True/False semantics).
  // Layout follows the shared header contract: [refcount, class_id, value].
  // The refcount starts at the immortal marker; generic retains/releases may
  // drift it but it never reaches zero, and the deallocator is a no-op.
  memref.global "private" @__ly_bool_box_true : memref<3xi64> = dense<[9223372036854775807, 22, 1]>
  memref.global "private" @__ly_bool_box_false : memref<3xi64> = dense<[9223372036854775807, 22, 0]>

  // box: canonical i1 -> the boxed singleton (no allocation).
  func.func @LyBool_Box(%value: i1) -> memref<3xi64> attributes {ly.runtime.class_id = 22 : i64, ly.runtime.contract = "builtins.bool", ly.runtime.primitive = "box"} {
    %true_box = memref.get_global @__ly_bool_box_true : memref<3xi64>
    %false_box = memref.get_global @__ly_bool_box_false : memref<3xi64>
    %box = arith.select %value, %true_box, %false_box : memref<3xi64>
    func.return %box : memref<3xi64>
  }

  // unbox: boxed singleton -> canonical i1.
  func.func @LyBool_Unbox(%header: memref<3xi64> {ly.ownership.object_header}) -> i1 attributes {ly.runtime.contract = "builtins.bool", ly.runtime.primitive = "unbox"} {
    %c2 = arith.constant 2 : index
    %c0_i64 = arith.constant 0 : i64
    %word = memref.load %header[%c2] : memref<3xi64>
    %value = arith.cmpi ne, %word, %c0_i64 : i64
    func.return %value : i1
  }

  // Boxed-conforming __repr__ (erased-element dispatch through the repr hook).
  func.func @LyBool_BoxedRepr(%header: memref<3xi64> {ly.ownership.object_header}) -> (memref<2xi64>, memref<?xi8>) attributes {ly.ownership.owned_results = [0], ly.runtime.contract = "builtins.bool", ly.runtime.method = "__repr__", ly.runtime.result_contract = "builtins.str"} {
    %value = func.call @LyBool_Unbox(%header) : (memref<3xi64>) -> i1
    %result_header, %result_bytes = func.call @LyBool_Repr(%value) : (i1) -> (memref<2xi64>, memref<?xi8>)
    func.return %result_header, %result_bytes : memref<2xi64>, memref<?xi8>
  }

  // Immortal singletons never deallocate; the release hook still needs a
  // conforming deallocator so boxed slots release without a miss.
  func.func @LyBool_DecRef(%header: memref<3xi64> {ly.ownership.object_header}) attributes {ly.ownership.release_args = [0], ly.runtime.contract = "builtins.bool", ly.runtime.deallocator} {
    func.return
  }

  func.func @LyBool_Str(%value: i1) -> (memref<2xi64>, memref<?xi8>) attributes {ly.ownership.owned_results = [0], ly.runtime.contract = "builtins.bool", ly.runtime.method = "__str__", ly.runtime.result_contract = "builtins.str"} {
    %header, %bytes = func.call @LyBool_Repr(%value) : (i1) -> (memref<2xi64>, memref<?xi8>)
    func.return %header, %bytes : memref<2xi64>, memref<?xi8>
  }

  func.func @Ly_IncRef(%header: memref<2xi64, strided<[1], offset: ?>> {ly.ownership.object_header}) attributes {ly.ownership.retain_args = [0], ly.runtime.primitive = "retain"} {
    %slot = arith.constant 0 : index
    %zero = arith.constant 0 : i64
    %immortal = arith.constant 9223372036854775807 : i64
    // Tagged fast path: a header whose aligned pointer has bit 0 set is an
    // inline tagged long. It owns no memory and must
    // not be dereferenced at all.
    %ptr_index = memref.extract_aligned_pointer_as_index %header : memref<2xi64, strided<[1], offset: ?>> -> index
    %ptr_bits = arith.index_cast %ptr_index : index to i64
    %tag_one = arith.constant 1 : i64
    %tag_bit = arith.andi %ptr_bits, %tag_one : i64
    %is_tagged = arith.cmpi eq, %tag_bit, %tag_one : i64
    cf.cond_br %is_tagged, ^done, ^probe

  ^probe:
    // Immortal fast path: immortality is fixed at object creation and never
    // changes, so a pre-RMW acquire read is a stable witness. Skipping the
    // RMW keeps immortal headers write-free, which lets constant literals
    // live in read-only sections.
    %observed = memref.load %header[%slot] {ly.atomic.ordering = "acquire", ly.atomic.role = "object.refcount.load"} : memref<2xi64, strided<[1], offset: ?>>
    %pre_immortal = arith.cmpi eq, %observed, %immortal : i64
    cf.cond_br %pre_immortal, ^done, ^mutate

  ^mutate:
    %previous = memref.generic_atomic_rmw %header[%slot] : memref<2xi64, strided<[1], offset: ?>> {
    ^bb0(%current : i64):
      %body_zero = arith.constant 0 : i64
      %body_one = arith.constant 1 : i64
      %body_immortal = arith.constant 9223372036854775807 : i64
      %body_positive = arith.cmpi sgt, %current, %body_zero : i64
      %body_immortal_check = arith.cmpi eq, %current, %body_immortal : i64
      %body_incremented = arith.addi %current, %body_one : i64
      %body_positive_next = arith.select %body_positive, %body_incremented, %current : i1, i64
      %body_next = arith.select %body_immortal_check, %current, %body_positive_next : i1, i64
      memref.atomic_yield %body_next : i64
    } {ly.atomic.ordering = "acq_rel", ly.atomic.retain_premise = "entry-borrowed", ly.atomic.role = "object.refcount.retain"}
    %is_immortal = arith.cmpi eq, %previous, %immortal : i64
    cf.cond_br %is_immortal, ^done, ^check_positive

  ^check_positive:
    %positive = arith.cmpi sgt, %previous, %zero : i64
    cf.assert %positive, "Ly_IncRef observed non-positive refcount"
    cf.br ^done

  ^done:
    func.return
  }

  func.func @LyObject_ReleaseStorageToZero(%storage: memref<?xi64>) -> i1 attributes {ly.runtime.contract = "builtins.object", ly.runtime.primitive = "release_to_zero"} {
    %slot = arith.constant 0 : index
    %zero = arith.constant 0 : i64
    %immortal = arith.constant 9223372036854775807 : i64
    // Immortal fast path: see Ly_IncRef. Immortal storage is never written,
    // so constant literal objects stay in read-only storage.
    %observed = memref.load %storage[%slot] {ly.atomic.ordering = "acquire", ly.atomic.role = "object.refcount.load"} : memref<?xi64>
    %pre_immortal = arith.cmpi eq, %observed, %immortal : i64
    cf.cond_br %pre_immortal, ^done, ^mutate

  ^mutate:
    %previous = memref.generic_atomic_rmw %storage[%slot] : memref<?xi64> {
    ^bb0(%current : i64):
      %body_zero = arith.constant 0 : i64
      %body_one = arith.constant 1 : i64
      %body_immortal = arith.constant 9223372036854775807 : i64
      %body_positive = arith.cmpi sgt, %current, %body_zero : i64
      %body_immortal_check = arith.cmpi eq, %current, %body_immortal : i64
      %body_decremented = arith.subi %current, %body_one : i64
      %body_positive_next = arith.select %body_positive, %body_decremented, %current : i1, i64
      %body_next = arith.select %body_immortal_check, %current, %body_positive_next : i1, i64
      memref.atomic_yield %body_next : i64
    } {ly.atomic.ordering = "acq_rel", ly.atomic.role = "object.refcount.release"}
    %is_immortal = arith.cmpi eq, %previous, %immortal : i64
    cf.cond_br %is_immortal, ^done, ^check_positive

  ^check_positive:
    %positive = arith.cmpi sgt, %previous, %zero : i64
    cf.assert %positive, "Ly_DecRef observed non-positive refcount"
    %one = arith.constant 1 : i64
    %became_zero = arith.cmpi eq, %previous, %one : i64
    func.return %became_zero : i1

  ^done:
    %false = arith.constant false
    func.return %false : i1
  }

  func.func @LyBaseException_DecRef(%header: memref<3xi64> {ly.ownership.object_header}, %message_header: memref<2xi64> {ly.ownership.object_header}, %message_bytes: memref<?xi8>) attributes {ly.ownership.release_args = [0], ly.runtime.contract = "builtins.BaseException", ly.runtime.deallocator} {
    %storage = memref.cast %header : memref<3xi64> to memref<?xi64>
    %became_zero = func.call @LyObject_ReleaseStorageToZero(%storage) : (memref<?xi64>) -> i1
    cf.cond_br %became_zero, ^dealloc, ^done

  ^dealloc:
    func.call @LyUnicode_DecRef(%message_header) : (memref<2xi64>) -> ()
    memref.dealloc %header : memref<3xi64>
    cf.br ^done

  ^done:
    func.return
  }

  func.func @LyLong_DecRef(%header: memref<2xi64> {ly.ownership.object_header}) attributes {ly.ownership.release_args = [0], ly.runtime.contract = "builtins.int", ly.runtime.deallocator} {
    %storage = memref.cast %header : memref<2xi64> to memref<?xi64>
    %became_zero = func.call @LyObject_ReleaseStorageToZero(%storage) : (memref<?xi64>) -> i1
    cf.cond_br %became_zero, ^dealloc, ^done

  ^dealloc:
    // int is one allocation; the header view carries it. meta/digits are
    // interior views of the same block and must not be freed.
    memref.dealloc %header : memref<2xi64>
    cf.br ^done

  ^done:
    func.return
  }

  func.func @LyUnicode_DecRef(%header: memref<2xi64> {ly.ownership.object_header}) attributes {ly.ownership.release_args = [0], ly.runtime.contract = "builtins.str", ly.runtime.deallocator} {
    %storage = memref.cast %header : memref<2xi64> to memref<?xi64>
    %became_zero = func.call @LyObject_ReleaseStorageToZero(%storage) : (memref<?xi64>) -> i1
    cf.cond_br %became_zero, ^dealloc, ^done

  ^dealloc:
    // str is one allocation; the header view carries it.
    memref.dealloc %header : memref<2xi64>
    cf.br ^done

  ^done:
    func.return
  }

  // ===== impls: exception =====
  func.func private @LyEH_ThrowException(%header: memref<3xi64> {ly.ownership.object_header}, %message_header: memref<2xi64> {ly.ownership.object_header}, %message_bytes: memref<?xi8>) attributes {ly.ownership.transfer_args = [0, 1], ly.runtime.contract = "builtins.BaseException", ly.runtime.primitive = "raise"}
  func.func private @LyEH_BorrowCurrentException() -> (memref<3xi64>, memref<2xi64>, memref<?xi8>) attributes {ly.runtime.contract = "builtins.BaseException", ly.runtime.primitive = "borrow_current"}

  func.func private @LyException_Shape() -> (memref<3xi64>, memref<2xi64>, memref<?xi8>) attributes {ly.runtime.contract = "builtins.Exception", ly.runtime.shape}
  func.func private @LyRuntimeError_Shape() -> (memref<3xi64>, memref<2xi64>, memref<?xi8>) attributes {ly.runtime.contract = "builtins.RuntimeError", ly.runtime.shape}
  func.func private @LyTypeError_Shape() -> (memref<3xi64>, memref<2xi64>, memref<?xi8>) attributes {ly.runtime.contract = "builtins.TypeError", ly.runtime.shape}
  func.func private @LyValueError_Shape() -> (memref<3xi64>, memref<2xi64>, memref<?xi8>) attributes {ly.runtime.contract = "builtins.ValueError", ly.runtime.shape}
  func.func private @LyArithmeticError_Shape() -> (memref<3xi64>, memref<2xi64>, memref<?xi8>) attributes {ly.runtime.contract = "builtins.ArithmeticError", ly.runtime.shape}
  func.func private @LyLookupError_Shape() -> (memref<3xi64>, memref<2xi64>, memref<?xi8>) attributes {ly.runtime.contract = "builtins.LookupError", ly.runtime.shape}
  func.func private @LyZeroDivisionError_Shape() -> (memref<3xi64>, memref<2xi64>, memref<?xi8>) attributes {ly.runtime.contract = "builtins.ZeroDivisionError", ly.runtime.shape}
  func.func private @LyKeyError_Shape() -> (memref<3xi64>, memref<2xi64>, memref<?xi8>) attributes {ly.runtime.contract = "builtins.KeyError", ly.runtime.shape}
  func.func private @LyIndexError_Shape() -> (memref<3xi64>, memref<2xi64>, memref<?xi8>) attributes {ly.runtime.contract = "builtins.IndexError", ly.runtime.shape}
  func.func private @LyAssertionError_Shape() -> (memref<3xi64>, memref<2xi64>, memref<?xi8>) attributes {ly.runtime.contract = "builtins.AssertionError", ly.runtime.shape}
  func.func private @LyStopIteration_Shape() -> (memref<3xi64>, memref<2xi64>, memref<?xi8>) attributes {ly.runtime.contract = "builtins.StopIteration", ly.runtime.shape}
  func.func private @LyStopAsyncIteration_Shape() -> (memref<3xi64>, memref<2xi64>, memref<?xi8>) attributes {ly.runtime.contract = "builtins.StopAsyncIteration", ly.runtime.shape}
  func.func private @LySystemExit_Shape() -> (memref<3xi64>, memref<2xi64>, memref<?xi8>) attributes {ly.runtime.contract = "builtins.SystemExit", ly.runtime.shape}
  func.func private @LyGeneratorExit_Shape() -> (memref<3xi64>, memref<2xi64>, memref<?xi8>) attributes {ly.runtime.contract = "builtins.GeneratorExit", ly.runtime.shape}
  func.func private @LyOSError_Shape() -> (memref<3xi64>, memref<2xi64>, memref<?xi8>) attributes {ly.runtime.contract = "builtins.OSError", ly.runtime.shape}
  func.func private @LyFileNotFoundError_Shape() -> (memref<3xi64>, memref<2xi64>, memref<?xi8>) attributes {ly.runtime.contract = "builtins.FileNotFoundError", ly.runtime.shape}
  func.func private @LyCancelledError_Shape() -> (memref<3xi64>, memref<2xi64>, memref<?xi8>) attributes {ly.runtime.contract = "asyncio.CancelledError", ly.runtime.shape}

  func.func @LyBaseException_Init(%header: memref<3xi64> {ly.ownership.object_header}, %old_message_header: memref<2xi64> {ly.ownership.object_header}, %old_message_bytes: memref<?xi8>, %message_header: memref<2xi64> {ly.ownership.object_header}, %message_bytes: memref<?xi8>) -> (memref<3xi64>, memref<2xi64>, memref<?xi8>) attributes {ly.ownership.owned_results = [0], ly.ownership.release_args = [1], ly.ownership.transfer_args = [0, 3], ly.runtime.contract = "builtins.BaseException", ly.runtime.method = "__init__", ly.runtime.result_evidence = "receiver"} {
    func.call @LyUnicode_DecRef(%old_message_header) : (memref<2xi64>) -> ()
    func.return %header, %message_header, %message_bytes : memref<3xi64>, memref<2xi64>, memref<?xi8>
  }

  func.func @LyException_Init(%header: memref<3xi64> {ly.ownership.object_header}, %old_message_header: memref<2xi64> {ly.ownership.object_header}, %old_message_bytes: memref<?xi8>, %message_header: memref<2xi64> {ly.ownership.object_header}, %message_bytes: memref<?xi8>) -> (memref<3xi64>, memref<2xi64>, memref<?xi8>) attributes {ly.ownership.owned_results = [0], ly.ownership.release_args = [1], ly.ownership.transfer_args = [0, 3], ly.runtime.contract = "builtins.Exception", ly.runtime.method = "__init__", ly.runtime.result_evidence = "receiver"} {
    %result:3 = func.call @LyBaseException_Init(%header, %old_message_header, %old_message_bytes, %message_header, %message_bytes) : (memref<3xi64>, memref<2xi64>, memref<?xi8>, memref<2xi64>, memref<?xi8>) -> (memref<3xi64>, memref<2xi64>, memref<?xi8>)
    func.return %result#0, %result#1, %result#2 : memref<3xi64>, memref<2xi64>, memref<?xi8>
  }

  func.func @LyRuntimeError_Init(%header: memref<3xi64> {ly.ownership.object_header}, %old_message_header: memref<2xi64> {ly.ownership.object_header}, %old_message_bytes: memref<?xi8>, %message_header: memref<2xi64> {ly.ownership.object_header}, %message_bytes: memref<?xi8>) -> (memref<3xi64>, memref<2xi64>, memref<?xi8>) attributes {ly.ownership.owned_results = [0], ly.ownership.release_args = [1], ly.ownership.transfer_args = [0, 3], ly.runtime.contract = "builtins.RuntimeError", ly.runtime.method = "__init__", ly.runtime.result_evidence = "receiver"} {
    %result:3 = func.call @LyBaseException_Init(%header, %old_message_header, %old_message_bytes, %message_header, %message_bytes) : (memref<3xi64>, memref<2xi64>, memref<?xi8>, memref<2xi64>, memref<?xi8>) -> (memref<3xi64>, memref<2xi64>, memref<?xi8>)
    func.return %result#0, %result#1, %result#2 : memref<3xi64>, memref<2xi64>, memref<?xi8>
  }

  func.func @LyTypeError_Init(%header: memref<3xi64> {ly.ownership.object_header}, %old_message_header: memref<2xi64> {ly.ownership.object_header}, %old_message_bytes: memref<?xi8>, %message_header: memref<2xi64> {ly.ownership.object_header}, %message_bytes: memref<?xi8>) -> (memref<3xi64>, memref<2xi64>, memref<?xi8>) attributes {ly.ownership.owned_results = [0], ly.ownership.release_args = [1], ly.ownership.transfer_args = [0, 3], ly.runtime.contract = "builtins.TypeError", ly.runtime.method = "__init__", ly.runtime.result_evidence = "receiver"} {
    %result:3 = func.call @LyBaseException_Init(%header, %old_message_header, %old_message_bytes, %message_header, %message_bytes) : (memref<3xi64>, memref<2xi64>, memref<?xi8>, memref<2xi64>, memref<?xi8>) -> (memref<3xi64>, memref<2xi64>, memref<?xi8>)
    func.return %result#0, %result#1, %result#2 : memref<3xi64>, memref<2xi64>, memref<?xi8>
  }

  func.func @LyValueError_Init(%header: memref<3xi64> {ly.ownership.object_header}, %old_message_header: memref<2xi64> {ly.ownership.object_header}, %old_message_bytes: memref<?xi8>, %message_header: memref<2xi64> {ly.ownership.object_header}, %message_bytes: memref<?xi8>) -> (memref<3xi64>, memref<2xi64>, memref<?xi8>) attributes {ly.ownership.owned_results = [0], ly.ownership.release_args = [1], ly.ownership.transfer_args = [0, 3], ly.runtime.contract = "builtins.ValueError", ly.runtime.method = "__init__", ly.runtime.result_evidence = "receiver"} {
    %result:3 = func.call @LyBaseException_Init(%header, %old_message_header, %old_message_bytes, %message_header, %message_bytes) : (memref<3xi64>, memref<2xi64>, memref<?xi8>, memref<2xi64>, memref<?xi8>) -> (memref<3xi64>, memref<2xi64>, memref<?xi8>)
    func.return %result#0, %result#1, %result#2 : memref<3xi64>, memref<2xi64>, memref<?xi8>
  }

  func.func @LyArithmeticError_Init(%header: memref<3xi64> {ly.ownership.object_header}, %old_message_header: memref<2xi64> {ly.ownership.object_header}, %old_message_bytes: memref<?xi8>, %message_header: memref<2xi64> {ly.ownership.object_header}, %message_bytes: memref<?xi8>) -> (memref<3xi64>, memref<2xi64>, memref<?xi8>) attributes {ly.ownership.owned_results = [0], ly.ownership.release_args = [1], ly.ownership.transfer_args = [0, 3], ly.runtime.contract = "builtins.ArithmeticError", ly.runtime.method = "__init__", ly.runtime.result_evidence = "receiver"} {
    %result:3 = func.call @LyBaseException_Init(%header, %old_message_header, %old_message_bytes, %message_header, %message_bytes) : (memref<3xi64>, memref<2xi64>, memref<?xi8>, memref<2xi64>, memref<?xi8>) -> (memref<3xi64>, memref<2xi64>, memref<?xi8>)
    func.return %result#0, %result#1, %result#2 : memref<3xi64>, memref<2xi64>, memref<?xi8>
  }

  func.func @LyLookupError_Init(%header: memref<3xi64> {ly.ownership.object_header}, %old_message_header: memref<2xi64> {ly.ownership.object_header}, %old_message_bytes: memref<?xi8>, %message_header: memref<2xi64> {ly.ownership.object_header}, %message_bytes: memref<?xi8>) -> (memref<3xi64>, memref<2xi64>, memref<?xi8>) attributes {ly.ownership.owned_results = [0], ly.ownership.release_args = [1], ly.ownership.transfer_args = [0, 3], ly.runtime.contract = "builtins.LookupError", ly.runtime.method = "__init__", ly.runtime.result_evidence = "receiver"} {
    %result:3 = func.call @LyBaseException_Init(%header, %old_message_header, %old_message_bytes, %message_header, %message_bytes) : (memref<3xi64>, memref<2xi64>, memref<?xi8>, memref<2xi64>, memref<?xi8>) -> (memref<3xi64>, memref<2xi64>, memref<?xi8>)
    func.return %result#0, %result#1, %result#2 : memref<3xi64>, memref<2xi64>, memref<?xi8>
  }

  func.func @LyZeroDivisionError_Init(%header: memref<3xi64> {ly.ownership.object_header}, %old_message_header: memref<2xi64> {ly.ownership.object_header}, %old_message_bytes: memref<?xi8>, %message_header: memref<2xi64> {ly.ownership.object_header}, %message_bytes: memref<?xi8>) -> (memref<3xi64>, memref<2xi64>, memref<?xi8>) attributes {ly.ownership.owned_results = [0], ly.ownership.release_args = [1], ly.ownership.transfer_args = [0, 3], ly.runtime.contract = "builtins.ZeroDivisionError", ly.runtime.method = "__init__", ly.runtime.result_evidence = "receiver"} {
    %result:3 = func.call @LyBaseException_Init(%header, %old_message_header, %old_message_bytes, %message_header, %message_bytes) : (memref<3xi64>, memref<2xi64>, memref<?xi8>, memref<2xi64>, memref<?xi8>) -> (memref<3xi64>, memref<2xi64>, memref<?xi8>)
    func.return %result#0, %result#1, %result#2 : memref<3xi64>, memref<2xi64>, memref<?xi8>
  }

  func.func @LyKeyError_Init(%header: memref<3xi64> {ly.ownership.object_header}, %old_message_header: memref<2xi64> {ly.ownership.object_header}, %old_message_bytes: memref<?xi8>, %message_header: memref<2xi64> {ly.ownership.object_header}, %message_bytes: memref<?xi8>) -> (memref<3xi64>, memref<2xi64>, memref<?xi8>) attributes {ly.ownership.owned_results = [0], ly.ownership.release_args = [1], ly.ownership.transfer_args = [0, 3], ly.runtime.contract = "builtins.KeyError", ly.runtime.method = "__init__", ly.runtime.result_evidence = "receiver"} {
    // str(KeyError(x)) is repr(x) in CPython, so the stored message IS the
    // argument repr; the runtime's missing-key raises store a repr already.
    %repr_header, %repr_bytes = func.call @LyUnicode_Repr(%message_header, %message_bytes) : (memref<2xi64>, memref<?xi8>) -> (memref<2xi64>, memref<?xi8>)
    func.call @LyUnicode_DecRef(%message_header) : (memref<2xi64>) -> ()
    %result:3 = func.call @LyBaseException_Init(%header, %old_message_header, %old_message_bytes, %repr_header, %repr_bytes) : (memref<3xi64>, memref<2xi64>, memref<?xi8>, memref<2xi64>, memref<?xi8>) -> (memref<3xi64>, memref<2xi64>, memref<?xi8>)
    func.return %result#0, %result#1, %result#2 : memref<3xi64>, memref<2xi64>, memref<?xi8>
  }

  func.func @LyIndexError_Init(%header: memref<3xi64> {ly.ownership.object_header}, %old_message_header: memref<2xi64> {ly.ownership.object_header}, %old_message_bytes: memref<?xi8>, %message_header: memref<2xi64> {ly.ownership.object_header}, %message_bytes: memref<?xi8>) -> (memref<3xi64>, memref<2xi64>, memref<?xi8>) attributes {ly.ownership.owned_results = [0], ly.ownership.release_args = [1], ly.ownership.transfer_args = [0, 3], ly.runtime.contract = "builtins.IndexError", ly.runtime.method = "__init__", ly.runtime.result_evidence = "receiver"} {
    %result:3 = func.call @LyBaseException_Init(%header, %old_message_header, %old_message_bytes, %message_header, %message_bytes) : (memref<3xi64>, memref<2xi64>, memref<?xi8>, memref<2xi64>, memref<?xi8>) -> (memref<3xi64>, memref<2xi64>, memref<?xi8>)
    func.return %result#0, %result#1, %result#2 : memref<3xi64>, memref<2xi64>, memref<?xi8>
  }

  func.func @LyAssertionError_Init(%header: memref<3xi64> {ly.ownership.object_header}, %old_message_header: memref<2xi64> {ly.ownership.object_header}, %old_message_bytes: memref<?xi8>, %message_header: memref<2xi64> {ly.ownership.object_header}, %message_bytes: memref<?xi8>) -> (memref<3xi64>, memref<2xi64>, memref<?xi8>) attributes {ly.ownership.owned_results = [0], ly.ownership.release_args = [1], ly.ownership.transfer_args = [0, 3], ly.runtime.contract = "builtins.AssertionError", ly.runtime.method = "__init__", ly.runtime.result_evidence = "receiver"} {
    %result:3 = func.call @LyBaseException_Init(%header, %old_message_header, %old_message_bytes, %message_header, %message_bytes) : (memref<3xi64>, memref<2xi64>, memref<?xi8>, memref<2xi64>, memref<?xi8>) -> (memref<3xi64>, memref<2xi64>, memref<?xi8>)
    func.return %result#0, %result#1, %result#2 : memref<3xi64>, memref<2xi64>, memref<?xi8>
  }

  func.func @LyStopIteration_Init(%header: memref<3xi64> {ly.ownership.object_header}, %old_message_header: memref<2xi64> {ly.ownership.object_header}, %old_message_bytes: memref<?xi8>, %message_header: memref<2xi64> {ly.ownership.object_header}, %message_bytes: memref<?xi8>) -> (memref<3xi64>, memref<2xi64>, memref<?xi8>) attributes {ly.ownership.owned_results = [0], ly.ownership.release_args = [1], ly.ownership.transfer_args = [0, 3], ly.runtime.contract = "builtins.StopIteration", ly.runtime.method = "__init__", ly.runtime.result_evidence = "receiver"} {
    %result:3 = func.call @LyBaseException_Init(%header, %old_message_header, %old_message_bytes, %message_header, %message_bytes) : (memref<3xi64>, memref<2xi64>, memref<?xi8>, memref<2xi64>, memref<?xi8>) -> (memref<3xi64>, memref<2xi64>, memref<?xi8>)
    func.return %result#0, %result#1, %result#2 : memref<3xi64>, memref<2xi64>, memref<?xi8>
  }

  func.func @LyStopAsyncIteration_Init(%header: memref<3xi64> {ly.ownership.object_header}, %old_message_header: memref<2xi64> {ly.ownership.object_header}, %old_message_bytes: memref<?xi8>, %message_header: memref<2xi64> {ly.ownership.object_header}, %message_bytes: memref<?xi8>) -> (memref<3xi64>, memref<2xi64>, memref<?xi8>) attributes {ly.ownership.owned_results = [0], ly.ownership.release_args = [1], ly.ownership.transfer_args = [0, 3], ly.runtime.contract = "builtins.StopAsyncIteration", ly.runtime.method = "__init__", ly.runtime.result_evidence = "receiver"} {
    %result:3 = func.call @LyBaseException_Init(%header, %old_message_header, %old_message_bytes, %message_header, %message_bytes) : (memref<3xi64>, memref<2xi64>, memref<?xi8>, memref<2xi64>, memref<?xi8>) -> (memref<3xi64>, memref<2xi64>, memref<?xi8>)
    func.return %result#0, %result#1, %result#2 : memref<3xi64>, memref<2xi64>, memref<?xi8>
  }

  func.func @LySystemExit_Init(%header: memref<3xi64> {ly.ownership.object_header}, %old_message_header: memref<2xi64> {ly.ownership.object_header}, %old_message_bytes: memref<?xi8>, %message_header: memref<2xi64> {ly.ownership.object_header}, %message_bytes: memref<?xi8>) -> (memref<3xi64>, memref<2xi64>, memref<?xi8>) attributes {ly.ownership.owned_results = [0], ly.ownership.release_args = [1], ly.ownership.transfer_args = [0, 3], ly.runtime.contract = "builtins.SystemExit", ly.runtime.method = "__init__", ly.runtime.result_evidence = "receiver"} {
    %result:3 = func.call @LyBaseException_Init(%header, %old_message_header, %old_message_bytes, %message_header, %message_bytes) : (memref<3xi64>, memref<2xi64>, memref<?xi8>, memref<2xi64>, memref<?xi8>) -> (memref<3xi64>, memref<2xi64>, memref<?xi8>)
    func.return %result#0, %result#1, %result#2 : memref<3xi64>, memref<2xi64>, memref<?xi8>
  }
  func.func @LyGeneratorExit_Init(%header: memref<3xi64> {ly.ownership.object_header}, %old_message_header: memref<2xi64> {ly.ownership.object_header}, %old_message_bytes: memref<?xi8>, %message_header: memref<2xi64> {ly.ownership.object_header}, %message_bytes: memref<?xi8>) -> (memref<3xi64>, memref<2xi64>, memref<?xi8>) attributes {ly.ownership.owned_results = [0], ly.ownership.release_args = [1], ly.ownership.transfer_args = [0, 3], ly.runtime.contract = "builtins.GeneratorExit", ly.runtime.method = "__init__", ly.runtime.result_evidence = "receiver"} {
    %result:3 = func.call @LyBaseException_Init(%header, %old_message_header, %old_message_bytes, %message_header, %message_bytes) : (memref<3xi64>, memref<2xi64>, memref<?xi8>, memref<2xi64>, memref<?xi8>) -> (memref<3xi64>, memref<2xi64>, memref<?xi8>)
    func.return %result#0, %result#1, %result#2 : memref<3xi64>, memref<2xi64>, memref<?xi8>
  }

  func.func @LyOSError_Init(%header: memref<3xi64> {ly.ownership.object_header}, %old_message_header: memref<2xi64> {ly.ownership.object_header}, %old_message_bytes: memref<?xi8>, %message_header: memref<2xi64> {ly.ownership.object_header}, %message_bytes: memref<?xi8>) -> (memref<3xi64>, memref<2xi64>, memref<?xi8>) attributes {ly.ownership.owned_results = [0], ly.ownership.release_args = [1], ly.ownership.transfer_args = [0, 3], ly.runtime.contract = "builtins.OSError", ly.runtime.method = "__init__", ly.runtime.result_evidence = "receiver"} {
    %result:3 = func.call @LyBaseException_Init(%header, %old_message_header, %old_message_bytes, %message_header, %message_bytes) : (memref<3xi64>, memref<2xi64>, memref<?xi8>, memref<2xi64>, memref<?xi8>) -> (memref<3xi64>, memref<2xi64>, memref<?xi8>)
    func.return %result#0, %result#1, %result#2 : memref<3xi64>, memref<2xi64>, memref<?xi8>
  }

  func.func @LyFileNotFoundError_Init(%header: memref<3xi64> {ly.ownership.object_header}, %old_message_header: memref<2xi64> {ly.ownership.object_header}, %old_message_bytes: memref<?xi8>, %message_header: memref<2xi64> {ly.ownership.object_header}, %message_bytes: memref<?xi8>) -> (memref<3xi64>, memref<2xi64>, memref<?xi8>) attributes {ly.ownership.owned_results = [0], ly.ownership.release_args = [1], ly.ownership.transfer_args = [0, 3], ly.runtime.contract = "builtins.FileNotFoundError", ly.runtime.method = "__init__", ly.runtime.result_evidence = "receiver"} {
    %result:3 = func.call @LyBaseException_Init(%header, %old_message_header, %old_message_bytes, %message_header, %message_bytes) : (memref<3xi64>, memref<2xi64>, memref<?xi8>, memref<2xi64>, memref<?xi8>) -> (memref<3xi64>, memref<2xi64>, memref<?xi8>)
    func.return %result#0, %result#1, %result#2 : memref<3xi64>, memref<2xi64>, memref<?xi8>
  }

  func.func @LyCancelledError_Init(%header: memref<3xi64> {ly.ownership.object_header}, %old_message_header: memref<2xi64> {ly.ownership.object_header}, %old_message_bytes: memref<?xi8>, %message_header: memref<2xi64> {ly.ownership.object_header}, %message_bytes: memref<?xi8>) -> (memref<3xi64>, memref<2xi64>, memref<?xi8>) attributes {ly.ownership.owned_results = [0], ly.ownership.release_args = [1], ly.ownership.transfer_args = [0, 3], ly.runtime.contract = "asyncio.CancelledError", ly.runtime.method = "__init__", ly.runtime.result_evidence = "receiver"} {
    %result:3 = func.call @LyBaseException_Init(%header, %old_message_header, %old_message_bytes, %message_header, %message_bytes) : (memref<3xi64>, memref<2xi64>, memref<?xi8>, memref<2xi64>, memref<?xi8>) -> (memref<3xi64>, memref<2xi64>, memref<?xi8>)
    func.return %result#0, %result#1, %result#2 : memref<3xi64>, memref<2xi64>, memref<?xi8>
  }

  func.func @LyBaseException_New(%class_id: i64 {ly.runtime.class_id_argument}) -> (memref<3xi64>, memref<2xi64>, memref<?xi8>) attributes {ly.ownership.owned_results = [0, 1], ly.runtime.class_id = 5 : i64, ly.runtime.contract = "builtins.BaseException", ly.runtime.initializer = "__new__"} {
    %one = arith.constant 1 : i64
    %layout_exception = arith.constant 5 : i64
    %refcount_slot = arith.constant 0 : index
    %layout_slot = arith.constant 1 : index
    %class_slot = arith.constant 2 : index
    %zero_index = arith.constant 0 : index
    %zero_len = arith.constant 0 : i64

    %header = memref.alloc() {ly.ownership.object_header, ly.ownership.owned_local_object} : memref<3xi64>
    %empty_bytes = memref.alloca(%zero_index) : memref<?xi8>
    %message_header, %message_bytes = func.call @LyUnicode_FromBytes(%empty_bytes, %zero_index, %zero_len) : (memref<?xi8>, index, i64) -> (memref<2xi64>, memref<?xi8>)

    memref.store %one, %header[%refcount_slot] : memref<3xi64>
    memref.store %layout_exception, %header[%layout_slot] : memref<3xi64>
    memref.store %class_id, %header[%class_slot] : memref<3xi64>

    func.return %header, %message_header, %message_bytes : memref<3xi64>, memref<2xi64>, memref<?xi8>
  }

  func.func @LyException_New(%class_id: i64 {ly.runtime.class_id_argument}) -> (memref<3xi64>, memref<2xi64>, memref<?xi8>) attributes {ly.ownership.owned_results = [0, 1], ly.runtime.class_id = 50 : i64, ly.runtime.contract = "builtins.Exception", ly.runtime.initializer = "__new__"} {
    %result:3 = func.call @LyBaseException_New(%class_id) : (i64) -> (memref<3xi64>, memref<2xi64>, memref<?xi8>)
    func.return %result#0, %result#1, %result#2 : memref<3xi64>, memref<2xi64>, memref<?xi8>
  }

  func.func @LyRuntimeError_New(%class_id: i64 {ly.runtime.class_id_argument}) -> (memref<3xi64>, memref<2xi64>, memref<?xi8>) attributes {ly.ownership.owned_results = [0, 1], ly.runtime.class_id = 51 : i64, ly.runtime.contract = "builtins.RuntimeError", ly.runtime.initializer = "__new__"} {
    %result:3 = func.call @LyBaseException_New(%class_id) : (i64) -> (memref<3xi64>, memref<2xi64>, memref<?xi8>)
    func.return %result#0, %result#1, %result#2 : memref<3xi64>, memref<2xi64>, memref<?xi8>
  }

  func.func @LyTypeError_New(%class_id: i64 {ly.runtime.class_id_argument}) -> (memref<3xi64>, memref<2xi64>, memref<?xi8>) attributes {ly.ownership.owned_results = [0, 1], ly.runtime.class_id = 52 : i64, ly.runtime.contract = "builtins.TypeError", ly.runtime.initializer = "__new__"} {
    %result:3 = func.call @LyBaseException_New(%class_id) : (i64) -> (memref<3xi64>, memref<2xi64>, memref<?xi8>)
    func.return %result#0, %result#1, %result#2 : memref<3xi64>, memref<2xi64>, memref<?xi8>
  }

  func.func @LyValueError_New(%class_id: i64 {ly.runtime.class_id_argument}) -> (memref<3xi64>, memref<2xi64>, memref<?xi8>) attributes {ly.ownership.owned_results = [0, 1], ly.runtime.class_id = 53 : i64, ly.runtime.contract = "builtins.ValueError", ly.runtime.initializer = "__new__"} {
    %result:3 = func.call @LyBaseException_New(%class_id) : (i64) -> (memref<3xi64>, memref<2xi64>, memref<?xi8>)
    func.return %result#0, %result#1, %result#2 : memref<3xi64>, memref<2xi64>, memref<?xi8>
  }

  func.func @LyArithmeticError_New(%class_id: i64 {ly.runtime.class_id_argument}) -> (memref<3xi64>, memref<2xi64>, memref<?xi8>) attributes {ly.ownership.owned_results = [0, 1], ly.runtime.class_id = 59 : i64, ly.runtime.contract = "builtins.ArithmeticError", ly.runtime.initializer = "__new__"} {
    %result:3 = func.call @LyBaseException_New(%class_id) : (i64) -> (memref<3xi64>, memref<2xi64>, memref<?xi8>)
    func.return %result#0, %result#1, %result#2 : memref<3xi64>, memref<2xi64>, memref<?xi8>
  }

  func.func @LyLookupError_New(%class_id: i64 {ly.runtime.class_id_argument}) -> (memref<3xi64>, memref<2xi64>, memref<?xi8>) attributes {ly.ownership.owned_results = [0, 1], ly.runtime.class_id = 60 : i64, ly.runtime.contract = "builtins.LookupError", ly.runtime.initializer = "__new__"} {
    %result:3 = func.call @LyBaseException_New(%class_id) : (i64) -> (memref<3xi64>, memref<2xi64>, memref<?xi8>)
    func.return %result#0, %result#1, %result#2 : memref<3xi64>, memref<2xi64>, memref<?xi8>
  }

  func.func @LyZeroDivisionError_New(%class_id: i64 {ly.runtime.class_id_argument}) -> (memref<3xi64>, memref<2xi64>, memref<?xi8>) attributes {ly.ownership.owned_results = [0, 1], ly.runtime.class_id = 61 : i64, ly.runtime.contract = "builtins.ZeroDivisionError", ly.runtime.initializer = "__new__"} {
    %result:3 = func.call @LyBaseException_New(%class_id) : (i64) -> (memref<3xi64>, memref<2xi64>, memref<?xi8>)
    func.return %result#0, %result#1, %result#2 : memref<3xi64>, memref<2xi64>, memref<?xi8>
  }

  func.func @LyKeyError_New(%class_id: i64 {ly.runtime.class_id_argument}) -> (memref<3xi64>, memref<2xi64>, memref<?xi8>) attributes {ly.ownership.owned_results = [0, 1], ly.runtime.class_id = 54 : i64, ly.runtime.contract = "builtins.KeyError", ly.runtime.initializer = "__new__"} {
    %result:3 = func.call @LyBaseException_New(%class_id) : (i64) -> (memref<3xi64>, memref<2xi64>, memref<?xi8>)
    func.return %result#0, %result#1, %result#2 : memref<3xi64>, memref<2xi64>, memref<?xi8>
  }

  func.func @LyIndexError_New(%class_id: i64 {ly.runtime.class_id_argument}) -> (memref<3xi64>, memref<2xi64>, memref<?xi8>) attributes {ly.ownership.owned_results = [0, 1], ly.runtime.class_id = 55 : i64, ly.runtime.contract = "builtins.IndexError", ly.runtime.initializer = "__new__"} {
    %result:3 = func.call @LyBaseException_New(%class_id) : (i64) -> (memref<3xi64>, memref<2xi64>, memref<?xi8>)
    func.return %result#0, %result#1, %result#2 : memref<3xi64>, memref<2xi64>, memref<?xi8>
  }

  func.func @LyAssertionError_New(%class_id: i64 {ly.runtime.class_id_argument}) -> (memref<3xi64>, memref<2xi64>, memref<?xi8>) attributes {ly.ownership.owned_results = [0, 1], ly.runtime.class_id = 56 : i64, ly.runtime.contract = "builtins.AssertionError", ly.runtime.initializer = "__new__"} {
    %result:3 = func.call @LyBaseException_New(%class_id) : (i64) -> (memref<3xi64>, memref<2xi64>, memref<?xi8>)
    func.return %result#0, %result#1, %result#2 : memref<3xi64>, memref<2xi64>, memref<?xi8>
  }

  func.func @LyStopIteration_New(%class_id: i64 {ly.runtime.class_id_argument}) -> (memref<3xi64>, memref<2xi64>, memref<?xi8>) attributes {ly.ownership.owned_results = [0, 1], ly.runtime.class_id = 57 : i64, ly.runtime.contract = "builtins.StopIteration", ly.runtime.initializer = "__new__"} {
    %result:3 = func.call @LyBaseException_New(%class_id) : (i64) -> (memref<3xi64>, memref<2xi64>, memref<?xi8>)
    func.return %result#0, %result#1, %result#2 : memref<3xi64>, memref<2xi64>, memref<?xi8>
  }

  func.func @LyStopAsyncIteration_New(%class_id: i64 {ly.runtime.class_id_argument}) -> (memref<3xi64>, memref<2xi64>, memref<?xi8>) attributes {ly.ownership.owned_results = [0, 1], ly.runtime.class_id = 58 : i64, ly.runtime.contract = "builtins.StopAsyncIteration", ly.runtime.initializer = "__new__"} {
    %result:3 = func.call @LyBaseException_New(%class_id) : (i64) -> (memref<3xi64>, memref<2xi64>, memref<?xi8>)
    func.return %result#0, %result#1, %result#2 : memref<3xi64>, memref<2xi64>, memref<?xi8>
  }

  func.func @LySystemExit_New(%class_id: i64 {ly.runtime.class_id_argument}) -> (memref<3xi64>, memref<2xi64>, memref<?xi8>) attributes {ly.ownership.owned_results = [0, 1], ly.runtime.class_id = 64 : i64, ly.runtime.contract = "builtins.SystemExit", ly.runtime.initializer = "__new__"} {
    %result:3 = func.call @LyBaseException_New(%class_id) : (i64) -> (memref<3xi64>, memref<2xi64>, memref<?xi8>)
    func.return %result#0, %result#1, %result#2 : memref<3xi64>, memref<2xi64>, memref<?xi8>
  }
  func.func @LyGeneratorExit_New(%class_id: i64 {ly.runtime.class_id_argument}) -> (memref<3xi64>, memref<2xi64>, memref<?xi8>) attributes {ly.ownership.owned_results = [0, 1], ly.runtime.class_id = 68 : i64, ly.runtime.contract = "builtins.GeneratorExit", ly.runtime.initializer = "__new__"} {
    %result:3 = func.call @LyBaseException_New(%class_id) : (i64) -> (memref<3xi64>, memref<2xi64>, memref<?xi8>)
    func.return %result#0, %result#1, %result#2 : memref<3xi64>, memref<2xi64>, memref<?xi8>
  }

  func.func @LyOSError_New(%class_id: i64 {ly.runtime.class_id_argument}) -> (memref<3xi64>, memref<2xi64>, memref<?xi8>) attributes {ly.ownership.owned_results = [0, 1], ly.runtime.class_id = 66 : i64, ly.runtime.contract = "builtins.OSError", ly.runtime.initializer = "__new__"} {
    %result:3 = func.call @LyBaseException_New(%class_id) : (i64) -> (memref<3xi64>, memref<2xi64>, memref<?xi8>)
    func.return %result#0, %result#1, %result#2 : memref<3xi64>, memref<2xi64>, memref<?xi8>
  }

  func.func @LyFileNotFoundError_New(%class_id: i64 {ly.runtime.class_id_argument}) -> (memref<3xi64>, memref<2xi64>, memref<?xi8>) attributes {ly.ownership.owned_results = [0, 1], ly.runtime.class_id = 67 : i64, ly.runtime.contract = "builtins.FileNotFoundError", ly.runtime.initializer = "__new__"} {
    %result:3 = func.call @LyBaseException_New(%class_id) : (i64) -> (memref<3xi64>, memref<2xi64>, memref<?xi8>)
    func.return %result#0, %result#1, %result#2 : memref<3xi64>, memref<2xi64>, memref<?xi8>
  }

  func.func @LyCancelledError_New(%class_id: i64 {ly.runtime.class_id_argument}) -> (memref<3xi64>, memref<2xi64>, memref<?xi8>) attributes {ly.ownership.owned_results = [0, 1], ly.runtime.class_id = 62 : i64, ly.runtime.contract = "asyncio.CancelledError", ly.runtime.initializer = "__new__"} {
    %result:3 = func.call @LyBaseException_New(%class_id) : (i64) -> (memref<3xi64>, memref<2xi64>, memref<?xi8>)
    func.return %result#0, %result#1, %result#2 : memref<3xi64>, memref<2xi64>, memref<?xi8>
  }

  func.func private @LyException_Raise(%header: memref<3xi64> {ly.ownership.object_header}, %message_header: memref<2xi64> {ly.ownership.object_header}, %message_bytes: memref<?xi8>) attributes {ly.ownership.transfer_args = [0, 1], ly.runtime.contract = "builtins.Exception", ly.runtime.primitive = "raise"} {
    func.call @LyEH_ThrowException(%header, %message_header, %message_bytes) : (memref<3xi64>, memref<2xi64>, memref<?xi8>) -> ()
    func.return
  }

  func.func private @LyRuntimeError_Raise(%header: memref<3xi64> {ly.ownership.object_header}, %message_header: memref<2xi64> {ly.ownership.object_header}, %message_bytes: memref<?xi8>) attributes {ly.ownership.transfer_args = [0, 1], ly.runtime.contract = "builtins.RuntimeError", ly.runtime.primitive = "raise"} {
    func.call @LyEH_ThrowException(%header, %message_header, %message_bytes) : (memref<3xi64>, memref<2xi64>, memref<?xi8>) -> ()
    func.return
  }

  func.func private @LyTypeError_Raise(%header: memref<3xi64> {ly.ownership.object_header}, %message_header: memref<2xi64> {ly.ownership.object_header}, %message_bytes: memref<?xi8>) attributes {ly.ownership.transfer_args = [0, 1], ly.runtime.contract = "builtins.TypeError", ly.runtime.primitive = "raise"} {
    func.call @LyEH_ThrowException(%header, %message_header, %message_bytes) : (memref<3xi64>, memref<2xi64>, memref<?xi8>) -> ()
    func.return
  }

  func.func private @LyValueError_Raise(%header: memref<3xi64> {ly.ownership.object_header}, %message_header: memref<2xi64> {ly.ownership.object_header}, %message_bytes: memref<?xi8>) attributes {ly.ownership.transfer_args = [0, 1], ly.runtime.contract = "builtins.ValueError", ly.runtime.primitive = "raise"} {
    func.call @LyEH_ThrowException(%header, %message_header, %message_bytes) : (memref<3xi64>, memref<2xi64>, memref<?xi8>) -> ()
    func.return
  }

  func.func private @LyArithmeticError_Raise(%header: memref<3xi64> {ly.ownership.object_header}, %message_header: memref<2xi64> {ly.ownership.object_header}, %message_bytes: memref<?xi8>) attributes {ly.ownership.transfer_args = [0, 1], ly.runtime.contract = "builtins.ArithmeticError", ly.runtime.primitive = "raise"} {
    func.call @LyEH_ThrowException(%header, %message_header, %message_bytes) : (memref<3xi64>, memref<2xi64>, memref<?xi8>) -> ()
    func.return
  }

  func.func private @LyLookupError_Raise(%header: memref<3xi64> {ly.ownership.object_header}, %message_header: memref<2xi64> {ly.ownership.object_header}, %message_bytes: memref<?xi8>) attributes {ly.ownership.transfer_args = [0, 1], ly.runtime.contract = "builtins.LookupError", ly.runtime.primitive = "raise"} {
    func.call @LyEH_ThrowException(%header, %message_header, %message_bytes) : (memref<3xi64>, memref<2xi64>, memref<?xi8>) -> ()
    func.return
  }

  func.func private @LyZeroDivisionError_Raise(%header: memref<3xi64> {ly.ownership.object_header}, %message_header: memref<2xi64> {ly.ownership.object_header}, %message_bytes: memref<?xi8>) attributes {ly.ownership.transfer_args = [0, 1], ly.runtime.contract = "builtins.ZeroDivisionError", ly.runtime.primitive = "raise"} {
    func.call @LyEH_ThrowException(%header, %message_header, %message_bytes) : (memref<3xi64>, memref<2xi64>, memref<?xi8>) -> ()
    func.return
  }

  func.func private @LyKeyError_Raise(%header: memref<3xi64> {ly.ownership.object_header}, %message_header: memref<2xi64> {ly.ownership.object_header}, %message_bytes: memref<?xi8>) attributes {ly.ownership.transfer_args = [0, 1], ly.runtime.contract = "builtins.KeyError", ly.runtime.primitive = "raise"} {
    func.call @LyEH_ThrowException(%header, %message_header, %message_bytes) : (memref<3xi64>, memref<2xi64>, memref<?xi8>) -> ()
    func.return
  }

  func.func private @LyIndexError_Raise(%header: memref<3xi64> {ly.ownership.object_header}, %message_header: memref<2xi64> {ly.ownership.object_header}, %message_bytes: memref<?xi8>) attributes {ly.ownership.transfer_args = [0, 1], ly.runtime.contract = "builtins.IndexError", ly.runtime.primitive = "raise"} {
    func.call @LyEH_ThrowException(%header, %message_header, %message_bytes) : (memref<3xi64>, memref<2xi64>, memref<?xi8>) -> ()
    func.return
  }

  func.func private @LyAssertionError_Raise(%header: memref<3xi64> {ly.ownership.object_header}, %message_header: memref<2xi64> {ly.ownership.object_header}, %message_bytes: memref<?xi8>) attributes {ly.ownership.transfer_args = [0, 1], ly.runtime.contract = "builtins.AssertionError", ly.runtime.primitive = "raise"} {
    func.call @LyEH_ThrowException(%header, %message_header, %message_bytes) : (memref<3xi64>, memref<2xi64>, memref<?xi8>) -> ()
    func.return
  }

  func.func private @LyStopIteration_Raise(%header: memref<3xi64> {ly.ownership.object_header}, %message_header: memref<2xi64> {ly.ownership.object_header}, %message_bytes: memref<?xi8>) attributes {ly.ownership.transfer_args = [0, 1], ly.runtime.contract = "builtins.StopIteration", ly.runtime.primitive = "raise"} {
    func.call @LyEH_ThrowException(%header, %message_header, %message_bytes) : (memref<3xi64>, memref<2xi64>, memref<?xi8>) -> ()
    func.return
  }

  func.func private @LyStopAsyncIteration_Raise(%header: memref<3xi64> {ly.ownership.object_header}, %message_header: memref<2xi64> {ly.ownership.object_header}, %message_bytes: memref<?xi8>) attributes {ly.ownership.transfer_args = [0, 1], ly.runtime.contract = "builtins.StopAsyncIteration", ly.runtime.primitive = "raise"} {
    func.call @LyEH_ThrowException(%header, %message_header, %message_bytes) : (memref<3xi64>, memref<2xi64>, memref<?xi8>) -> ()
    func.return
  }

  func.func private @LySystemExit_Raise(%header: memref<3xi64> {ly.ownership.object_header}, %message_header: memref<2xi64> {ly.ownership.object_header}, %message_bytes: memref<?xi8>) attributes {ly.ownership.transfer_args = [0, 1], ly.runtime.contract = "builtins.SystemExit", ly.runtime.primitive = "raise"} {
    func.call @LyEH_ThrowException(%header, %message_header, %message_bytes) : (memref<3xi64>, memref<2xi64>, memref<?xi8>) -> ()
    func.return
  }
  func.func private @LyGeneratorExit_Raise(%header: memref<3xi64> {ly.ownership.object_header}, %message_header: memref<2xi64> {ly.ownership.object_header}, %message_bytes: memref<?xi8>) attributes {ly.ownership.transfer_args = [0, 1], ly.runtime.contract = "builtins.GeneratorExit", ly.runtime.primitive = "raise"} {
    func.call @LyEH_ThrowException(%header, %message_header, %message_bytes) : (memref<3xi64>, memref<2xi64>, memref<?xi8>) -> ()
    func.return
  }

  func.func private @LyOSError_Raise(%header: memref<3xi64> {ly.ownership.object_header}, %message_header: memref<2xi64> {ly.ownership.object_header}, %message_bytes: memref<?xi8>) attributes {ly.ownership.transfer_args = [0, 1], ly.runtime.contract = "builtins.OSError", ly.runtime.primitive = "raise"} {
    func.call @LyEH_ThrowException(%header, %message_header, %message_bytes) : (memref<3xi64>, memref<2xi64>, memref<?xi8>) -> ()
    func.return
  }

  func.func private @LyFileNotFoundError_Raise(%header: memref<3xi64> {ly.ownership.object_header}, %message_header: memref<2xi64> {ly.ownership.object_header}, %message_bytes: memref<?xi8>) attributes {ly.ownership.transfer_args = [0, 1], ly.runtime.contract = "builtins.FileNotFoundError", ly.runtime.primitive = "raise"} {
    func.call @LyEH_ThrowException(%header, %message_header, %message_bytes) : (memref<3xi64>, memref<2xi64>, memref<?xi8>) -> ()
    func.return
  }

  func.func private @LyCancelledError_Raise(%header: memref<3xi64> {ly.ownership.object_header}, %message_header: memref<2xi64> {ly.ownership.object_header}, %message_bytes: memref<?xi8>) attributes {ly.ownership.transfer_args = [0, 1], ly.runtime.contract = "asyncio.CancelledError", ly.runtime.primitive = "raise"} {
    func.call @LyEH_ThrowException(%header, %message_header, %message_bytes) : (memref<3xi64>, memref<2xi64>, memref<?xi8>) -> ()
    func.return
  }


  // __str__/__repr__ return the exception message as an owned str.

  // Deviation from CPython: repr(err) also yields the bare message (not

  // "Cls('msg')"), so that print(err) -- which resolves __repr__ -- matches

  // CPython's str-based print output.

  func.func @LyBaseException_Str(%header: memref<3xi64> {ly.ownership.object_header}, %message_header: memref<2xi64> {ly.ownership.object_header}, %message_bytes: memref<?xi8>) -> (memref<2xi64>, memref<?xi8>) attributes {ly.ownership.owned_results = [0], ly.runtime.contract = "builtins.BaseException", ly.runtime.method = "__str__", ly.runtime.result_contract = "builtins.str"} {
    %view = memref.cast %message_header : memref<2xi64> to memref<2xi64, strided<[1], offset: ?>>
    func.call @Ly_IncRef(%view) : (memref<2xi64, strided<[1], offset: ?>>) -> ()
    func.return %message_header, %message_bytes : memref<2xi64>, memref<?xi8>
  }

  func.func @LyBaseException_Repr(%header: memref<3xi64> {ly.ownership.object_header}, %message_header: memref<2xi64> {ly.ownership.object_header}, %message_bytes: memref<?xi8>) -> (memref<2xi64>, memref<?xi8>) attributes {ly.ownership.owned_results = [0], ly.runtime.contract = "builtins.BaseException", ly.runtime.method = "__repr__", ly.runtime.result_contract = "builtins.str"} {
    %view = memref.cast %message_header : memref<2xi64> to memref<2xi64, strided<[1], offset: ?>>
    func.call @Ly_IncRef(%view) : (memref<2xi64, strided<[1], offset: ?>>) -> ()
    func.return %message_header, %message_bytes : memref<2xi64>, memref<?xi8>
  }

  func.func @LyException_Str(%header: memref<3xi64> {ly.ownership.object_header}, %message_header: memref<2xi64> {ly.ownership.object_header}, %message_bytes: memref<?xi8>) -> (memref<2xi64>, memref<?xi8>) attributes {ly.ownership.owned_results = [0], ly.runtime.contract = "builtins.Exception", ly.runtime.method = "__str__", ly.runtime.result_contract = "builtins.str"} {
    %view = memref.cast %message_header : memref<2xi64> to memref<2xi64, strided<[1], offset: ?>>
    func.call @Ly_IncRef(%view) : (memref<2xi64, strided<[1], offset: ?>>) -> ()
    func.return %message_header, %message_bytes : memref<2xi64>, memref<?xi8>
  }

  func.func @LyException_Repr(%header: memref<3xi64> {ly.ownership.object_header}, %message_header: memref<2xi64> {ly.ownership.object_header}, %message_bytes: memref<?xi8>) -> (memref<2xi64>, memref<?xi8>) attributes {ly.ownership.owned_results = [0], ly.runtime.contract = "builtins.Exception", ly.runtime.method = "__repr__", ly.runtime.result_contract = "builtins.str"} {
    %view = memref.cast %message_header : memref<2xi64> to memref<2xi64, strided<[1], offset: ?>>
    func.call @Ly_IncRef(%view) : (memref<2xi64, strided<[1], offset: ?>>) -> ()
    func.return %message_header, %message_bytes : memref<2xi64>, memref<?xi8>
  }

  func.func @LyRuntimeError_Str(%header: memref<3xi64> {ly.ownership.object_header}, %message_header: memref<2xi64> {ly.ownership.object_header}, %message_bytes: memref<?xi8>) -> (memref<2xi64>, memref<?xi8>) attributes {ly.ownership.owned_results = [0], ly.runtime.contract = "builtins.RuntimeError", ly.runtime.method = "__str__", ly.runtime.result_contract = "builtins.str"} {
    %view = memref.cast %message_header : memref<2xi64> to memref<2xi64, strided<[1], offset: ?>>
    func.call @Ly_IncRef(%view) : (memref<2xi64, strided<[1], offset: ?>>) -> ()
    func.return %message_header, %message_bytes : memref<2xi64>, memref<?xi8>
  }

  func.func @LyRuntimeError_Repr(%header: memref<3xi64> {ly.ownership.object_header}, %message_header: memref<2xi64> {ly.ownership.object_header}, %message_bytes: memref<?xi8>) -> (memref<2xi64>, memref<?xi8>) attributes {ly.ownership.owned_results = [0], ly.runtime.contract = "builtins.RuntimeError", ly.runtime.method = "__repr__", ly.runtime.result_contract = "builtins.str"} {
    %view = memref.cast %message_header : memref<2xi64> to memref<2xi64, strided<[1], offset: ?>>
    func.call @Ly_IncRef(%view) : (memref<2xi64, strided<[1], offset: ?>>) -> ()
    func.return %message_header, %message_bytes : memref<2xi64>, memref<?xi8>
  }

  func.func @LyTypeError_Str(%header: memref<3xi64> {ly.ownership.object_header}, %message_header: memref<2xi64> {ly.ownership.object_header}, %message_bytes: memref<?xi8>) -> (memref<2xi64>, memref<?xi8>) attributes {ly.ownership.owned_results = [0], ly.runtime.contract = "builtins.TypeError", ly.runtime.method = "__str__", ly.runtime.result_contract = "builtins.str"} {
    %view = memref.cast %message_header : memref<2xi64> to memref<2xi64, strided<[1], offset: ?>>
    func.call @Ly_IncRef(%view) : (memref<2xi64, strided<[1], offset: ?>>) -> ()
    func.return %message_header, %message_bytes : memref<2xi64>, memref<?xi8>
  }

  func.func @LyTypeError_Repr(%header: memref<3xi64> {ly.ownership.object_header}, %message_header: memref<2xi64> {ly.ownership.object_header}, %message_bytes: memref<?xi8>) -> (memref<2xi64>, memref<?xi8>) attributes {ly.ownership.owned_results = [0], ly.runtime.contract = "builtins.TypeError", ly.runtime.method = "__repr__", ly.runtime.result_contract = "builtins.str"} {
    %view = memref.cast %message_header : memref<2xi64> to memref<2xi64, strided<[1], offset: ?>>
    func.call @Ly_IncRef(%view) : (memref<2xi64, strided<[1], offset: ?>>) -> ()
    func.return %message_header, %message_bytes : memref<2xi64>, memref<?xi8>
  }

  func.func @LyValueError_Str(%header: memref<3xi64> {ly.ownership.object_header}, %message_header: memref<2xi64> {ly.ownership.object_header}, %message_bytes: memref<?xi8>) -> (memref<2xi64>, memref<?xi8>) attributes {ly.ownership.owned_results = [0], ly.runtime.contract = "builtins.ValueError", ly.runtime.method = "__str__", ly.runtime.result_contract = "builtins.str"} {
    %view = memref.cast %message_header : memref<2xi64> to memref<2xi64, strided<[1], offset: ?>>
    func.call @Ly_IncRef(%view) : (memref<2xi64, strided<[1], offset: ?>>) -> ()
    func.return %message_header, %message_bytes : memref<2xi64>, memref<?xi8>
  }

  func.func @LyValueError_Repr(%header: memref<3xi64> {ly.ownership.object_header}, %message_header: memref<2xi64> {ly.ownership.object_header}, %message_bytes: memref<?xi8>) -> (memref<2xi64>, memref<?xi8>) attributes {ly.ownership.owned_results = [0], ly.runtime.contract = "builtins.ValueError", ly.runtime.method = "__repr__", ly.runtime.result_contract = "builtins.str"} {
    %view = memref.cast %message_header : memref<2xi64> to memref<2xi64, strided<[1], offset: ?>>
    func.call @Ly_IncRef(%view) : (memref<2xi64, strided<[1], offset: ?>>) -> ()
    func.return %message_header, %message_bytes : memref<2xi64>, memref<?xi8>
  }

  func.func @LyArithmeticError_Str(%header: memref<3xi64> {ly.ownership.object_header}, %message_header: memref<2xi64> {ly.ownership.object_header}, %message_bytes: memref<?xi8>) -> (memref<2xi64>, memref<?xi8>) attributes {ly.ownership.owned_results = [0], ly.runtime.contract = "builtins.ArithmeticError", ly.runtime.method = "__str__", ly.runtime.result_contract = "builtins.str"} {
    %view = memref.cast %message_header : memref<2xi64> to memref<2xi64, strided<[1], offset: ?>>
    func.call @Ly_IncRef(%view) : (memref<2xi64, strided<[1], offset: ?>>) -> ()
    func.return %message_header, %message_bytes : memref<2xi64>, memref<?xi8>
  }

  func.func @LyArithmeticError_Repr(%header: memref<3xi64> {ly.ownership.object_header}, %message_header: memref<2xi64> {ly.ownership.object_header}, %message_bytes: memref<?xi8>) -> (memref<2xi64>, memref<?xi8>) attributes {ly.ownership.owned_results = [0], ly.runtime.contract = "builtins.ArithmeticError", ly.runtime.method = "__repr__", ly.runtime.result_contract = "builtins.str"} {
    %view = memref.cast %message_header : memref<2xi64> to memref<2xi64, strided<[1], offset: ?>>
    func.call @Ly_IncRef(%view) : (memref<2xi64, strided<[1], offset: ?>>) -> ()
    func.return %message_header, %message_bytes : memref<2xi64>, memref<?xi8>
  }

  func.func @LyLookupError_Str(%header: memref<3xi64> {ly.ownership.object_header}, %message_header: memref<2xi64> {ly.ownership.object_header}, %message_bytes: memref<?xi8>) -> (memref<2xi64>, memref<?xi8>) attributes {ly.ownership.owned_results = [0], ly.runtime.contract = "builtins.LookupError", ly.runtime.method = "__str__", ly.runtime.result_contract = "builtins.str"} {
    %view = memref.cast %message_header : memref<2xi64> to memref<2xi64, strided<[1], offset: ?>>
    func.call @Ly_IncRef(%view) : (memref<2xi64, strided<[1], offset: ?>>) -> ()
    func.return %message_header, %message_bytes : memref<2xi64>, memref<?xi8>
  }

  func.func @LyLookupError_Repr(%header: memref<3xi64> {ly.ownership.object_header}, %message_header: memref<2xi64> {ly.ownership.object_header}, %message_bytes: memref<?xi8>) -> (memref<2xi64>, memref<?xi8>) attributes {ly.ownership.owned_results = [0], ly.runtime.contract = "builtins.LookupError", ly.runtime.method = "__repr__", ly.runtime.result_contract = "builtins.str"} {
    %view = memref.cast %message_header : memref<2xi64> to memref<2xi64, strided<[1], offset: ?>>
    func.call @Ly_IncRef(%view) : (memref<2xi64, strided<[1], offset: ?>>) -> ()
    func.return %message_header, %message_bytes : memref<2xi64>, memref<?xi8>
  }

  func.func @LyZeroDivisionError_Str(%header: memref<3xi64> {ly.ownership.object_header}, %message_header: memref<2xi64> {ly.ownership.object_header}, %message_bytes: memref<?xi8>) -> (memref<2xi64>, memref<?xi8>) attributes {ly.ownership.owned_results = [0], ly.runtime.contract = "builtins.ZeroDivisionError", ly.runtime.method = "__str__", ly.runtime.result_contract = "builtins.str"} {
    %view = memref.cast %message_header : memref<2xi64> to memref<2xi64, strided<[1], offset: ?>>
    func.call @Ly_IncRef(%view) : (memref<2xi64, strided<[1], offset: ?>>) -> ()
    func.return %message_header, %message_bytes : memref<2xi64>, memref<?xi8>
  }

  func.func @LyZeroDivisionError_Repr(%header: memref<3xi64> {ly.ownership.object_header}, %message_header: memref<2xi64> {ly.ownership.object_header}, %message_bytes: memref<?xi8>) -> (memref<2xi64>, memref<?xi8>) attributes {ly.ownership.owned_results = [0], ly.runtime.contract = "builtins.ZeroDivisionError", ly.runtime.method = "__repr__", ly.runtime.result_contract = "builtins.str"} {
    %view = memref.cast %message_header : memref<2xi64> to memref<2xi64, strided<[1], offset: ?>>
    func.call @Ly_IncRef(%view) : (memref<2xi64, strided<[1], offset: ?>>) -> ()
    func.return %message_header, %message_bytes : memref<2xi64>, memref<?xi8>
  }

  func.func @LyKeyError_Str(%header: memref<3xi64> {ly.ownership.object_header}, %message_header: memref<2xi64> {ly.ownership.object_header}, %message_bytes: memref<?xi8>) -> (memref<2xi64>, memref<?xi8>) attributes {ly.ownership.owned_results = [0], ly.runtime.contract = "builtins.KeyError", ly.runtime.method = "__str__", ly.runtime.result_contract = "builtins.str"} {
    %view = memref.cast %message_header : memref<2xi64> to memref<2xi64, strided<[1], offset: ?>>
    func.call @Ly_IncRef(%view) : (memref<2xi64, strided<[1], offset: ?>>) -> ()
    func.return %message_header, %message_bytes : memref<2xi64>, memref<?xi8>
  }

  func.func @LyKeyError_Repr(%header: memref<3xi64> {ly.ownership.object_header}, %message_header: memref<2xi64> {ly.ownership.object_header}, %message_bytes: memref<?xi8>) -> (memref<2xi64>, memref<?xi8>) attributes {ly.ownership.owned_results = [0], ly.runtime.contract = "builtins.KeyError", ly.runtime.method = "__repr__", ly.runtime.result_contract = "builtins.str"} {
    %view = memref.cast %message_header : memref<2xi64> to memref<2xi64, strided<[1], offset: ?>>
    func.call @Ly_IncRef(%view) : (memref<2xi64, strided<[1], offset: ?>>) -> ()
    func.return %message_header, %message_bytes : memref<2xi64>, memref<?xi8>
  }

  func.func @LyIndexError_Str(%header: memref<3xi64> {ly.ownership.object_header}, %message_header: memref<2xi64> {ly.ownership.object_header}, %message_bytes: memref<?xi8>) -> (memref<2xi64>, memref<?xi8>) attributes {ly.ownership.owned_results = [0], ly.runtime.contract = "builtins.IndexError", ly.runtime.method = "__str__", ly.runtime.result_contract = "builtins.str"} {
    %view = memref.cast %message_header : memref<2xi64> to memref<2xi64, strided<[1], offset: ?>>
    func.call @Ly_IncRef(%view) : (memref<2xi64, strided<[1], offset: ?>>) -> ()
    func.return %message_header, %message_bytes : memref<2xi64>, memref<?xi8>
  }

  func.func @LyIndexError_Repr(%header: memref<3xi64> {ly.ownership.object_header}, %message_header: memref<2xi64> {ly.ownership.object_header}, %message_bytes: memref<?xi8>) -> (memref<2xi64>, memref<?xi8>) attributes {ly.ownership.owned_results = [0], ly.runtime.contract = "builtins.IndexError", ly.runtime.method = "__repr__", ly.runtime.result_contract = "builtins.str"} {
    %view = memref.cast %message_header : memref<2xi64> to memref<2xi64, strided<[1], offset: ?>>
    func.call @Ly_IncRef(%view) : (memref<2xi64, strided<[1], offset: ?>>) -> ()
    func.return %message_header, %message_bytes : memref<2xi64>, memref<?xi8>
  }

  func.func @LyAssertionError_Str(%header: memref<3xi64> {ly.ownership.object_header}, %message_header: memref<2xi64> {ly.ownership.object_header}, %message_bytes: memref<?xi8>) -> (memref<2xi64>, memref<?xi8>) attributes {ly.ownership.owned_results = [0], ly.runtime.contract = "builtins.AssertionError", ly.runtime.method = "__str__", ly.runtime.result_contract = "builtins.str"} {
    %view = memref.cast %message_header : memref<2xi64> to memref<2xi64, strided<[1], offset: ?>>
    func.call @Ly_IncRef(%view) : (memref<2xi64, strided<[1], offset: ?>>) -> ()
    func.return %message_header, %message_bytes : memref<2xi64>, memref<?xi8>
  }

  func.func @LyAssertionError_Repr(%header: memref<3xi64> {ly.ownership.object_header}, %message_header: memref<2xi64> {ly.ownership.object_header}, %message_bytes: memref<?xi8>) -> (memref<2xi64>, memref<?xi8>) attributes {ly.ownership.owned_results = [0], ly.runtime.contract = "builtins.AssertionError", ly.runtime.method = "__repr__", ly.runtime.result_contract = "builtins.str"} {
    %view = memref.cast %message_header : memref<2xi64> to memref<2xi64, strided<[1], offset: ?>>
    func.call @Ly_IncRef(%view) : (memref<2xi64, strided<[1], offset: ?>>) -> ()
    func.return %message_header, %message_bytes : memref<2xi64>, memref<?xi8>
  }

  func.func @LyStopIteration_Str(%header: memref<3xi64> {ly.ownership.object_header}, %message_header: memref<2xi64> {ly.ownership.object_header}, %message_bytes: memref<?xi8>) -> (memref<2xi64>, memref<?xi8>) attributes {ly.ownership.owned_results = [0], ly.runtime.contract = "builtins.StopIteration", ly.runtime.method = "__str__", ly.runtime.result_contract = "builtins.str"} {
    %view = memref.cast %message_header : memref<2xi64> to memref<2xi64, strided<[1], offset: ?>>
    func.call @Ly_IncRef(%view) : (memref<2xi64, strided<[1], offset: ?>>) -> ()
    func.return %message_header, %message_bytes : memref<2xi64>, memref<?xi8>
  }

  func.func @LyStopIteration_Repr(%header: memref<3xi64> {ly.ownership.object_header}, %message_header: memref<2xi64> {ly.ownership.object_header}, %message_bytes: memref<?xi8>) -> (memref<2xi64>, memref<?xi8>) attributes {ly.ownership.owned_results = [0], ly.runtime.contract = "builtins.StopIteration", ly.runtime.method = "__repr__", ly.runtime.result_contract = "builtins.str"} {
    %view = memref.cast %message_header : memref<2xi64> to memref<2xi64, strided<[1], offset: ?>>
    func.call @Ly_IncRef(%view) : (memref<2xi64, strided<[1], offset: ?>>) -> ()
    func.return %message_header, %message_bytes : memref<2xi64>, memref<?xi8>
  }

  func.func @LyStopAsyncIteration_Str(%header: memref<3xi64> {ly.ownership.object_header}, %message_header: memref<2xi64> {ly.ownership.object_header}, %message_bytes: memref<?xi8>) -> (memref<2xi64>, memref<?xi8>) attributes {ly.ownership.owned_results = [0], ly.runtime.contract = "builtins.StopAsyncIteration", ly.runtime.method = "__str__", ly.runtime.result_contract = "builtins.str"} {
    %view = memref.cast %message_header : memref<2xi64> to memref<2xi64, strided<[1], offset: ?>>
    func.call @Ly_IncRef(%view) : (memref<2xi64, strided<[1], offset: ?>>) -> ()
    func.return %message_header, %message_bytes : memref<2xi64>, memref<?xi8>
  }

  func.func @LyStopAsyncIteration_Repr(%header: memref<3xi64> {ly.ownership.object_header}, %message_header: memref<2xi64> {ly.ownership.object_header}, %message_bytes: memref<?xi8>) -> (memref<2xi64>, memref<?xi8>) attributes {ly.ownership.owned_results = [0], ly.runtime.contract = "builtins.StopAsyncIteration", ly.runtime.method = "__repr__", ly.runtime.result_contract = "builtins.str"} {
    %view = memref.cast %message_header : memref<2xi64> to memref<2xi64, strided<[1], offset: ?>>
    func.call @Ly_IncRef(%view) : (memref<2xi64, strided<[1], offset: ?>>) -> ()
    func.return %message_header, %message_bytes : memref<2xi64>, memref<?xi8>
  }

  func.func @LyCancelledError_Str(%header: memref<3xi64> {ly.ownership.object_header}, %message_header: memref<2xi64> {ly.ownership.object_header}, %message_bytes: memref<?xi8>) -> (memref<2xi64>, memref<?xi8>) attributes {ly.ownership.owned_results = [0], ly.runtime.contract = "asyncio.CancelledError", ly.runtime.method = "__str__", ly.runtime.result_contract = "builtins.str"} {
    %view = memref.cast %message_header : memref<2xi64> to memref<2xi64, strided<[1], offset: ?>>
    func.call @Ly_IncRef(%view) : (memref<2xi64, strided<[1], offset: ?>>) -> ()
    func.return %message_header, %message_bytes : memref<2xi64>, memref<?xi8>
  }

  func.func @LyCancelledError_Repr(%header: memref<3xi64> {ly.ownership.object_header}, %message_header: memref<2xi64> {ly.ownership.object_header}, %message_bytes: memref<?xi8>) -> (memref<2xi64>, memref<?xi8>) attributes {ly.ownership.owned_results = [0], ly.runtime.contract = "asyncio.CancelledError", ly.runtime.method = "__repr__", ly.runtime.result_contract = "builtins.str"} {
    %view = memref.cast %message_header : memref<2xi64> to memref<2xi64, strided<[1], offset: ?>>
    func.call @Ly_IncRef(%view) : (memref<2xi64, strided<[1], offset: ?>>) -> ()
    func.return %message_header, %message_bytes : memref<2xi64>, memref<?xi8>
  }

  func.func @LySystemExit_Str(%header: memref<3xi64> {ly.ownership.object_header}, %message_header: memref<2xi64> {ly.ownership.object_header}, %message_bytes: memref<?xi8>) -> (memref<2xi64>, memref<?xi8>) attributes {ly.ownership.owned_results = [0], ly.runtime.contract = "builtins.SystemExit", ly.runtime.method = "__str__", ly.runtime.result_contract = "builtins.str"} {
    %view = memref.cast %message_header : memref<2xi64> to memref<2xi64, strided<[1], offset: ?>>
    func.call @Ly_IncRef(%view) : (memref<2xi64, strided<[1], offset: ?>>) -> ()
    func.return %message_header, %message_bytes : memref<2xi64>, memref<?xi8>
  }

  func.func @LySystemExit_Repr(%header: memref<3xi64> {ly.ownership.object_header}, %message_header: memref<2xi64> {ly.ownership.object_header}, %message_bytes: memref<?xi8>) -> (memref<2xi64>, memref<?xi8>) attributes {ly.ownership.owned_results = [0], ly.runtime.contract = "builtins.SystemExit", ly.runtime.method = "__repr__", ly.runtime.result_contract = "builtins.str"} {
    %view = memref.cast %message_header : memref<2xi64> to memref<2xi64, strided<[1], offset: ?>>
    func.call @Ly_IncRef(%view) : (memref<2xi64, strided<[1], offset: ?>>) -> ()
    func.return %message_header, %message_bytes : memref<2xi64>, memref<?xi8>
  }

  func.func @LyGeneratorExit_Str(%header: memref<3xi64> {ly.ownership.object_header}, %message_header: memref<2xi64> {ly.ownership.object_header}, %message_bytes: memref<?xi8>) -> (memref<2xi64>, memref<?xi8>) attributes {ly.ownership.owned_results = [0], ly.runtime.contract = "builtins.GeneratorExit", ly.runtime.method = "__str__", ly.runtime.result_contract = "builtins.str"} {
    %view = memref.cast %message_header : memref<2xi64> to memref<2xi64, strided<[1], offset: ?>>
    func.call @Ly_IncRef(%view) : (memref<2xi64, strided<[1], offset: ?>>) -> ()
    func.return %message_header, %message_bytes : memref<2xi64>, memref<?xi8>
  }

  func.func @LyGeneratorExit_Repr(%header: memref<3xi64> {ly.ownership.object_header}, %message_header: memref<2xi64> {ly.ownership.object_header}, %message_bytes: memref<?xi8>) -> (memref<2xi64>, memref<?xi8>) attributes {ly.ownership.owned_results = [0], ly.runtime.contract = "builtins.GeneratorExit", ly.runtime.method = "__repr__", ly.runtime.result_contract = "builtins.str"} {
    %view = memref.cast %message_header : memref<2xi64> to memref<2xi64, strided<[1], offset: ?>>
    func.call @Ly_IncRef(%view) : (memref<2xi64, strided<[1], offset: ?>>) -> ()
    func.return %message_header, %message_bytes : memref<2xi64>, memref<?xi8>
  }

  func.func @LyOSError_Str(%header: memref<3xi64> {ly.ownership.object_header}, %message_header: memref<2xi64> {ly.ownership.object_header}, %message_bytes: memref<?xi8>) -> (memref<2xi64>, memref<?xi8>) attributes {ly.ownership.owned_results = [0], ly.runtime.contract = "builtins.OSError", ly.runtime.method = "__str__", ly.runtime.result_contract = "builtins.str"} {
    %view = memref.cast %message_header : memref<2xi64> to memref<2xi64, strided<[1], offset: ?>>
    func.call @Ly_IncRef(%view) : (memref<2xi64, strided<[1], offset: ?>>) -> ()
    func.return %message_header, %message_bytes : memref<2xi64>, memref<?xi8>
  }

  func.func @LyOSError_Repr(%header: memref<3xi64> {ly.ownership.object_header}, %message_header: memref<2xi64> {ly.ownership.object_header}, %message_bytes: memref<?xi8>) -> (memref<2xi64>, memref<?xi8>) attributes {ly.ownership.owned_results = [0], ly.runtime.contract = "builtins.OSError", ly.runtime.method = "__repr__", ly.runtime.result_contract = "builtins.str"} {
    %view = memref.cast %message_header : memref<2xi64> to memref<2xi64, strided<[1], offset: ?>>
    func.call @Ly_IncRef(%view) : (memref<2xi64, strided<[1], offset: ?>>) -> ()
    func.return %message_header, %message_bytes : memref<2xi64>, memref<?xi8>
  }

  func.func @LyFileNotFoundError_Str(%header: memref<3xi64> {ly.ownership.object_header}, %message_header: memref<2xi64> {ly.ownership.object_header}, %message_bytes: memref<?xi8>) -> (memref<2xi64>, memref<?xi8>) attributes {ly.ownership.owned_results = [0], ly.runtime.contract = "builtins.FileNotFoundError", ly.runtime.method = "__str__", ly.runtime.result_contract = "builtins.str"} {
    %view = memref.cast %message_header : memref<2xi64> to memref<2xi64, strided<[1], offset: ?>>
    func.call @Ly_IncRef(%view) : (memref<2xi64, strided<[1], offset: ?>>) -> ()
    func.return %message_header, %message_bytes : memref<2xi64>, memref<?xi8>
  }

  func.func @LyFileNotFoundError_Repr(%header: memref<3xi64> {ly.ownership.object_header}, %message_header: memref<2xi64> {ly.ownership.object_header}, %message_bytes: memref<?xi8>) -> (memref<2xi64>, memref<?xi8>) attributes {ly.ownership.owned_results = [0], ly.runtime.contract = "builtins.FileNotFoundError", ly.runtime.method = "__repr__", ly.runtime.result_contract = "builtins.str"} {
    %view = memref.cast %message_header : memref<2xi64> to memref<2xi64, strided<[1], offset: ?>>
    func.call @Ly_IncRef(%view) : (memref<2xi64, strided<[1], offset: ?>>) -> ()
    func.return %message_header, %message_bytes : memref<2xi64>, memref<?xi8>
  }

  // ===== impls: bytes =====
  // Physical twin of str ([0,16) header + byte payload in one entity block)
  // with byte-oriented semantics: __len__/__getitem__ count BYTES (str
  // counts codepoints), __getitem__ returns int, repr spells b'...'.
  func.func private @LyBytes_Shape() -> (memref<2xi64>, memref<?xi8>) attributes {ly.runtime.contract = "builtins.bytes", ly.runtime.shape}

  memref.global "private" constant @__ly_bytes_msg_index_out_of_range : memref<18xi8> = dense<[105, 110, 100, 101, 120, 32, 111, 117, 116, 32, 111, 102, 32, 114, 97, 110, 103, 101]>

  func.func private @__ly_bytes_raise_index_error() {
    %class_id = arith.constant 55 : i64
    %length = arith.constant 18 : i64
    %message_static = memref.get_global @__ly_bytes_msg_index_out_of_range : memref<18xi8>
    %message = memref.cast %message_static : memref<18xi8> to memref<?xi8>
    func.call @__ly_long_raise_message(%class_id, %message, %length) : (i64, memref<?xi8>, i64) -> ()
    func.return
  }

  func.func private @__ly_bytes_alloc(%len: i64) -> (memref<2xi64>, memref<?xi8>) attributes {ly.ownership.owned_results = [0], ly.runtime.contract = "builtins.bytes", ly.runtime.primitive = "alloc"} {
    %byte_count = arith.index_cast %len : i64 to index
    %block_prefix = arith.constant 16 : index
    %block_bytes = arith.addi %byte_count, %block_prefix : index
    %block = memref.alloc(%block_bytes) {alignment = 16 : i64} : memref<?xi8>
    %header_offset = arith.constant 0 : index
    %bytes_offset = arith.constant 16 : index
    %header = memref.view %block[%header_offset][] {ly.ownership.object_header, ly.ownership.owned_local_object} : memref<?xi8> to memref<2xi64>
    %bytes = memref.view %block[%bytes_offset][%byte_count] : memref<?xi8> to memref<?xi8>
    %one = arith.constant 1 : i64
    %layout_bytes = arith.constant 70 : i64
    %refcount_slot = arith.constant 0 : index
    %layout_slot = arith.constant 1 : index
    memref.store %one, %header[%refcount_slot] : memref<2xi64>
    memref.store %layout_bytes, %header[%layout_slot] : memref<2xi64>
    func.return %header, %bytes : memref<2xi64>, memref<?xi8>
  }

  func.func @LyBytes_FromBytes(%bytes: memref<?xi8>, %start: index, %len: i64) -> (memref<2xi64>, memref<?xi8>) attributes {ly.ownership.owned_results = [0], ly.runtime.class_id = 70 : i64, ly.runtime.contract = "builtins.bytes", ly.runtime.initializer = "__new__"} {
    %header, %result_bytes = func.call @__ly_bytes_alloc(%len) : (i64) -> (memref<2xi64>, memref<?xi8>)
    %byte_count = arith.index_cast %len : i64 to index
    %lower = arith.constant 0 : index
    %step = arith.constant 1 : index
    scf.for %index = %lower to %byte_count step %step {
      %source_index = arith.addi %start, %index : index
      %byte = memref.load %bytes[%source_index] : memref<?xi8>
      memref.store %byte, %result_bytes[%index] : memref<?xi8>
    }
    func.return %header, %result_bytes : memref<2xi64>, memref<?xi8>
  }

  func.func @LyBytes_Len(%header: memref<2xi64> {ly.ownership.object_header}, %bytes: memref<?xi8>) -> i64 attributes {ly.runtime.contract = "builtins.bytes", ly.runtime.method = "__len__"} {
    %c0 = arith.constant 0 : index
    %dim = memref.dim %bytes, %c0 : memref<?xi8>
    %length = arith.index_cast %dim : index to i64
    func.return %length : i64
  }

  func.func @LyBytes_Bool(%header: memref<2xi64> {ly.ownership.object_header}, %bytes: memref<?xi8>) -> i1 attributes {ly.runtime.contract = "builtins.bytes", ly.runtime.method = "__bool__"} {
    %c0 = arith.constant 0 : index
    %zero = arith.constant 0 : index
    %dim = memref.dim %bytes, %c0 : memref<?xi8>
    %non_empty = arith.cmpi ne, %dim, %zero : index
    func.return %non_empty : i1
  }

  // bytes[i] is the byte VALUE (an int), unlike str's one-element slice.
  func.func @LyBytes_GetItem(%header: memref<2xi64> {ly.ownership.object_header}, %bytes: memref<?xi8>, %raw_index: i64) -> (memref<2xi64>, memref<2xi64>, memref<?xi32>) attributes {ly.ownership.owned_results = [0], ly.runtime.contract = "builtins.bytes", ly.runtime.method = "__getitem__", ly.runtime.result_contract = "builtins.int"} {
    %zero = arith.constant 0 : i64
    %c0 = arith.constant 0 : index
    %dim = memref.dim %bytes, %c0 : memref<?xi8>
    %length = arith.index_cast %dim : index to i64
    %is_negative = arith.cmpi slt, %raw_index, %zero : i64
    %from_end = arith.addi %raw_index, %length : i64
    %index = arith.select %is_negative, %from_end, %raw_index : i1, i64
    %lower_ok = arith.cmpi sge, %index, %zero : i64
    %upper_ok = arith.cmpi slt, %index, %length : i64
    %valid = arith.andi %lower_ok, %upper_ok : i1
    %value = scf.if %valid -> (i64) {
      %at = arith.index_cast %index : i64 to index
      %byte = memref.load %bytes[%at] : memref<?xi8>
      %wide = arith.extui %byte : i8 to i64
      scf.yield %wide : i64
    } else {
      func.call @__ly_bytes_raise_index_error() : () -> ()
      scf.yield %zero : i64
    }
    %result:3 = func.call @LyLong_FromI64(%value) : (i64) -> (memref<2xi64>, memref<2xi64>, memref<?xi32>)
    func.return %result#0, %result#1, %result#2 : memref<2xi64>, memref<2xi64>, memref<?xi32>
  }

  func.func @LyBytes_EqBool(%lhs_header: memref<2xi64> {ly.ownership.object_header}, %lhs_bytes: memref<?xi8>, %rhs_header: memref<2xi64> {ly.ownership.object_header}, %rhs_bytes: memref<?xi8>) -> i1 attributes {ly.runtime.contract = "builtins.bytes", ly.runtime.method = "__eq__"} {
    %c0 = arith.constant 0 : index
    %lhs_ptr_index = memref.extract_aligned_pointer_as_index %lhs_bytes : memref<?xi8> -> index
    %lhs_ptr = arith.index_cast %lhs_ptr_index : index to i64
    %lhs_dim = memref.dim %lhs_bytes, %c0 : memref<?xi8>
    %lhs_len = arith.index_cast %lhs_dim : index to i64
    %rhs_ptr_index = memref.extract_aligned_pointer_as_index %rhs_bytes : memref<?xi8> -> index
    %rhs_ptr = arith.index_cast %rhs_ptr_index : index to i64
    %rhs_dim = memref.dim %rhs_bytes, %c0 : memref<?xi8>
    %rhs_len = arith.index_cast %rhs_dim : index to i64
    %equal = func.call @raw_bytes_equal(%lhs_ptr, %lhs_len, %rhs_ptr, %rhs_len) : (i64, i64, i64, i64) -> i1
    func.return %equal : i1
  }

  func.func @LyBytes_NeBool(%lhs_header: memref<2xi64> {ly.ownership.object_header}, %lhs_bytes: memref<?xi8>, %rhs_header: memref<2xi64> {ly.ownership.object_header}, %rhs_bytes: memref<?xi8>) -> i1 attributes {ly.runtime.contract = "builtins.bytes", ly.runtime.method = "__ne__"} {
    %equal = func.call @LyBytes_EqBool(%lhs_header, %lhs_bytes, %rhs_header, %rhs_bytes) : (memref<2xi64>, memref<?xi8>, memref<2xi64>, memref<?xi8>) -> i1
    %true_bit = arith.constant true
    %not_equal = arith.xori %equal, %true_bit : i1
    func.return %not_equal : i1
  }

  func.func @LyBytes_Concat(%lhs_header: memref<2xi64> {ly.ownership.object_header}, %lhs_bytes: memref<?xi8>, %rhs_header: memref<2xi64> {ly.ownership.object_header}, %rhs_bytes: memref<?xi8>) -> (memref<2xi64>, memref<?xi8>) attributes {ly.ownership.owned_results = [0], ly.runtime.contract = "builtins.bytes", ly.runtime.method = "__add__"} {
    %c0 = arith.constant 0 : index
    %c1 = arith.constant 1 : index
    %lhs_dim = memref.dim %lhs_bytes, %c0 : memref<?xi8>
    %rhs_dim = memref.dim %rhs_bytes, %c0 : memref<?xi8>
    %total_index = arith.addi %lhs_dim, %rhs_dim : index
    %total = arith.index_cast %total_index : index to i64
    %header, %bytes = func.call @__ly_bytes_alloc(%total) : (i64) -> (memref<2xi64>, memref<?xi8>)
    scf.for %i = %c0 to %lhs_dim step %c1 {
      %byte = memref.load %lhs_bytes[%i] : memref<?xi8>
      memref.store %byte, %bytes[%i] : memref<?xi8>
    }
    scf.for %i = %c0 to %rhs_dim step %c1 {
      %byte = memref.load %rhs_bytes[%i] : memref<?xi8>
      %dest = arith.addi %lhs_dim, %i : index
      memref.store %byte, %bytes[%dest] : memref<?xi8>
    }
    func.return %header, %bytes : memref<2xi64>, memref<?xi8>
  }

  // bytes_repr (Objects/bytesobject.c): b'...' with \t \n \r \' \\ kept as
  // two-character escapes, other non-printable bytes as \xHH. CPython picks
  // double quotes when the payload contains ' but not "; this port always
  // uses single quotes and escapes ' instead.
  func.func @LyBytes_Repr(%header: memref<2xi64> {ly.ownership.object_header}, %bytes: memref<?xi8>) -> (memref<2xi64>, memref<?xi8>) attributes {ly.ownership.owned_results = [0], ly.runtime.contract = "builtins.bytes", ly.runtime.method = "__repr__", ly.runtime.result_contract = "builtins.str"} {
    %c0 = arith.constant 0 : index
    %c1 = arith.constant 1 : index
    %one = arith.constant 1 : index
    %two = arith.constant 2 : index
    %four = arith.constant 4 : index
    %dim = memref.dim %bytes, %c0 : memref<?xi8>

    %tab = arith.constant 9 : i8
    %newline = arith.constant 10 : i8
    %carriage = arith.constant 13 : i8
    %quote = arith.constant 39 : i8
    %backslash = arith.constant 92 : i8
    %space = arith.constant 32 : i8
    %tilde_plus_one = arith.constant 127 : i8

    // Pass 1: output length (b + quote + payload + quote).
    %payload_len = scf.for %i = %c0 to %dim step %c1 iter_args(%acc = %c0) -> (index) {
      %byte = memref.load %bytes[%i] : memref<?xi8>
      %is_tab = arith.cmpi eq, %byte, %tab : i8
      %is_nl = arith.cmpi eq, %byte, %newline : i8
      %is_cr = arith.cmpi eq, %byte, %carriage : i8
      %is_quote = arith.cmpi eq, %byte, %quote : i8
      %is_bs = arith.cmpi eq, %byte, %backslash : i8
      %pair_a = arith.ori %is_tab, %is_nl : i1
      %pair_b = arith.ori %pair_a, %is_cr : i1
      %pair = arith.ori %pair_b, %is_quote : i1
      %pair_full = arith.ori %pair, %is_bs : i1
      %ge_space = arith.cmpi uge, %byte, %space : i8
      %lt_del = arith.cmpi ult, %byte, %tilde_plus_one : i8
      %printable = arith.andi %ge_space, %lt_del : i1
      %escaped_two = arith.select %pair_full, %two, %four : index
      %width = arith.select %printable, %one, %escaped_two : index
      %width_final = arith.select %pair_full, %two, %width : index
      %next = arith.addi %acc, %width_final : index
      scf.yield %next : index
    }
    %prefix = arith.constant 3 : index
    %out_len_index = arith.addi %payload_len, %prefix : index
    %out = memref.alloc(%out_len_index) : memref<?xi8>

    // Pass 2: fill.
    %b_char = arith.constant 98 : i8
    memref.store %b_char, %out[%c0] : memref<?xi8>
    memref.store %quote, %out[%c1] : memref<?xi8>
    %payload_start = arith.constant 2 : index
    %end_pos = scf.for %i = %c0 to %dim step %c1 iter_args(%pos = %payload_start) -> (index) {
      %byte = memref.load %bytes[%i] : memref<?xi8>
      %is_tab = arith.cmpi eq, %byte, %tab : i8
      %is_nl = arith.cmpi eq, %byte, %newline : i8
      %is_cr = arith.cmpi eq, %byte, %carriage : i8
      %is_quote = arith.cmpi eq, %byte, %quote : i8
      %is_bs = arith.cmpi eq, %byte, %backslash : i8
      %pair_a = arith.ori %is_tab, %is_nl : i1
      %pair_b = arith.ori %pair_a, %is_cr : i1
      %pair_c = arith.ori %pair_b, %is_quote : i1
      %pair_full = arith.ori %pair_c, %is_bs : i1
      %ge_space = arith.cmpi uge, %byte, %space : i8
      %lt_del = arith.cmpi ult, %byte, %tilde_plus_one : i8
      %printable_raw = arith.andi %ge_space, %lt_del : i1
      %true_bit = arith.constant true
      %not_pair = arith.xori %pair_full, %true_bit : i1
      %printable = arith.andi %printable_raw, %not_pair : i1
      %next = scf.if %printable -> (index) {
        memref.store %byte, %out[%pos] : memref<?xi8>
        %advanced = arith.addi %pos, %one : index
        scf.yield %advanced : index
      } else {
        %escaped = scf.if %pair_full -> (index) {
          memref.store %backslash, %out[%pos] : memref<?xi8>
          %second_pos = arith.addi %pos, %one : index
          %t_char = arith.constant 116 : i8
          %n_char = arith.constant 110 : i8
          %r_char = arith.constant 114 : i8
          %escape_a = arith.select %is_tab, %t_char, %byte : i8
          %escape_b = arith.select %is_nl, %n_char, %escape_a : i8
          %escape_c = arith.select %is_cr, %r_char, %escape_b : i8
          memref.store %escape_c, %out[%second_pos] : memref<?xi8>
          %advanced = arith.addi %pos, %two : index
          scf.yield %advanced : index
        } else {
          // \xHH
          memref.store %backslash, %out[%pos] : memref<?xi8>
          %x_pos = arith.addi %pos, %one : index
          %x_char = arith.constant 120 : i8
          memref.store %x_char, %out[%x_pos] : memref<?xi8>
          %wide = arith.extui %byte : i8 to i64
          %sixteen = arith.constant 16 : i64
          %high = arith.divui %wide, %sixteen : i64
          %low = arith.remui %wide, %sixteen : i64
          %ten = arith.constant 10 : i64
          %digit_base = arith.constant 48 : i64
          %alpha_base = arith.constant 87 : i64
          %high_is_alpha = arith.cmpi uge, %high, %ten : i64
          %high_base = arith.select %high_is_alpha, %alpha_base, %digit_base : i64
          %high_char_wide = arith.addi %high, %high_base : i64
          %high_char = arith.trunci %high_char_wide : i64 to i8
          %low_is_alpha = arith.cmpi uge, %low, %ten : i64
          %low_base = arith.select %low_is_alpha, %alpha_base, %digit_base : i64
          %low_char_wide = arith.addi %low, %low_base : i64
          %low_char = arith.trunci %low_char_wide : i64 to i8
          %high_pos = arith.addi %pos, %two : index
          memref.store %high_char, %out[%high_pos] : memref<?xi8>
          %three = arith.constant 3 : index
          %low_pos = arith.addi %pos, %three : index
          memref.store %low_char, %out[%low_pos] : memref<?xi8>
          %advanced = arith.addi %pos, %four : index
          scf.yield %advanced : index
        }
        scf.yield %escaped : index
      }
      scf.yield %next : index
    }
    memref.store %quote, %out[%end_pos] : memref<?xi8>

    %out_len = arith.index_cast %out_len_index : index to i64
    %result_header, %result_bytes = func.call @LyUnicode_FromBytes(%out, %c0, %out_len) : (memref<?xi8>, index, i64) -> (memref<2xi64>, memref<?xi8>)
    memref.dealloc %out : memref<?xi8>
    func.return %result_header, %result_bytes : memref<2xi64>, memref<?xi8>
  }

  func.func @LyBytes_Str(%header: memref<2xi64> {ly.ownership.object_header}, %bytes: memref<?xi8>) -> (memref<2xi64>, memref<?xi8>) attributes {ly.ownership.owned_results = [0], ly.runtime.contract = "builtins.bytes", ly.runtime.method = "__str__", ly.runtime.result_contract = "builtins.str"} {
    %result:2 = func.call @LyBytes_Repr(%header, %bytes) : (memref<2xi64>, memref<?xi8>) -> (memref<2xi64>, memref<?xi8>)
    func.return %result#0, %result#1 : memref<2xi64>, memref<?xi8>
  }

  // decode() with the default encoding: LyUnicode_FromBytes decodes the
  // UTF-8 into the adaptive-width payload and raises on invalid input.
  func.func @LyBytes_Decode(%header: memref<2xi64> {ly.ownership.object_header}, %bytes: memref<?xi8>) -> (memref<2xi64>, memref<?xi8>) attributes {ly.ownership.owned_results = [0], ly.runtime.contract = "builtins.bytes", ly.runtime.method = "decode", ly.runtime.result_contract = "builtins.str"} {
    %c0 = arith.constant 0 : index
    %dim = memref.dim %bytes, %c0 : memref<?xi8>
    %length = arith.index_cast %dim : index to i64
    %result_header, %result_bytes = func.call @LyUnicode_FromBytes(%bytes, %c0, %length) : (memref<?xi8>, index, i64) -> (memref<2xi64>, memref<?xi8>)
    func.return %result_header, %result_bytes : memref<2xi64>, memref<?xi8>
  }

  // str.encode() with the default encoding: re-encode the adaptive-width
  // code units to UTF-8.
  func.func @LyUnicode_Encode(%header: memref<2xi64> {ly.ownership.object_header}, %bytes: memref<?xi8>) -> (memref<2xi64>, memref<?xi8>) attributes {ly.ownership.owned_results = [0], ly.runtime.contract = "builtins.str", ly.runtime.method = "encode", ly.runtime.result_contract = "builtins.bytes"} {
    %c0 = arith.constant 0 : index
    %length = func.call @__ly_unicode_utf8_length(%header, %bytes) : (memref<2xi64>, memref<?xi8>) -> i64
    %length_index = arith.index_cast %length : i64 to index
    %buffer = memref.alloc(%length_index) : memref<?xi8>
    func.call @__ly_unicode_utf8_fill(%header, %bytes, %buffer) : (memref<2xi64>, memref<?xi8>, memref<?xi8>) -> ()
…
  func.func @LySet_RemoveBox(%header: memref<2xi64> {ly.ownership.object_header}, %meta: memref<2xi64>, %items: memref<?xi64>, %elem_box: memref<16xi64>) attributes {ly.runtime.contract = "builtins.set", ly.runtime.primitive = "remove_box"} {
    %minus_one = arith.constant -1 : i64
    %box_idx = memref.extract_aligned_pointer_as_index %elem_box : memref<16xi64> -> index
    %box_i64 = arith.index_cast %box_idx : index to i64
    %box_ptr = llvm.inttoptr %box_i64 : i64 to !llvm.ptr
    %hash = func.call @__ly_box_hash(%box_ptr) : (!llvm.ptr) -> i64
    %found = func.call @__ly_set_probe(%meta, %items, %box_ptr, %hash) : (memref<2xi64>, memref<?xi64>, !llvm.ptr, i64) -> i64
    %missing = arith.cmpi eq, %found, %minus_one : i64
    scf.if %missing {
      func.call @__ly_dict_raise_missing_key(%box_ptr) : (!llvm.ptr) -> ()
    }
    func.call @__ly_set_remove_slot(%meta, %items, %found) : (memref<2xi64>, memref<?xi64>, i64) -> ()
    func.return
  }

  // set.clear / set.copy and the binary set algebra.
  func.func @LySet_Clear(%header: memref<2xi64> {ly.ownership.object_header}, %meta: memref<2xi64>, %items: memref<?xi64>) attributes {ly.runtime.contract = "builtins.set", ly.runtime.method = "clear"} {
    %zero = arith.constant 0 : i64
    %c0 = arith.constant 0 : index
    %c1 = arith.constant 1 : index
    %len = memref.load %meta[%c0] : memref<2xi64>
    %len_index = arith.index_cast %len : i64 to index
    scf.for %i = %c0 to %len_index step %c1 {
      %ii = arith.index_cast %i : index to i64
      func.call @LyObject_ReleaseBoxedPayloadArraySlotRaw(%items, %ii) : (memref<?xi64>, i64) -> ()
    }
    %len_words = arith.constant 16 : index
    %total = arith.muli %len_index, %len_words : index
    scf.for %w = %c0 to %total step %c1 {
      memref.store %zero, %items[%w] : memref<?xi64>
    }
    memref.store %zero, %meta[%c0] : memref<2xi64>
    func.return
  }

  func.func @LySet_Copy(%header: memref<2xi64> {ly.ownership.object_header}, %meta: memref<2xi64>, %items: memref<?xi64>) -> (memref<2xi64>, memref<2xi64>, memref<?xi64>) attributes {ly.ownership.owned_results = [0], ly.runtime.contract = "builtins.set", ly.runtime.method = "copy", ly.runtime.result_contract = "builtins.set"} {
    %class_id = arith.constant 21 : i64
    %h, %m, %i = func.call @__ly_sequence_copy_alloc(%class_id, %meta, %items) : (i64, memref<2xi64>, memref<?xi64>) -> (memref<2xi64>, memref<2xi64>, memref<?xi64>)
    func.return %h, %m, %i : memref<2xi64>, memref<2xi64>, memref<?xi64>
  }

  // Append the slot at src_base (raw box) to a set if not already present.
  // Returns the (possibly reallocated) triple.
  func.func private @__ly_set_insert_slot(%header: memref<2xi64>, %meta: memref<2xi64>, %items: memref<?xi64>, %src_items: memref<?xi64>, %src_slot: index) -> (memref<2xi64>, memref<2xi64>, memref<?xi64>) {
    %minus_one = arith.constant -1 : i64
    %one = arith.constant 1 : i64
    %c0 = arith.constant 0 : index
    %c1 = arith.constant 1 : index
    %c16 = arith.constant 16 : index
    %c15_i64 = arith.constant 15 : i64
    %c16_i64 = arith.constant 16 : i64
    %src_idx = memref.extract_aligned_pointer_as_index %src_items : memref<?xi64> -> index
    %src_i64 = arith.index_cast %src_idx : index to i64
    %src_ptr = llvm.inttoptr %src_i64 : i64 to !llvm.ptr
    %slot_i64 = arith.index_cast %src_slot : index to i64
    %off = arith.muli %slot_i64, %c16_i64 : i64
    %entry = llvm.getelementptr %src_ptr[%off] : (!llvm.ptr, i64) -> !llvm.ptr, i64
    // Cached hash (lazy refill through the shared probe convention).
    %hash_gep = llvm.getelementptr %entry[%c15_i64] : (!llvm.ptr, i64) -> !llvm.ptr, i64
    %cached = llvm.load %hash_gep : !llvm.ptr -> i64
    %zero = arith.constant 0 : i64
    %unknown = arith.cmpi eq, %cached, %zero : i64
    %hash = scf.if %unknown -> (i64) {
      %computed = func.call @__ly_box_hash(%entry) : (!llvm.ptr) -> i64
      llvm.store %computed, %hash_gep : i64, !llvm.ptr
      scf.yield %computed : i64
    } else {
      scf.yield %cached : i64
    }
    %found = func.call @__ly_set_probe(%meta, %items, %entry, %hash) : (memref<2xi64>, memref<?xi64>, !llvm.ptr, i64) -> i64
    %missing = arith.cmpi eq, %found, %minus_one : i64
    %out:3 = scf.if %missing -> (memref<2xi64>, memref<2xi64>, memref<?xi64>) {
      %len_slot = arith.constant 0 : index
      %len = memref.load %meta[%len_slot] : memref<2xi64>
      %required = arith.addi %len, %one : i64
      %grown:3 = func.call @__ly_sequence_ensure_capacity(%header, %meta, %items, %required) : (memref<2xi64>, memref<2xi64>, memref<?xi64>, i64) -> (memref<2xi64>, memref<2xi64>, memref<?xi64>)
      %dst_entry = arith.index_cast %len : i64 to index
      %src_base = arith.muli %src_slot, %c16 : index
      %dst_base = arith.muli %dst_entry, %c16 : index
      scf.for %w = %c0 to %c16 step %c1 {
        %src = arith.addi %src_base, %w : index
        %dst = arith.addi %dst_base, %w : index
        %word = memref.load %src_items[%src] : memref<?xi64>
        memref.store %word, %grown#2[%dst] : memref<?xi64>
      }
      %entity_slot = arith.constant 2 : index
      %entity_index = arith.addi %dst_base, %entity_slot : index
      %entity = memref.load %grown#2[%entity_index] : memref<?xi64>
      func.call @__ly_handle_retain_raw(%entity) : (i64) -> ()
      memref.store %required, %grown#1[%len_slot] : memref<2xi64>
      scf.yield %grown#0, %grown#1, %grown#2 : memref<2xi64>, memref<2xi64>, memref<?xi64>
    } else {
      scf.yield %header, %meta, %items : memref<2xi64>, memref<2xi64>, memref<?xi64>
    }
    func.return %out#0, %out#1, %out#2 : memref<2xi64>, memref<2xi64>, memref<?xi64>
  }

  func.func @LySet_Union(%lh: memref<2xi64> {ly.ownership.object_header}, %lm: memref<2xi64>, %li: memref<?xi64>, %rh: memref<2xi64> {ly.ownership.object_header}, %rm: memref<2xi64>, %ri: memref<?xi64>) -> (memref<2xi64>, memref<2xi64>, memref<?xi64>) attributes {ly.ownership.owned_results = [0], ly.runtime.contract = "builtins.set", ly.runtime.method = "union", ly.runtime.result_contract = "builtins.set"} {
    %c0 = arith.constant 0 : index
    %c1 = arith.constant 1 : index
    %class_id = arith.constant 21 : i64
    %copy:3 = func.call @__ly_sequence_copy_alloc(%class_id, %lm, %li) : (i64, memref<2xi64>, memref<?xi64>) -> (memref<2xi64>, memref<2xi64>, memref<?xi64>)
    %rlen = memref.load %rm[%c0] : memref<2xi64>
    %rlen_index = arith.index_cast %rlen : i64 to index
    %merged:3 = scf.for %i = %c0 to %rlen_index step %c1 iter_args(%h = %copy#0, %m = %copy#1, %it = %copy#2) -> (memref<2xi64>, memref<2xi64>, memref<?xi64>) {
      %next:3 = func.call @__ly_set_insert_slot(%h, %m, %it, %ri, %i) : (memref<2xi64>, memref<2xi64>, memref<?xi64>, memref<?xi64>, index) -> (memref<2xi64>, memref<2xi64>, memref<?xi64>)
      scf.yield %next#0, %next#1, %next#2 : memref<2xi64>, memref<2xi64>, memref<?xi64>
    }
    func.return %merged#0, %merged#1, %merged#2 : memref<2xi64>, memref<2xi64>, memref<?xi64>
  }

  func.func @LySet_Intersection(%lh: memref<2xi64> {ly.ownership.object_header}, %lm: memref<2xi64>, %li: memref<?xi64>, %rh: memref<2xi64> {ly.ownership.object_header}, %rm: memref<2xi64>, %ri: memref<?xi64>) -> (memref<2xi64>, memref<2xi64>, memref<?xi64>) attributes {ly.ownership.owned_results = [0], ly.runtime.contract = "builtins.set", ly.runtime.method = "intersection", ly.runtime.result_contract = "builtins.set"} {
    %c0 = arith.constant 0 : index
    %c1 = arith.constant 1 : index
    %c16_i64 = arith.constant 16 : i64
    %minus_one = arith.constant -1 : i64
    %zero = arith.constant 0 : i64
    %class_id = arith.constant 21 : i64
    %empty:3 = func.call @__ly_sequence_alloc(%class_id, %zero) : (i64, i64) -> (memref<2xi64>, memref<2xi64>, memref<?xi64>)
    %llen = memref.load %lm[%c0] : memref<2xi64>
    %llen_index = arith.index_cast %llen : i64 to index
    %li_idx = memref.extract_aligned_pointer_as_index %li : memref<?xi64> -> index
    %li_i64 = arith.index_cast %li_idx : index to i64
    %li_ptr = llvm.inttoptr %li_i64 : i64 to !llvm.ptr
    %result:3 = scf.for %i = %c0 to %llen_index step %c1 iter_args(%h = %empty#0, %m = %empty#1, %it = %empty#2) -> (memref<2xi64>, memref<2xi64>, memref<?xi64>) {
      %ii = arith.index_cast %i : index to i64
      %off = arith.muli %ii, %c16_i64 : i64
      %entry = llvm.getelementptr %li_ptr[%off] : (!llvm.ptr, i64) -> !llvm.ptr, i64
      %entry_hash = func.call @__ly_box_hash(%entry) : (!llvm.ptr) -> i64
      %in_rhs = func.call @__ly_set_probe(%rm, %ri, %entry, %entry_hash) : (memref<2xi64>, memref<?xi64>, !llvm.ptr, i64) -> i64
      %keep = arith.cmpi ne, %in_rhs, %minus_one : i64
      %next:3 = scf.if %keep -> (memref<2xi64>, memref<2xi64>, memref<?xi64>) {
        %ins:3 = func.call @__ly_set_insert_slot(%h, %m, %it, %li, %i) : (memref<2xi64>, memref<2xi64>, memref<?xi64>, memref<?xi64>, index) -> (memref<2xi64>, memref<2xi64>, memref<?xi64>)
        scf.yield %ins#0, %ins#1, %ins#2 : memref<2xi64>, memref<2xi64>, memref<?xi64>
      } else {
        scf.yield %h, %m, %it : memref<2xi64>, memref<2xi64>, memref<?xi64>
      }
      scf.yield %next#0, %next#1, %next#2 : memref<2xi64>, memref<2xi64>, memref<?xi64>
    }
    func.return %result#0, %result#1, %result#2 : memref<2xi64>, memref<2xi64>, memref<?xi64>
  }

  func.func @LySet_Difference(%lh: memref<2xi64> {ly.ownership.object_header}, %lm: memref<2xi64>, %li: memref<?xi64>, %rh: memref<2xi64> {ly.ownership.object_header}, %rm: memref<2xi64>, %ri: memref<?xi64>) -> (memref<2xi64>, memref<2xi64>, memref<?xi64>) attributes {ly.ownership.owned_results = [0], ly.runtime.contract = "builtins.set", ly.runtime.method = "difference", ly.runtime.result_contract = "builtins.set"} {
    %c0 = arith.constant 0 : index
    %c1 = arith.constant 1 : index
    %c16_i64 = arith.constant 16 : i64
    %minus_one = arith.constant -1 : i64
    %zero = arith.constant 0 : i64
    %class_id = arith.constant 21 : i64
    %empty:3 = func.call @__ly_sequence_alloc(%class_id, %zero) : (i64, i64) -> (memref<2xi64>, memref<2xi64>, memref<?xi64>)
    %llen = memref.load %lm[%c0] : memref<2xi64>
    %llen_index = arith.index_cast %llen : i64 to index
    %li_idx = memref.extract_aligned_pointer_as_index %li : memref<?xi64> -> index
    %li_i64 = arith.index_cast %li_idx : index to i64
    %li_ptr = llvm.inttoptr %li_i64 : i64 to !llvm.ptr
    %result:3 = scf.for %i = %c0 to %llen_index step %c1 iter_args(%h = %empty#0, %m = %empty#1, %it = %empty#2) -> (memref<2xi64>, memref<2xi64>, memref<?xi64>) {
      %ii = arith.index_cast %i : index to i64
      %off = arith.muli %ii, %c16_i64 : i64
      %entry = llvm.getelementptr %li_ptr[%off] : (!llvm.ptr, i64) -> !llvm.ptr, i64
      %entry_hash = func.call @__ly_box_hash(%entry) : (!llvm.ptr) -> i64
      %in_rhs = func.call @__ly_set_probe(%rm, %ri, %entry, %entry_hash) : (memref<2xi64>, memref<?xi64>, !llvm.ptr, i64) -> i64
      %keep = arith.cmpi eq, %in_rhs, %minus_one : i64
      %next:3 = scf.if %keep -> (memref<2xi64>, memref<2xi64>, memref<?xi64>) {
        %ins:3 = func.call @__ly_set_insert_slot(%h, %m, %it, %li, %i) : (memref<2xi64>, memref<2xi64>, memref<?xi64>, memref<?xi64>, index) -> (memref<2xi64>, memref<2xi64>, memref<?xi64>)
        scf.yield %ins#0, %ins#1, %ins#2 : memref<2xi64>, memref<2xi64>, memref<?xi64>
      } else {
        scf.yield %h, %m, %it : memref<2xi64>, memref<2xi64>, memref<?xi64>
      }
      scf.yield %next#0, %next#1, %next#2 : memref<2xi64>, memref<2xi64>, memref<?xi64>
    }
    func.return %result#0, %result#1, %result#2 : memref<2xi64>, memref<2xi64>, memref<?xi64>
  }

  func.func @LySet_SymmetricDifference(%lh: memref<2xi64> {ly.ownership.object_header}, %lm: memref<2xi64>, %li: memref<?xi64>, %rh: memref<2xi64> {ly.ownership.object_header}, %rm: memref<2xi64>, %ri: memref<?xi64>) -> (memref<2xi64>, memref<2xi64>, memref<?xi64>) attributes {ly.ownership.owned_results = [0], ly.runtime.contract = "builtins.set", ly.runtime.method = "symmetric_difference", ly.runtime.result_contract = "builtins.set"} {
    %diff_lr:3 = func.call @LySet_Difference(%lh, %lm, %li, %rh, %rm, %ri) : (memref<2xi64>, memref<2xi64>, memref<?xi64>, memref<2xi64>, memref<2xi64>, memref<?xi64>) -> (memref<2xi64>, memref<2xi64>, memref<?xi64>)
    %c0 = arith.constant 0 : index
    %c1 = arith.constant 1 : index
    %minus_one = arith.constant -1 : i64
    %c16_i64 = arith.constant 16 : i64
    %rlen = memref.load %rm[%c0] : memref<2xi64>
    %rlen_index = arith.index_cast %rlen : i64 to index
    %ri_idx = memref.extract_aligned_pointer_as_index %ri : memref<?xi64> -> index
    %ri_i64 = arith.index_cast %ri_idx : index to i64
    %ri_ptr = llvm.inttoptr %ri_i64 : i64 to !llvm.ptr
    %result:3 = scf.for %i = %c0 to %rlen_index step %c1 iter_args(%h = %diff_lr#0, %m = %diff_lr#1, %it = %diff_lr#2) -> (memref<2xi64>, memref<2xi64>, memref<?xi64>) {
      %ii = arith.index_cast %i : index to i64
      %off = arith.muli %ii, %c16_i64 : i64
      %entry = llvm.getelementptr %ri_ptr[%off] : (!llvm.ptr, i64) -> !llvm.ptr, i64
      %entry_hash = func.call @__ly_box_hash(%entry) : (!llvm.ptr) -> i64
      %in_lhs = func.call @__ly_set_probe(%lm, %li, %entry, %entry_hash) : (memref<2xi64>, memref<?xi64>, !llvm.ptr, i64) -> i64
      %keep = arith.cmpi eq, %in_lhs, %minus_one : i64
      %next:3 = scf.if %keep -> (memref<2xi64>, memref<2xi64>, memref<?xi64>) {
        %ins:3 = func.call @__ly_set_insert_slot(%h, %m, %it, %ri, %i) : (memref<2xi64>, memref<2xi64>, memref<?xi64>, memref<?xi64>, index) -> (memref<2xi64>, memref<2xi64>, memref<?xi64>)
        scf.yield %ins#0, %ins#1, %ins#2 : memref<2xi64>, memref<2xi64>, memref<?xi64>
      } else {
        scf.yield %h, %m, %it : memref<2xi64>, memref<2xi64>, memref<?xi64>
      }
      scf.yield %next#0, %next#1, %next#2 : memref<2xi64>, memref<2xi64>, memref<?xi64>
    }
    func.return %result#0, %result#1, %result#2 : memref<2xi64>, memref<2xi64>, memref<?xi64>
  }

  // Subset core: every element of (am, ai) is in (bm, bi).
  func.func private @__ly_set_subset(%am: memref<2xi64>, %ai: memref<?xi64>, %bm: memref<2xi64>, %bi: memref<?xi64>) -> i1 {
    %c0 = arith.constant 0 : index
    %c1 = arith.constant 1 : index
    %c16_i64 = arith.constant 16 : i64
    %minus_one = arith.constant -1 : i64
    %true = arith.constant true
    %false = arith.constant false
    %alen = memref.load %am[%c0] : memref<2xi64>
    %alen_index = arith.index_cast %alen : i64 to index
    %ai_idx = memref.extract_aligned_pointer_as_index %ai : memref<?xi64> -> index
    %ai_i64 = arith.index_cast %ai_idx : index to i64
    %ai_ptr = llvm.inttoptr %ai_i64 : i64 to !llvm.ptr
    %all = scf.for %i = %c0 to %alen_index step %c1 iter_args(%ok = %true) -> (i1) {
      %next = scf.if %ok -> (i1) {
        %ii = arith.index_cast %i : index to i64
        %off = arith.muli %ii, %c16_i64 : i64
        %entry = llvm.getelementptr %ai_ptr[%off] : (!llvm.ptr, i64) -> !llvm.ptr, i64
        %entry_hash = func.call @__ly_box_hash(%entry) : (!llvm.ptr) -> i64
        %in_b = func.call @__ly_set_probe(%bm, %bi, %entry, %entry_hash) : (memref<2xi64>, memref<?xi64>, !llvm.ptr, i64) -> i64
        %present = arith.cmpi ne, %in_b, %minus_one : i64
        scf.yield %present : i1
      } else {
        scf.yield %false : i1
      }
      scf.yield %next : i1
    }
    func.return %all : i1
  }

  func.func @LySet_IsSubset(%lh: memref<2xi64> {ly.ownership.object_header}, %lm: memref<2xi64>, %li: memref<?xi64>, %rh: memref<2xi64> {ly.ownership.object_header}, %rm: memref<2xi64>, %ri: memref<?xi64>) -> i1 attributes {ly.runtime.contract = "builtins.set", ly.runtime.method = "issubset"} {
    %r = func.call @__ly_set_subset(%lm, %li, %rm, %ri) : (memref<2xi64>, memref<?xi64>, memref<2xi64>, memref<?xi64>) -> i1
    func.return %r : i1
  }

  func.func @LySet_IsSuperset(%lh: memref<2xi64> {ly.ownership.object_header}, %lm: memref<2xi64>, %li: memref<?xi64>, %rh: memref<2xi64> {ly.ownership.object_header}, %rm: memref<2xi64>, %ri: memref<?xi64>) -> i1 attributes {ly.runtime.contract = "builtins.set", ly.runtime.method = "issuperset"} {
    %r = func.call @__ly_set_subset(%rm, %ri, %lm, %li) : (memref<2xi64>, memref<?xi64>, memref<2xi64>, memref<?xi64>) -> i1
    func.return %r : i1
  }

  func.func @LySet_IsDisjoint(%lh: memref<2xi64> {ly.ownership.object_header}, %lm: memref<2xi64>, %li: memref<?xi64>, %rh: memref<2xi64> {ly.ownership.object_header}, %rm: memref<2xi64>, %ri: memref<?xi64>) -> i1 attributes {ly.runtime.contract = "builtins.set", ly.runtime.method = "isdisjoint"} {
    %c0 = arith.constant 0 : index
    %c1 = arith.constant 1 : index
    %c16_i64 = arith.constant 16 : i64
    %minus_one = arith.constant -1 : i64
    %true = arith.constant true
    %false = arith.constant false
    %llen = memref.load %lm[%c0] : memref<2xi64>
    %llen_index = arith.index_cast %llen : i64 to index
    %li_idx = memref.extract_aligned_pointer_as_index %li : memref<?xi64> -> index
    %li_i64 = arith.index_cast %li_idx : index to i64
    %li_ptr = llvm.inttoptr %li_i64 : i64 to !llvm.ptr
    %disjoint = scf.for %i = %c0 to %llen_index step %c1 iter_args(%ok = %true) -> (i1) {
      %next = scf.if %ok -> (i1) {
        %ii = arith.index_cast %i : index to i64
        %off = arith.muli %ii, %c16_i64 : i64
        %entry = llvm.getelementptr %li_ptr[%off] : (!llvm.ptr, i64) -> !llvm.ptr, i64
        %entry_hash = func.call @__ly_box_hash(%entry) : (!llvm.ptr) -> i64
        %in_rhs = func.call @__ly_set_probe(%rm, %ri, %entry, %entry_hash) : (memref<2xi64>, memref<?xi64>, !llvm.ptr, i64) -> i64
        %absent = arith.cmpi eq, %in_rhs, %minus_one : i64
        scf.yield %absent : i1
      } else {
        scf.yield %false : i1
      }
      scf.yield %next : i1
    }
    func.return %disjoint : i1
  }

  func.func @LySet_EqBool(%lh: memref<2xi64> {ly.ownership.object_header}, %lm: memref<2xi64>, %li: memref<?xi64>, %rh: memref<2xi64> {ly.ownership.object_header}, %rm: memref<2xi64>, %ri: memref<?xi64>) -> i1 attributes {ly.runtime.contract = "builtins.set", ly.runtime.method = "__eq__"} {
    %c0 = arith.constant 0 : index
    %false = arith.constant false
    %llen = memref.load %lm[%c0] : memref<2xi64>
    %rlen = memref.load %rm[%c0] : memref<2xi64>
    %same_len = arith.cmpi eq, %llen, %rlen : i64
    %result = scf.if %same_len -> (i1) {
      %sub = func.call @__ly_set_subset(%lm, %li, %rm, %ri) : (memref<2xi64>, memref<?xi64>, memref<2xi64>, memref<?xi64>) -> i1
      scf.yield %sub : i1
    } else {
      scf.yield %false : i1
    }
    func.return %result : i1
  }

  func.func @LySet_NeBool(%lh: memref<2xi64> {ly.ownership.object_header}, %lm: memref<2xi64>, %li: memref<?xi64>, %rh: memref<2xi64> {ly.ownership.object_header}, %rm: memref<2xi64>, %ri: memref<?xi64>) -> i1 attributes {ly.runtime.contract = "builtins.set", ly.runtime.method = "__ne__"} {
    %eq = func.call @LySet_EqBool(%lh, %lm, %li, %rh, %rm, %ri) : (memref<2xi64>, memref<2xi64>, memref<?xi64>, memref<2xi64>, memref<2xi64>, memref<?xi64>) -> i1
    %true = arith.constant true
    %ne = arith.xori %eq, %true : i1
    func.return %ne : i1
  }

  // Operator aliases over the set algebra (| & - ^ and the subset order).
  func.func @LySet_OrOp(%lh: memref<2xi64> {ly.ownership.object_header}, %lm: memref<2xi64>, %li: memref<?xi64>, %rh: memref<2xi64> {ly.ownership.object_header}, %rm: memref<2xi64>, %ri: memref<?xi64>) -> (memref<2xi64>, memref<2xi64>, memref<?xi64>) attributes {ly.ownership.owned_results = [0], ly.runtime.contract = "builtins.set", ly.runtime.method = "__or__", ly.runtime.result_contract = "builtins.set"} {
    %r:3 = func.call @LySet_Union(%lh, %lm, %li, %rh, %rm, %ri) : (memref<2xi64>, memref<2xi64>, memref<?xi64>, memref<2xi64>, memref<2xi64>, memref<?xi64>) -> (memref<2xi64>, memref<2xi64>, memref<?xi64>)
    func.return %r#0, %r#1, %r#2 : memref<2xi64>, memref<2xi64>, memref<?xi64>
  }

  func.func @LySet_AndOp(%lh: memref<2xi64> {ly.ownership.object_header}, %lm: memref<2xi64>, %li: memref<?xi64>, %rh: memref<2xi64> {ly.ownership.object_header}, %rm: memref<2xi64>, %ri: memref<?xi64>) -> (memref<2xi64>, memref<2xi64>, memref<?xi64>) attributes {ly.ownership.owned_results = [0], ly.runtime.contract = "builtins.set", ly.runtime.method = "__and__", ly.runtime.result_contract = "builtins.set"} {
    %r:3 = func.call @LySet_Intersection(%lh, %lm, %li, %rh, %rm, %ri) : (memref<2xi64>, memref<2xi64>, memref<?xi64>, memref<2xi64>, memref<2xi64>, memref<?xi64>) -> (memref<2xi64>, memref<2xi64>, memref<?xi64>)
    func.return %r#0, %r#1, %r#2 : memref<2xi64>, memref<2xi64>, memref<?xi64>
  }

  func.func @LySet_SubOp(%lh: memref<2xi64> {ly.ownership.object_header}, %lm: memref<2xi64>, %li: memref<?xi64>, %rh: memref<2xi64> {ly.ownership.object_header}, %rm: memref<2xi64>, %ri: memref<?xi64>) -> (memref<2xi64>, memref<2xi64>, memref<?xi64>) attributes {ly.ownership.owned_results = [0], ly.runtime.contract = "builtins.set", ly.runtime.method = "__sub__", ly.runtime.result_contract = "builtins.set"} {
    %r:3 = func.call @LySet_Difference(%lh, %lm, %li, %rh, %rm, %ri) : (memref<2xi64>, memref<2xi64>, memref<?xi64>, memref<2xi64>, memref<2xi64>, memref<?xi64>) -> (memref<2xi64>, memref<2xi64>, memref<?xi64>)
    func.return %r#0, %r#1, %r#2 : memref<2xi64>, memref<2xi64>, memref<?xi64>
  }

  func.func @LySet_XorOp(%lh: memref<2xi64> {ly.ownership.object_header}, %lm: memref<2xi64>, %li: memref<?xi64>, %rh: memref<2xi64> {ly.ownership.object_header}, %rm: memref<2xi64>, %ri: memref<?xi64>) -> (memref<2xi64>, memref<2xi64>, memref<?xi64>) attributes {ly.ownership.owned_results = [0], ly.runtime.contract = "builtins.set", ly.runtime.method = "__xor__", ly.runtime.result_contract = "builtins.set"} {
    %r:3 = func.call @LySet_SymmetricDifference(%lh, %lm, %li, %rh, %rm, %ri) : (memref<2xi64>, memref<2xi64>, memref<?xi64>, memref<2xi64>, memref<2xi64>, memref<?xi64>) -> (memref<2xi64>, memref<2xi64>, memref<?xi64>)
    func.return %r#0, %r#1, %r#2 : memref<2xi64>, memref<2xi64>, memref<?xi64>
  }

  func.func @LySet_LeBool(%lh: memref<2xi64> {ly.ownership.object_header}, %lm: memref<2xi64>, %li: memref<?xi64>, %rh: memref<2xi64> {ly.ownership.object_header}, %rm: memref<2xi64>, %ri: memref<?xi64>) -> i1 attributes {ly.runtime.contract = "builtins.set", ly.runtime.method = "__le__"} {
    %r = func.call @__ly_set_subset(%lm, %li, %rm, %ri) : (memref<2xi64>, memref<?xi64>, memref<2xi64>, memref<?xi64>) -> i1
    func.return %r : i1
  }

  func.func @LySet_LtBool(%lh: memref<2xi64> {ly.ownership.object_header}, %lm: memref<2xi64>, %li: memref<?xi64>, %rh: memref<2xi64> {ly.ownership.object_header}, %rm: memref<2xi64>, %ri: memref<?xi64>) -> i1 attributes {ly.runtime.contract = "builtins.set", ly.runtime.method = "__lt__"} {
    %c0 = arith.constant 0 : index
    %sub = func.call @__ly_set_subset(%lm, %li, %rm, %ri) : (memref<2xi64>, memref<?xi64>, memref<2xi64>, memref<?xi64>) -> i1
    %llen = memref.load %lm[%c0] : memref<2xi64>
    %rlen = memref.load %rm[%c0] : memref<2xi64>
    %proper = arith.cmpi ne, %llen, %rlen : i64
    %r = arith.andi %sub, %proper : i1
    func.return %r : i1
  }

  func.func @LySet_GeBool(%lh: memref<2xi64> {ly.ownership.object_header}, %lm: memref<2xi64>, %li: memref<?xi64>, %rh: memref<2xi64> {ly.ownership.object_header}, %rm: memref<2xi64>, %ri: memref<?xi64>) -> i1 attributes {ly.runtime.contract = "builtins.set", ly.runtime.method = "__ge__"} {
    %r = func.call @__ly_set_subset(%rm, %ri, %lm, %li) : (memref<2xi64>, memref<?xi64>, memref<2xi64>, memref<?xi64>) -> i1
    func.return %r : i1
  }

  func.func @LySet_GtBool(%lh: memref<2xi64> {ly.ownership.object_header}, %lm: memref<2xi64>, %li: memref<?xi64>, %rh: memref<2xi64> {ly.ownership.object_header}, %rm: memref<2xi64>, %ri: memref<?xi64>) -> i1 attributes {ly.runtime.contract = "builtins.set", ly.runtime.method = "__gt__"} {
    %c0 = arith.constant 0 : index
    %sub = func.call @__ly_set_subset(%rm, %ri, %lm, %li) : (memref<2xi64>, memref<?xi64>, memref<2xi64>, memref<?xi64>) -> i1
    %llen = memref.load %lm[%c0] : memref<2xi64>
    %rlen = memref.load %rm[%c0] : memref<2xi64>
    %proper = arith.cmpi ne, %llen, %rlen : i64
    %r = arith.andi %sub, %proper : i1
    func.return %r : i1
  }

  // In-place update family (structural rebind carries the possibly
  // reallocated triple; the filters compact in place).
  func.func @LySet_UpdateM(%header: memref<2xi64> {ly.ownership.object_header}, %meta: memref<2xi64>, %items: memref<?xi64>, %oh: memref<2xi64> {ly.ownership.object_header}, %om: memref<2xi64>, %oi: memref<?xi64>) -> (memref<2xi64>, memref<2xi64>, memref<?xi64>) attributes {ly.ownership.transfer_args = [0], ly.ownership.owned_results = [0], ly.runtime.contract = "builtins.set", ly.runtime.method = "update", ly.runtime.result_contract = "builtins.set"} {
    %c0 = arith.constant 0 : index
    %c1 = arith.constant 1 : index
    %olen = memref.load %om[%c0] : memref<2xi64>
    %olen_index = arith.index_cast %olen : i64 to index
    %merged:3 = scf.for %i = %c0 to %olen_index step %c1 iter_args(%h = %header, %m = %meta, %it = %items) -> (memref<2xi64>, memref<2xi64>, memref<?xi64>) {
      %next:3 = func.call @__ly_set_insert_slot(%h, %m, %it, %oi, %i) : (memref<2xi64>, memref<2xi64>, memref<?xi64>, memref<?xi64>, index) -> (memref<2xi64>, memref<2xi64>, memref<?xi64>)
      scf.yield %next#0, %next#1, %next#2 : memref<2xi64>, memref<2xi64>, memref<?xi64>
    }
    func.return %merged#0, %merged#1, %merged#2 : memref<2xi64>, memref<2xi64>, memref<?xi64>
  }

  // Keep/drop filter core: keep receiver entries whose membership in
  // (om, oi) equals %keep_present; dropped entries are released and the
  // dense prefix compacted.
  func.func private @__ly_set_filter_in_place(%meta: memref<2xi64>, %items: memref<?xi64>, %om: memref<2xi64>, %oi: memref<?xi64>, %keep_present: i1, %scan_limit: i64) {
    %c0 = arith.constant 0 : index
    %c1 = arith.constant 1 : index
    %c16 = arith.constant 16 : index
    %c16_i64 = arith.constant 16 : i64
    %minus_one = arith.constant -1 : i64
    %zero = arith.constant 0 : i64
    %len = memref.load %meta[%c0] : memref<2xi64>
    %len_index = arith.index_cast %len : i64 to index
    %limit_index = arith.index_cast %scan_limit : i64 to index
    %items_idx = memref.extract_aligned_pointer_as_index %items : memref<?xi64> -> index
    %items_i64 = arith.index_cast %items_idx : index to i64
    %items_ptr = llvm.inttoptr %items_i64 : i64 to !llvm.ptr
    %kept = scf.for %i = %c0 to %len_index step %c1 iter_args(%next = %c0) -> (index) {
      %ii = arith.index_cast %i : index to i64
      %off = arith.muli %ii, %c16_i64 : i64
      %entry = llvm.getelementptr %items_ptr[%off] : (!llvm.ptr, i64) -> !llvm.ptr, i64
      %beyond_limit = arith.cmpi sge, %i, %limit_index : index
      %matches = scf.if %beyond_limit -> (i1) {
        %true_k = arith.constant true
        scf.yield %true_k : i1
      } else {
        %entry_hash = func.call @__ly_box_hash(%entry) : (!llvm.ptr) -> i64
        %in_other = func.call @__ly_set_probe(%om, %oi, %entry, %entry_hash) : (memref<2xi64>, memref<?xi64>, !llvm.ptr, i64) -> i64
        %present = arith.cmpi ne, %in_other, %minus_one : i64
        %k = arith.cmpi eq, %present, %keep_present : i1
        scf.yield %k : i1
      }
      %advanced = scf.if %matches -> (index) {
        %same = arith.cmpi eq, %next, %i : index
        scf.if %same {
        } else {
          %src_base = arith.muli %i, %c16 : index
          %dst_base = arith.muli %next, %c16 : index
          scf.for %w = %c0 to %c16 step %c1 {
            %src = arith.addi %src_base, %w : index
            %dst = arith.addi %dst_base, %w : index
            %word = memref.load %items[%src] : memref<?xi64>
            memref.store %word, %items[%dst] : memref<?xi64>
          }
        }
        %inc = arith.addi %next, %c1 : index
        scf.yield %inc : index
      } else {
        func.call @LyObject_ReleaseBoxedPayloadArraySlotRaw(%items, %ii) : (memref<?xi64>, i64) -> ()
        scf.yield %next : index
      }
      scf.yield %advanced : index
    }
    // Zero the vacated tail so stale handles never look live.
    %kept_i64 = arith.index_cast %kept : index to i64
    %kept_words = arith.muli %kept, %c16 : index
    %len_words = arith.muli %len_index, %c16 : index
    scf.for %w = %kept_words to %len_words step %c1 {
      memref.store %zero, %items[%w] : memref<?xi64>
    }
    memref.store %kept_i64, %meta[%c0] : memref<2xi64>
    func.return
  }

  func.func @LySet_IntersectionUpdate(%header: memref<2xi64> {ly.ownership.object_header}, %meta: memref<2xi64>, %items: memref<?xi64>, %oh: memref<2xi64> {ly.ownership.object_header}, %om: memref<2xi64>, %oi: memref<?xi64>) -> (memref<2xi64>, memref<2xi64>, memref<?xi64>) attributes {ly.ownership.transfer_args = [0], ly.ownership.owned_results = [0], ly.runtime.contract = "builtins.set", ly.runtime.method = "intersection_update", ly.runtime.result_contract = "builtins.set"} {
    %true = arith.constant true
    %c0_len = arith.constant 0 : index
    %len_now = memref.load %meta[%c0_len] : memref<2xi64>
    func.call @__ly_set_filter_in_place(%meta, %items, %om, %oi, %true, %len_now) : (memref<2xi64>, memref<?xi64>, memref<2xi64>, memref<?xi64>, i1, i64) -> ()
    func.return %header, %meta, %items : memref<2xi64>, memref<2xi64>, memref<?xi64>
  }

  func.func @LySet_DifferenceUpdate(%header: memref<2xi64> {ly.ownership.object_header}, %meta: memref<2xi64>, %items: memref<?xi64>, %oh: memref<2xi64> {ly.ownership.object_header}, %om: memref<2xi64>, %oi: memref<?xi64>) -> (memref<2xi64>, memref<2xi64>, memref<?xi64>) attributes {ly.ownership.transfer_args = [0], ly.ownership.owned_results = [0], ly.runtime.contract = "builtins.set", ly.runtime.method = "difference_update", ly.runtime.result_contract = "builtins.set"} {
    %false = arith.constant false
    %c0_len = arith.constant 0 : index
    %len_now = memref.load %meta[%c0_len] : memref<2xi64>
    func.call @__ly_set_filter_in_place(%meta, %items, %om, %oi, %false, %len_now) : (memref<2xi64>, memref<?xi64>, memref<2xi64>, memref<?xi64>, i1, i64) -> ()
    func.return %header, %meta, %items : memref<2xi64>, memref<2xi64>, memref<?xi64>
  }

  func.func @LySet_SymmetricDifferenceUpdate(%header: memref<2xi64> {ly.ownership.object_header}, %meta: memref<2xi64>, %items: memref<?xi64>, %oh: memref<2xi64> {ly.ownership.object_header}, %om: memref<2xi64>, %oi: memref<?xi64>) -> (memref<2xi64>, memref<2xi64>, memref<?xi64>) attributes {ly.ownership.transfer_args = [0], ly.ownership.owned_results = [0], ly.runtime.contract = "builtins.set", ly.runtime.method = "symmetric_difference_update", ly.runtime.result_contract = "builtins.set"} {
    // other-only elements first (from a snapshot of the ORIGINAL receiver
    // membership: drop the common part after collecting), then drop common.
    %c0 = arith.constant 0 : index
    %c1 = arith.constant 1 : index
    %c16_i64 = arith.constant 16 : i64
    %minus_one = arith.constant -1 : i64
    %olen = memref.load %om[%c0] : memref<2xi64>
    %olen_index = arith.index_cast %olen : i64 to index
    %oi_idx = memref.extract_aligned_pointer_as_index %oi : memref<?xi64> -> index
    %oi_i64 = arith.index_cast %oi_idx : index to i64
    %oi_ptr = llvm.inttoptr %oi_i64 : i64 to !llvm.ptr
    // Original receiver length: additions land past it, so the common-drop
    // filter below only scans the original prefix.
    %orig_len = memref.load %meta[%c0] : memref<2xi64>
    %added:3 = scf.for %i = %c0 to %olen_index step %c1 iter_args(%h = %header, %m = %meta, %it = %items) -> (memref<2xi64>, memref<2xi64>, memref<?xi64>) {
      %ii = arith.index_cast %i : index to i64
      %off = arith.muli %ii, %c16_i64 : i64
      %entry = llvm.getelementptr %oi_ptr[%off] : (!llvm.ptr, i64) -> !llvm.ptr, i64
      %entry_hash = func.call @__ly_box_hash(%entry) : (!llvm.ptr) -> i64
      // Probe only the ORIGINAL prefix so freshly added other-elements do
      // not mask membership.
      %saved_len = memref.load %m[%c0] : memref<2xi64>
      memref.store %orig_len, %m[%c0] : memref<2xi64>
      %in_orig = func.call @__ly_set_probe(%m, %it, %entry, %entry_hash) : (memref<2xi64>, memref<?xi64>, !llvm.ptr, i64) -> i64
      memref.store %saved_len, %m[%c0] : memref<2xi64>
      %absent = arith.cmpi eq, %in_orig, %minus_one : i64
      %next:3 = scf.if %absent -> (memref<2xi64>, memref<2xi64>, memref<?xi64>) {
        %ins:3 = func.call @__ly_set_insert_slot(%h, %m, %it, %oi, %i) : (memref<2xi64>, memref<2xi64>, memref<?xi64>, memref<?xi64>, index) -> (memref<2xi64>, memref<2xi64>, memref<?xi64>)
        scf.yield %ins#0, %ins#1, %ins#2 : memref<2xi64>, memref<2xi64>, memref<?xi64>
      } else {
        scf.yield %h, %m, %it : memref<2xi64>, memref<2xi64>, memref<?xi64>
      }
      scf.yield %next#0, %next#1, %next#2 : memref<2xi64>, memref<2xi64>, memref<?xi64>
    }
    // Drop the common part from the ORIGINAL prefix only: the appended
    // entries came from `other`, so an unbounded filter would delete them
    // right back.
    %false = arith.constant false
    func.call @__ly_set_filter_in_place(%added#1, %added#2, %om, %oi, %false, %orig_len) : (memref<2xi64>, memref<?xi64>, memref<2xi64>, memref<?xi64>, i1, i64) -> ()
    func.return %added#0, %added#1, %added#2 : memref<2xi64>, memref<2xi64>, memref<?xi64>
  }

  func.func @LySet_DecRef(%header: memref<2xi64> {ly.ownership.object_header}, %meta: memref<2xi64>, %items: memref<?xi64>) attributes {ly.ownership.release_args = [0], ly.runtime.contract = "builtins.set", ly.runtime.deallocator} {
    %storage = memref.cast %header : memref<2xi64> to memref<?xi64>
    %became_zero = func.call @LyObject_ReleaseStorageToZero(%storage) : (memref<?xi64>) -> i1
    cf.cond_br %became_zero, ^dealloc, ^done

  ^dealloc:
    %length_slot = arith.constant 0 : index
    %lower = arith.constant 0 : index
    %step = arith.constant 1 : index
    %length = memref.load %meta[%length_slot] : memref<2xi64>
    %length_index = arith.index_cast %length : i64 to index
    scf.for %i = %lower to %length_index step %step {
      %logical_index = arith.index_cast %i : index to i64
      func.call @LyObject_ReleaseBoxedPayloadArraySlotRaw(%items, %logical_index) : (memref<?xi64>, i64) -> ()
    }
    memref.dealloc %items : memref<?xi64>
    memref.dealloc %header : memref<2xi64>
    cf.br ^done

  ^done:
    func.return
  }

  // ===== impls: range =====
  func.func private @LyRange_Shape() -> (memref<2xi64>, memref<3xi64>) attributes {ly.runtime.contract = "builtins.range", ly.runtime.shape}
  func.func private @LyRangeIterator_Shape() -> (memref<2xi64>, memref<3xi64>) attributes {ly.runtime.contract = "builtins.range_iterator", ly.runtime.shape}

  memref.global "private" constant @__ly_range_msg_zero_step : memref<30xi8> = dense<[114, 97, 110, 103, 101, 40, 41, 32, 97, 114, 103, 32, 51, 32, 109, 117, 115, 116, 32, 110, 111, 116, 32, 98, 101, 32, 122, 101, 114, 111]>

  func.func private @__ly_range_raise_zero_step() {
    %class_id = arith.constant 53 : i64
    %length = arith.constant 30 : i64
    %start = arith.constant 0 : index
    %message_static = memref.get_global @__ly_range_msg_zero_step : memref<30xi8>
    %message = memref.cast %message_static : memref<30xi8> to memref<?xi8>
    %exception:3 = func.call @LyBaseException_New(%class_id) : (i64) -> (memref<3xi64>, memref<2xi64>, memref<?xi8>)
    %message_header, %message_bytes = func.call @LyUnicode_FromBytes(%message, %start, %length) : (memref<?xi8>, index, i64) -> (memref<2xi64>, memref<?xi8>)
    %initialized:3 = func.call @LyBaseException_Init(%exception#0, %exception#1, %exception#2, %message_header, %message_bytes) : (memref<3xi64>, memref<2xi64>, memref<?xi8>, memref<2xi64>, memref<?xi8>) -> (memref<3xi64>, memref<2xi64>, memref<?xi8>)
    func.call @LyEH_ThrowException(%initialized#0, %initialized#1, %initialized#2) : (memref<3xi64>, memref<2xi64>, memref<?xi8>) -> ()
    func.return
  }

  func.func @LyRange_New(%first: i64, %second: i64 {ly.runtime.default_i64 = 9223372036854775807 : i64}, %step_in: i64 {ly.runtime.default_i64 = 9223372036854775807 : i64}) -> (memref<2xi64>, memref<3xi64>) attributes {ly.ownership.owned_results = [0], ly.runtime.class_id = 3 : i64, ly.runtime.contract = "builtins.range", ly.runtime.initializer = "__new__"} {
    %sentinel = arith.constant 9223372036854775807 : i64
    %zero = arith.constant 0 : i64
    %one = arith.constant 1 : i64
    %second_missing = arith.cmpi eq, %second, %sentinel : i64
    %start = arith.select %second_missing, %zero, %first : i64
    %stop = arith.select %second_missing, %first, %second : i64
    %step_missing = arith.cmpi eq, %step_in, %sentinel : i64
    %step = arith.select %step_missing, %one, %step_in : i64
    %step_zero = arith.cmpi eq, %step, %zero : i64
    cf.cond_br %step_zero, ^raise, ^make

  ^raise:
    func.call @__ly_range_raise_zero_step() : () -> ()
    cf.br ^make

  ^make:
    // One entity, one allocation: [0,16) header, [16,40) state view.
    %block_bytes = arith.constant 40 : index
    %block = memref.alloc(%block_bytes) {alignment = 16 : i64} : memref<?xi8>
    %header_offset = arith.constant 0 : index
    %part_offset = arith.constant 16 : index
    %header = memref.view %block[%header_offset][] {ly.ownership.object_header, ly.ownership.owned_local_object} : memref<?xi8> to memref<2xi64>
    %state = memref.view %block[%part_offset][] : memref<?xi8> to memref<3xi64>
    %layout_range = arith.constant 3 : i64
    %refcount_slot = arith.constant 0 : index
    %layout_slot = arith.constant 1 : index
    %start_slot = arith.constant 0 : index
    %stop_slot = arith.constant 1 : index
    %step_slot = arith.constant 2 : index
    memref.store %one, %header[%refcount_slot] : memref<2xi64>
    memref.store %layout_range, %header[%layout_slot] : memref<2xi64>
    memref.store %start, %state[%start_slot] : memref<3xi64>
    memref.store %stop, %state[%stop_slot] : memref<3xi64>
    memref.store %step, %state[%step_slot] : memref<3xi64>
    func.return %header, %state : memref<2xi64>, memref<3xi64>
  }

  func.func @LyRange_Init(%header: memref<2xi64> {ly.ownership.object_header}, %state: memref<3xi64>) attributes {ly.runtime.contract = "builtins.range", ly.runtime.method = "__init__"} {
    func.return
  }

  func.func private @__ly_range_iterator_alloc(%current: i64, %stop: i64, %step: i64) -> (memref<2xi64>, memref<3xi64>) attributes {ly.ownership.owned_results = [0], ly.runtime.class_id = 20 : i64, ly.runtime.contract = "builtins.range_iterator", ly.runtime.primitive = "alloc"} {
    // One entity, one allocation: [0,16) header, [16,40) state view.
    %block_bytes = arith.constant 40 : index
    %block = memref.alloc(%block_bytes) {alignment = 16 : i64} : memref<?xi8>
    %header_offset = arith.constant 0 : index
    %part_offset = arith.constant 16 : index
    %header = memref.view %block[%header_offset][] {ly.ownership.object_header, ly.ownership.owned_local_object} : memref<?xi8> to memref<2xi64>
    %state = memref.view %block[%part_offset][] : memref<?xi8> to memref<3xi64>
    %one = arith.constant 1 : i64
    %layout_range_iterator = arith.constant 20 : i64
    %refcount_slot = arith.constant 0 : index
    %layout_slot = arith.constant 1 : index
    %current_slot = arith.constant 0 : index
    %stop_slot = arith.constant 1 : index
    %step_slot = arith.constant 2 : index
    memref.store %one, %header[%refcount_slot] : memref<2xi64>
    memref.store %layout_range_iterator, %header[%layout_slot] : memref<2xi64>
    memref.store %current, %state[%current_slot] : memref<3xi64>
    memref.store %stop, %state[%stop_slot] : memref<3xi64>
    memref.store %step, %state[%step_slot] : memref<3xi64>
    func.return %header, %state : memref<2xi64>, memref<3xi64>
  }

  func.func @LyRange_Iter(%header: memref<2xi64> {ly.ownership.object_header}, %state: memref<3xi64>) -> (memref<2xi64>, memref<3xi64>) attributes {ly.ownership.owned_results = [0], ly.runtime.contract = "builtins.range", ly.runtime.method = "__iter__", ly.runtime.result_contract = "builtins.range_iterator"} {
    %start_slot = arith.constant 0 : index
    %stop_slot = arith.constant 1 : index
    %step_slot = arith.constant 2 : index
    %start = memref.load %state[%start_slot] : memref<3xi64>
    %stop = memref.load %state[%stop_slot] : memref<3xi64>
    %step = memref.load %state[%step_slot] : memref<3xi64>
    %iter_header, %iter_state = func.call @__ly_range_iterator_alloc(%start, %stop, %step) : (i64, i64, i64) -> (memref<2xi64>, memref<3xi64>)
    func.return %iter_header, %iter_state : memref<2xi64>, memref<3xi64>
  }

  func.func @LyRangeIterator_Iter(%header: memref<2xi64> {ly.ownership.object_header}, %state: memref<3xi64>) -> (memref<2xi64>, memref<3xi64>) attributes {ly.ownership.owned_results = [0], ly.runtime.contract = "builtins.range_iterator", ly.runtime.method = "__iter__", ly.runtime.result_contract = "builtins.range_iterator"} {
    %header_view = memref.cast %header : memref<2xi64> to memref<2xi64, strided<[1], offset: ?>>
    func.call @Ly_IncRef(%header_view) : (memref<2xi64, strided<[1], offset: ?>>) -> ()
    func.return %header, %state : memref<2xi64>, memref<3xi64>
  }

  func.func @LyRangeIterator_Next(%header: memref<2xi64> {ly.ownership.object_header}, %state: memref<3xi64>) -> (memref<2xi64>, memref<2xi64>, memref<?xi32>, i1, memref<2xi64>, memref<3xi64>) attributes {ly.ownership.owned_results = [0, 4], ly.runtime.contract = "builtins.range_iterator", ly.runtime.method = "__next__", ly.runtime.element_contract = "builtins.int", ly.runtime.next_contract = "builtins.range_iterator", ly.runtime.valid_result_index = 3 : i64} {
    %current_slot = arith.constant 0 : index
    %stop_slot = arith.constant 1 : index
    %step_slot = arith.constant 2 : index
    %zero = arith.constant 0 : i64
    %current = memref.load %state[%current_slot] : memref<3xi64>
    %stop = memref.load %state[%stop_slot] : memref<3xi64>
    %step = memref.load %state[%step_slot] : memref<3xi64>
    %ascending = arith.cmpi sgt, %step, %zero : i64
    %below = arith.cmpi slt, %current, %stop : i64
    %above = arith.cmpi sgt, %current, %stop : i64
    %valid = arith.select %ascending, %below, %above : i1
    %advanced = arith.addi %current, %step : i64
    %next_current = arith.select %valid, %advanced, %current : i1, i64
    memref.store %next_current, %state[%current_slot] : memref<3xi64>
    %header_view = memref.cast %header : memref<2xi64> to memref<2xi64, strided<[1], offset: ?>>
    func.call @Ly_IncRef(%header_view) : (memref<2xi64, strided<[1], offset: ?>>) -> ()
    %element_value = arith.select %valid, %current, %zero : i1, i64
    %element:3 = func.call @LyLong_FromI64(%element_value) : (i64) -> (memref<2xi64>, memref<2xi64>, memref<?xi32>)
    func.return %element#0, %element#1, %element#2, %valid, %header, %state : memref<2xi64>, memref<2xi64>, memref<?xi32>, i1, memref<2xi64>, memref<3xi64>
  }

  func.func @LyRange_DecRef(%header: memref<2xi64> {ly.ownership.object_header}) attributes {ly.ownership.release_args = [0], ly.runtime.contract = "builtins.range", ly.runtime.deallocator} {
    %storage = memref.cast %header : memref<2xi64> to memref<?xi64>
    %became_zero = func.call @LyObject_ReleaseStorageToZero(%storage) : (memref<?xi64>) -> i1
    cf.cond_br %became_zero, ^dealloc, ^done

  ^dealloc:
    memref.dealloc %header : memref<2xi64>
    cf.br ^done

  ^done:
    func.return
  }

  func.func @LyRangeIterator_DecRef(%header: memref<2xi64> {ly.ownership.object_header}) attributes {ly.ownership.release_args = [0], ly.runtime.contract = "builtins.range_iterator", ly.runtime.deallocator} {
    %storage = memref.cast %header : memref<2xi64> to memref<?xi64>
    %became_zero = func.call @LyObject_ReleaseStorageToZero(%storage) : (memref<?xi64>) -> i1
    cf.cond_br %became_zero, ^dealloc, ^done

  ^dealloc:
    memref.dealloc %header : memref<2xi64>
    cf.br ^done

  ^done:
    func.return
  }

  // ===== impls: str_iterator =====
  func.func private @__ly_str_iterator_alloc(%position: i64, %length: i64) -> (memref<2xi64>, memref<2xi64>) attributes {ly.ownership.owned_results = [0], ly.runtime.class_id = 7 : i64, ly.runtime.contract = "builtins.str_iterator", ly.runtime.primitive = "alloc"} {
    // One entity, one allocation: [0,16) header, [16,32) state view.
    %block_bytes = arith.constant 32 : index
    %block = memref.alloc(%block_bytes) {alignment = 16 : i64} : memref<?xi8>
    %header_offset = arith.constant 0 : index
    %part_offset = arith.constant 16 : index
    %header = memref.view %block[%header_offset][] {ly.ownership.object_header, ly.ownership.owned_local_object} : memref<?xi8> to memref<2xi64>
    %state = memref.view %block[%part_offset][] : memref<?xi8> to memref<2xi64>
    %one = arith.constant 1 : i64
    %layout_str_iterator = arith.constant 7 : i64
    %refcount_slot = arith.constant 0 : index
    %layout_slot = arith.constant 1 : index
    %position_slot = arith.constant 0 : index
    %length_slot = arith.constant 1 : index
    memref.store %one, %header[%refcount_slot] : memref<2xi64>
    memref.store %layout_str_iterator, %header[%layout_slot] : memref<2xi64>
    memref.store %position, %state[%position_slot] : memref<2xi64>
    memref.store %length, %state[%length_slot] : memref<2xi64>
    func.return %header, %state : memref<2xi64>, memref<2xi64>
  }

  func.func @LyUnicode_Iter(%source_header: memref<2xi64> {ly.ownership.object_header}, %source_bytes: memref<?xi8>) -> (memref<2xi64>, memref<2xi64>, memref<2xi64>, memref<?xi8>) attributes {ly.ownership.owned_results = [0], ly.runtime.contract = "builtins.str", ly.runtime.method = "__iter__", ly.runtime.result_contract = "builtins.str_iterator"} {
    %zero = arith.constant 0 : i64
    %length = func.call @LyUnicode_CodepointLength(%source_header, %source_bytes) : (memref<2xi64>, memref<?xi8>) -> i64
    %iter_header, %state = func.call @__ly_str_iterator_alloc(%zero, %length) : (i64, i64) -> (memref<2xi64>, memref<2xi64>)
    %source_header_view = memref.cast %source_header : memref<2xi64> to memref<2xi64, strided<[1], offset: ?>>
    func.call @Ly_IncRef(%source_header_view) : (memref<2xi64, strided<[1], offset: ?>>) -> ()
    func.return %iter_header, %state, %source_header, %source_bytes : memref<2xi64>, memref<2xi64>, memref<2xi64>, memref<?xi8>
  }

  func.func @LyUnicodeStrIterator_Iter(%iter_header: memref<2xi64> {ly.ownership.object_header}, %state: memref<2xi64>, %source_header: memref<2xi64> {ly.ownership.object_header}, %source_bytes: memref<?xi8>) -> (memref<2xi64>, memref<2xi64>, memref<2xi64>, memref<?xi8>) attributes {ly.ownership.owned_results = [0], ly.runtime.contract = "builtins.str_iterator", ly.runtime.method = "__iter__", ly.runtime.result_contract = "builtins.str_iterator"} {
    %iter_header_view = memref.cast %iter_header : memref<2xi64> to memref<2xi64, strided<[1], offset: ?>>
    func.call @Ly_IncRef(%iter_header_view) : (memref<2xi64, strided<[1], offset: ?>>) -> ()
    func.return %iter_header, %state, %source_header, %source_bytes : memref<2xi64>, memref<2xi64>, memref<2xi64>, memref<?xi8>
  }

  func.func @LyUnicodeStrIterator_Next(%iter_header: memref<2xi64> {ly.ownership.object_header}, %state: memref<2xi64>, %source_header: memref<2xi64> {ly.ownership.object_header}, %source_bytes: memref<?xi8>) -> (memref<2xi64>, memref<?xi8>, i1, memref<2xi64>, memref<2xi64>, memref<2xi64>, memref<?xi8>) attributes {ly.ownership.owned_results = [0, 3], ly.runtime.contract = "builtins.str_iterator", ly.runtime.method = "__next__", ly.runtime.element_contract = "builtins.str", ly.runtime.next_contract = "builtins.str_iterator", ly.runtime.valid_result_index = 2 : i64} {
    %position_slot = arith.constant 0 : index
    %length_slot = arith.constant 1 : index
    %position = memref.load %state[%position_slot] : memref<2xi64>
    %length = memref.load %state[%length_slot] : memref<2xi64>
    %valid = arith.cmpi slt, %position, %length : i64
    %one = arith.constant 1 : i64
    %next_position_candidate = arith.addi %position, %one : i64
    %next_position = arith.select %valid, %next_position_candidate, %position : i1, i64
    memref.store %next_position, %state[%position_slot] : memref<2xi64>
    %iter_header_view = memref.cast %iter_header : memref<2xi64> to memref<2xi64, strided<[1], offset: ?>>
    func.call @Ly_IncRef(%iter_header_view) : (memref<2xi64, strided<[1], offset: ?>>) -> ()

    %element:2 = scf.if %valid -> (memref<2xi64>, memref<?xi8>) {
      %item_header, %item_bytes = func.call @LyUnicode_GetItem(%source_header, %source_bytes, %position) : (memref<2xi64>, memref<?xi8>, i64) -> (memref<2xi64>, memref<?xi8>)
      scf.yield %item_header, %item_bytes : memref<2xi64>, memref<?xi8>
    } else {
      %start = arith.constant 0 : index
      %zero = arith.constant 0 : i64
      %empty_header, %empty_bytes = func.call @LyUnicode_FromBytes(%source_bytes, %start, %zero) : (memref<?xi8>, index, i64) -> (memref<2xi64>, memref<?xi8>)
      scf.yield %empty_header, %empty_bytes : memref<2xi64>, memref<?xi8>
    }

    func.return %element#0, %element#1, %valid, %iter_header, %state, %source_header, %source_bytes : memref<2xi64>, memref<?xi8>, i1, memref<2xi64>, memref<2xi64>, memref<2xi64>, memref<?xi8>
  }

  func.func @LyUnicodeStrIterator_DecRef(%iter_header: memref<2xi64> {ly.ownership.object_header}, %state: memref<2xi64>, %source_header: memref<2xi64> {ly.ownership.object_header}, %source_bytes: memref<?xi8>) attributes {ly.ownership.release_args = [0], ly.runtime.contract = "builtins.str_iterator", ly.runtime.deallocator} {
    %storage = memref.cast %iter_header : memref<2xi64> to memref<?xi64>
    %became_zero = func.call @LyObject_ReleaseStorageToZero(%storage) : (memref<?xi64>) -> i1
    cf.cond_br %became_zero, ^dealloc, ^done

  ^dealloc:
    func.call @LyUnicode_DecRef(%source_header) : (memref<2xi64>) -> ()
    memref.dealloc %iter_header : memref<2xi64>
    cf.br ^done

  ^done:
    func.return
  }
}
